vision_system/full_model.pth (torch, 151159 bytes, 8 tensors)

weight f4 [16, 3, 3, 3]
000000 d5 91 07 3e 51 52 11 3e 66 05 3c be 57 2f 40 3e
       0.13239224 0.14191557 -0.18361434 0.18768059
000010 02 7a ee bc 2d 17 0b be 85 78 3d 3b 7d 80 d7 bd
       -0.029110912 -0.1358306 0.0028910947 -0.10522554
000020 a3 ac d6 3d ac 1b 01 be f8 93 72 3d 73 fb 2b be
       0.104821466 -0.12608212 0.059223145 -0.16795139
000030 fd 1f ef 3c 7a 57 0f 3d 6f ef c8 bc fb 68 ff 3d
       0.029190058 0.034995534 -0.024528233 0.12471195
000040 cd 52 48 3e 98 7f c0 bd f6 a4 16 be 80 fd 3b bd
       0.19562836 -0.093993366 -0.14711365 -0.045896053
000050 7b 3f 33 bd 0d 34 cb bd 6f f0 52 bd 91 95 e9 3d
       -0.04376171 -0.09922037 -0.051498827 0.11405481
000060 3d 91 17 be 34 4e 19 be b2 e2 0a bd 64 6f 2a 3d
       -0.14801498 -0.14971238 -0.0339076 0.041610137
000070 0c 67 77 bc cd ea 64 3d 00 d7 a2 3d 3f e8 33 3e
       -0.015100252 0.055887986 0.07951164 0.17569064
000080 09 4a 90 bd 01 61 18 be 10 e1 94 3d f6 cc 35 3e
       -0.07045371 -0.14880754 0.0726949 0.17753968
000090 28 81 2e 3e e2 6e 24 3e 80 10 6e 3d 63 ae 37 3e
       0.17041457 0.16057923 0.058121204 0.17937617
0000a0 8b 38 47 3e 9c 0b 0d 3e b7 2e bf bd dc c6 44 3e
       0.19455163 0.1377396 -0.09335082 0.19216484
0000b0 b9 b7 8a bd 49 52 0c 3e a9 b8 f0 bd d4 3a f5 bd
       -0.067733236 0.13703264 -0.11753971 -0.11974111
0000c0 f8 5f 81 3d b5 c4 86 bd c1 c5 53 3d e4 ff 8a 3d
       0.06317133 -0.06580488 0.051702265 0.067870885
0000d0 78 0c 8c 3d c2 58 f5 3d 89 96 3a bc 64 97 af bd
       0.06838316 0.1197982 -0.011388429 -0.08573797
0000e0 a6 e2 9d bd 9b 2c 88 3c a6 b1 da 3d 39 fe 22 ba
       -0.077092454 0.016622832 0.10678415 -0.00062176917
0000f0 7a 5e 15 be 1b 2c 6a bd b0 7d 14 3e f3 78 cd 3c
       -0.14586821 -0.05717097 0.14501071 0.025082087
000100 d3 8f 5e 3e 14 53 44 3e c7 f8 46 3e 50 df 19 3d
       0.21734552 0.19172317 0.19430839 0.037566483
000110 9e d1 de bd cb b1 6f 3d 30 8c 1c 3d e1 ac 0b 3e
       -0.10879825 0.058519166 0.03821963 0.13640167
000120 d2 05 4c 3d 12 a4 e2 3d b8 d9 27 be 48 46 f9 b9
       0.04981024 0.1106645 -0.16391647 -0.00047545345
000130 f2 97 46 3d c0 db dc 3d ac d1 3c 3e e9 89 b2 bd
       0.04848475 0.107841015 0.18439358 -0.087177105
000140 3d 29 80 bd 4a b9 46 3e 0f f4 0b be 04 39 85 3c
       -0.062578656 0.1940662 -0.1366732 0.016262539
000150 25 4f fe 3c 34 7b d0 3d 7a 30 08 3e 38 38 7a 3c
       0.031043598 0.10179749 0.13299742 0.015272193
000160 6d 4f 89 bc f9 9d 62 3e 8b a5 0a be f9 26 30 3c
       -0.016761506 0.22130574 -0.13539712 0.010751479
000170 0b 22 17 be 1f e6 cb 3d 06 97 21 3e 42 17 1c be
       -0.1475908 0.099560015 0.15780267 -0.15243247
000180 67 0a 23 3e 0f e7 07 3e 6c 18 bd 3c f0 10 f2 3d
       0.15921937 0.13271736 0.023082934 0.11819637
000190 05 de 4d be 5c ce 7d bd d1 6c cc 3d a8 64 5c 3d
       -0.20104225 -0.061964378 0.099816926 0.05380693
0001a0 5b 4f 7e bd 43 cf d6 3d c6 e2 70 bc be b8 ab bc
       -0.062087398 0.10488751 -0.0147025045 -0.020962115
0001b0 b1 b7 37 3e 2f 9b 3e 3e 8f cf 3a 3e db 3c 1f be
       0.17941166 0.18613885 0.1824324 -0.15550558
0001c0 10 37 3e 3e 51 67 1c 3e 68 82 3f 3e e4 f8 35 3e
       0.18575692 0.15273787 0.1870209 0.17770725
0001d0 f7 57 6f 3d 04 c4 75 3c 3a f4 16 3b 42 aa ed 3d
       0.0584335 0.015000347 0.0023033754 0.1160474
0001e0 c4 33 e1 bd 8c aa 1f 3e e1 da 24 bc 04 0a cd 3d
       -0.10996202 0.15592402 -0.01006195 0.10011676
0001f0 4f 54 03 be 96 92 8d 3d f5 f8 17 3e b5 17 e2 bc
       -0.1282513 0.06912725 0.14841063 -0.027599195
000200 86 94 1c be e3 8c 55 bd a5 18 e1 3d 87 d7 52 be
       -0.15291032 -0.052136313 0.10991029 -0.2059003
000210 dd 74 a9 bc 94 83 18 bd bf e4 0f be 75 cc ec bd
       -0.020685608 -0.037234858 -0.14052103 -0.115624346
000220 c9 35 50 3e 2d 17 52 3e e2 1b 0b 3e 9a 5d 01 3d
       0.20333017 0.20516653 0.13584855 0.031583406
000230 51 fc 62 3d a4 77 9d 3d 54 43 10 3e 82 a5 17 3e
       0.05541641 0.07688835 0.14088184 0.1480923
000240 cd 40 c0 bd 22 33 05 be 75 ac 1c be 7b a9 0d bd
       -0.0938736 -0.13007787 -0.15300162 -0.034585457
000250 9e 3f 4d be 0f 70 af 3c 51 47 e9 bd f1 07 02 be
       -0.200438 0.021415738 -0.11390556 -0.12698342
000260 a4 a3 2a be 5b 81 ca 3c 8b ba 14 be 94 d9 96 3d
       -0.16663986 0.024719885 -0.14524285 0.073657185
000270 f3 6c 9c bb 21 45 be 3d 4b 60 0a bc 21 a3 d7 3d
       -0.00477373 0.09290529 -0.00844581 0.10529161
000280 91 c0 19 bd f5 a0 bc 3d b0 92 65 be 78 3a c3 3d
       -0.03753716 0.092103876 -0.22419238 0.095326364
000290 c6 f2 32 be 7b 90 23 3e 44 3f c2 bd 9b 3b d7 3d
       -0.17475423 0.15973084 -0.09484723 0.10509416
0002a0 97 2b d3 3c 2d 17 e7 3d 15 c8 bf 3c e5 06 56 be
       0.025777621 0.11283717 0.023410836 -0.20901068
0002b0 a8 84 81 bd ed 08 97 bd 62 7a f5 3d cc 90 90 bd
       -0.0632413 -0.07374749 0.11986233 -0.07058868
0002c0 ee 63 14 3e dc eb ef 3d c8 5b 07 be 8e 4a 15 3e
       0.14491245 0.117149085 -0.13218606 0.14579222
0002d0 53 2b a4 bd 7e 72 b9 bd 2c ff c4 3d 12 e4 42 be
       -0.08016076 -0.09055041 0.09618983 -0.19032314
0002e0 8c 85 e6 3d 8c 2b 12 3e 0d ce 03 3d 7b 3f 29 bd
       0.11255941 0.14274424 0.032178927 -0.041320305
0002f0 9b 65 e6 bd 05 92 09 be 5a 53 91 3c 8c 97 82 3c
       -0.112498485 -0.13434608 0.01773994 0.015941404
000300 fc 71 20 be 8a 61 21 be ce 2e 11 3c f3 f4 fe 3d
       -0.15668482 -0.15759864 0.008861257 0.12449064
000310 87 ae f9 3c ef 7d 86 3d 46 2c ff 3d 1f cb 90 3b
       0.030478729 0.06566989 0.12459616 0.004418745
000320 f7 ac 2d 3e dc 07 42 3e b8 a0 48 3d 8c 0f 13 3e
       0.16960512 0.1894831 0.0489814 0.143614
000330 88 31 6a 3d 7c 43 f8 3d 49 9c 51 3c 67 f3 0d bd
       0.057176143 0.121222466 0.012793609 -0.034655955
000340 ed 7a 6a bd 91 d3 4e 3e 74 f1 39 3e 63 ff b0 3d
       -0.057246137 0.20197894 0.18158513 0.08642461
000350 6f 25 40 3d a0 e0 1b be 6d ea 58 3e 43 1b 42 3e
       0.0469107 -0.15222406 0.21183176 0.18955712
000360 a6 15 84 3d e4 8d 98 bc a3 5a 00 3e 4b 3a f5 bd
       0.064494416 -0.018622346 0.12534575 -0.11974009
000370 b1 a9 ad 3d 9f d6 70 bc c9 57 e7 bd 85 39 2d be
       0.08479632 -0.014699607 -0.112960406 -0.16916473
000380 d2 19 9a bd f5 dd 13 be 7a 3f d6 3d 7e 5f 43 be
       -0.07524456 -0.14440139 0.10461326 -0.19079396
000390 c9 c5 db 39 76 e1 6f 3d 14 a9 2f bc 9a cc d1 bd
       0.00041918296 0.058564626 -0.010721464 -0.10244103
0003a0 29 ca 1b be ae 0d 78 bd 93 01 32 be 76 66 e2 bd
       -0.15213837 -0.06055992 -0.17383413 -0.11054699
0003b0 a2 2b 6b 3d fe 53 f5 3d ec 6f a4 bd 5b a6 37 be
       0.05741466 0.11978911 -0.0802916 -0.17934553
0003c0 f3 33 55 bd 96 76 79 3d e5 6d 2e be 21 0e 7a 3d
       -0.052051496 0.060904108 -0.17034109 0.06104863
0003d0 c8 d6 a5 3d 82 da 40 3c f3 f3 06 3e df 12 11 be
       0.08097607 0.011770846 0.13178997 -0.14167355
0003e0 21 21 d5 bd b6 7b 54 bc 8e 07 7e bd 10 49 b5 bc
       -0.104067095 -0.012968948 -0.062018923 -0.022129565
0003f0 29 18 bc 3d 08 cb 3c 3c 06 f8 31 3e e3 54 f2 3d
       0.09184296 0.011523016 0.1737977 0.11832597

bias f4 [16]
000000 df 61 1c 3d 97 2b 51 3c 14 d3 52 3e a1 56 ea 3d
       0.038179275 0.01276674 0.20588332 0.114423044
000010 a9 61 11 be d2 49 4d 3d 67 ae e9 bd 45 d4 3b 3e
       -0.1419741 0.05011923 -0.11410218 0.18342693
000020 02 ed 46 3d e4 df e6 3b ce bb c4 bd d1 e3 01 be
       0.048565872 0.007045733 -0.096061334 -0.12684561
000030 94 2c 87 bd 2c ca 13 3e fb 89 49 3e 6b b2 9d 3b
       -0.066002995 0.14432591 0.19681542 0.004812529

weight f4 [32, 16, 3, 3]
000000 44 ac e7 3c 8b 6e c0 3d 0a e3 92 bc a2 94 ad 3d
       0.028280385 0.093960844 -0.017930526 0.08475615
000010 e5 2c 52 bd a5 6d f7 bc f1 d5 81 bd 8e 2c 7c bd
       -0.051312346 -0.03020365 -0.06339634 -0.06156593
000020 a2 41 21 bd 2b a4 f2 bc 5e 80 9a bc f3 9c 5c bd
       -0.039369233 -0.029619297 -0.018860038 -0.053860616
000030 95 09 7a bd 2c a2 2f bc 14 db aa 3d f0 21 8f bd
       -0.061044294 -0.010719817 0.08342567 -0.06988895
000040 76 43 1b 3d 07 68 32 bc 74 ee de 3c 06 af 69 3d
       0.037906133 -0.01088906 0.027213313 0.05705168
000050 7d 1e ee bc a0 08 0c 3d 27 90 18 3d a3 66 60 bd
       -0.029067272 0.034187913 0.03724685 -0.054785382
000060 8f b5 0d bd 2c 8e 83 3c 66 b5 21 3d b8 d2 82 3d
       -0.034596976 0.016059004 0.039479636 0.06387848
000070 10 6b da 3b 2b 6b de 3d 9b 1d a4 3d 04 d3 83 3c
       0.006665595 0.108602844 0.08013459 0.016091831
000080 74 ed 67 3c e6 1b 1a 3c c8 86 b4 3d b9 44 ed 3c
       0.014155734 0.009406066 0.0881477 0.028963434
000090 65 7b 6d bb 3a 59 25 bd 4e b8 67 3d 29 6b 94 bd
       -0.003623688 -0.040368296 0.05657225 -0.07247002
0000a0 5c 71 64 bd 56 b1 90 3d ed d7 1f 3d bf f0 4f bd
       -0.05577217 0.07065074 0.039024282 -0.050766703
0000b0 95 41 97 bc 59 df d7 bc f2 9b 6d 3d 32 79 9d bd
       -0.01846389 -0.026351618 0.05801005 -0.07689132
0000c0 59 cf 34 3d c4 0a 50 bd a6 db ca ba c5 9e 3a bb
       0.044143055 -0.050791517 -0.0015476837 -0.0028475982
0000d0 53 82 0e bc 19 64 60 bd e8 8b da 3d 13 59 8d 3d
       -0.008698064 -0.05478296 0.10671216 0.06901755
0000e0 67 d1 56 3d 01 04 d4 3d b3 d5 4a bc eb 19 d9 3a
       0.052445795 0.10352326 -0.012380051 0.001656351
0000f0 d9 8a dd 3d e7 80 81 3d eb 48 73 3d e1 8f 84 3d
       0.10817499 0.06323414 0.059395712 0.06472755
000100 b2 d3 6c bc fb 10 a6 bc 99 5f 16 bd 96 81 b0 bc
       -0.014454769 -0.020271769 -0.036712263 -0.021546166
000110 fe 45 b3 3d bd ac 6d 3d cf ea b3 3d 4d 78 05 3d
       0.08753584 0.058026064 0.087850206 0.03258543
000120 cc 35 15 bc 09 fe 02 3d 0f 46 dd 3c 6c 4c 33 bb
       -0.009107064 0.031980548 0.027010946 -0.0027358783
000130 28 53 91 bd 57 91 93 3c 36 27 9a 3d a6 81 1f bd
       -0.07095939 0.01801364 0.0752701 -0.038942
000140 69 a9 42 bd 98 6e c4 3d e9 d8 46 bd dd d5 6c bb
       -0.047524843 0.095914066 -0.048546705 -0.0036138215
000150 48 76 52 bd 39 c1 81 3d 17 91 f8 3c 7e 0c 28 bd
       -0.051382333 0.063356824 0.030342622 -0.04102754
000160 9c b6 7a bd 09 1e c7 bc 57 11 ba ba 40 21 ba bd
       -0.061209306 -0.024306314 -0.0014195842 -0.09088373
000170 0b e0 ef bc ee f5 b5 3a 51 35 96 bd 41 0c 58 bd
       -0.029281637 0.0013882497 -0.07334388 -0.05274606
000180 06 3f 6a bd 79 92 fd 3c 15 91 a4 bd a4 2f 0c 3c
       -0.05718901 0.030953633 -0.08035485 0.00855628
000190 b8 ea f6 3d 3a 39 c5 bc 8e e5 aa 3d e2 89 a8 3d
       0.12056488 -0.02407514 0.08344565 0.08229424
0001a0 9a b3 8f bc ef 02 8a 3d b1 12 e3 3d 3b 48 0d bc
       -0.017541695 0.06738841 0.110875495 -0.008623178
0001b0 e1 9d 32 3d 2c 59 97 3d 2f 6b f4 3d be 8d eb 3d
       0.043607596 0.07390055 0.11934506 0.115016446
0001c0 a3 c0 a1 3c b6 b6 fd 3c c6 5e 99 3d cf 79 38 3c
       0.019745177 0.030970912 0.0748878 0.01125951
0001d0 5c d1 ec 3c f8 0c 45 3c 51 cc ec 3c 10 6f 19 bc
       0.028908424 0.012027018 0.02890602 -0.009364858
0001e0 13 a3 4c bd a6 7a 4c 3d a9 3f 6b bd 04 0b 7b 3d
       -0.049960207 0.049921654 -0.057433758 0.061289802
0001f0 2a bb 90 3d 07 31 50 bc dc 76 7a 3d 96 ed 7a bc
       0.07066949 -0.0127070015 0.06114851 -0.015315434
000200 24 9a 9f 3d 6e 69 92 bd 51 35 bf 3d 72 83 3d 3d
       0.07793072 -0.07149015 0.09336341 0.046267934
000210 68 a3 e5 ba 62 3f a7 3d 55 0c 22 bc 82 79 4b 3d
       -0.0017520012 0.08166386 -0.0098906355 0.049676426
000220 22 a0 0d bd 4f 96 71 3c 7c f9 9c 3d b7 3b b1 bd
       -0.034576543 0.014745309 0.07664773 -0.08653968
000230 49 01 19 bd f5 fb 71 3c 8e af 2d bd 4c 2d 55 bd
       -0.03735474 0.014769544 -0.04240375 -0.05204515
000240 8c 07 21 3d 84 94 94 3c 84 b2 91 3d e8 c3 50 bb
       0.039313838 0.018137224 0.07114127 -0.003185505
000250 ff 63 15 bc 30 04 10 bc ce ba 5b 3d db b7 25 3d
       -0.009118079 -0.008790061 0.053644948 0.04045854
000260 5b 33 5e bd c1 df b6 3d f6 40 93 3c 59 b2 50 bd
       -0.054248195 0.089293964 0.017975312 -0.050951336
000270 50 42 95 3d 00 7a 7c 3d 7b 33 d6 3d 49 48 47 3d
       0.07288039 0.061639786 0.10459038 0.04865292
000280 dd 93 7e 3d 3a 60 4c 3d 6e f3 d7 3d a6 89 d1 3d
       0.062152732 0.049896456 0.105444774 0.102313325
000290 bf c9 e3 3c 56 32 8f 3d 28 16 c0 3d 53 0b 75 3d
       0.027806161 0.06992023 0.09379226 0.059825253
0002a0 a2 f6 37 3d 55 cf 95 3d 03 72 1b 3d b6 33 43 bc
       0.04491294 0.07314936 0.037950527 -0.011914184
0002b0 69 8d 93 3d 7a fa 43 3b 61 a9 1b 3d 5d 8c 8a 3d
       0.07204706 0.0029903934 0.03800333 0.067650534
0002c0 1d 26 5f 3d eb 0a 6b 3d 5c b6 0d bd 95 61 55 3d
       0.054479707 0.05738346 -0.03459774 0.052095015
0002d0 79 fb d5 3c 2e bc 8b 3d 4d b8 9a 3c a6 94 37 3b
       0.026120888 0.06823002 0.01888671 0.0028012185
0002e0 3f 1d 71 3d 80 99 ac bc 30 76 b8 3d 22 42 c3 3d
       0.058865782 -0.021069288 0.090069175 0.09534098
0002f0 e4 0a 04 bb 49 9a ec 3a d0 fd c9 3d bb be da 3d
       -0.0020148093 0.0018051352 0.09862864 0.1068091
000300 ac 67 c9 3d d6 15 0a 3e fe d0 73 3d 41 48 60 3d
       0.09834227 0.13484892 0.059525482 0.054756407
000310 c7 fd 07 3e a5 d9 17 3b b5 88 9d bd 3b 24 e1 bd
       0.13280402 0.0023170498 -0.076920904 -0.109932385
000320 76 20 2e bd a1 74 2f bd d2 e0 ed bd f9 19 7b 3c
       -0.042511426 -0.042835835 -0.11615147 0.015326017
000330 26 57 31 3c 72 ee db bd 0f f1 22 bc f6 c4 a2 3d
       0.010824 -0.10738839 -0.009945168 0.079477236
000340 69 cd 4a 3d da 07 1e 3d ba c1 da 3d 11 6a 66 3d
       0.0495123 0.038581707 0.10681482 0.056253497
000350 f3 c8 69 bd 38 54 5d 3d 15 2b 3e bd d8 f7 aa 3d
       -0.057076406 0.054035395 -0.046427805 0.08348054
000360 4f 02 aa bd 61 97 de bc fc 80 30 bd 08 31 0e 3d
       -0.083012216 -0.027171792 -0.04309176 0.03471473
000370 14 45 66 3d 88 67 fe 3c db df 24 3d 4a dd a4 3d
       0.05621822 0.031055227 0.040252548 0.0805002
000380 0d 8a a2 3a 0c e5 88 3d a5 5f 82 3d 5d 59 51 3d
       0.0012400761 0.06684312 0.06365899 0.051110614
000390 69 2e 32 bd bc f1 97 bd 4b e4 ad bd de 52 8c 3a
       -0.04350129 -0.07419154 -0.08490809 0.0010705849
0003a0 be ee 2f 3c d9 11 f8 ba 0b 5f 06 bd e6 ca c7 3d
       0.010738073 -0.0018926217 -0.032805484 0.09755497
0003b0 27 b1 2a 39 99 9d 76 3d e7 ec 38 bd 44 4f dc 3d
       0.00016278458 0.06020889 -0.045147803 0.10757306
0003c0 d4 ea 09 bd f8 3c 9a 3d a1 f0 20 bd ea 49 9a bd
       -0.033671215 0.0753116 -0.03929198 -0.07533629
0003d0 ed e5 89 bc 66 a4 db bc 23 de 7a 3d f5 48 91 bd
       -0.01683327 -0.02681179 0.061247002 -0.070939936
0003e0 0b 51 02 3d de 9d f0 bc 6d 74 eb bd 78 4d 07 bb
       0.03181557 -0.029372152 -0.11496816 -0.002064554
0003f0 01 34 e7 3c 8e c7 3b bb a3 05 61 bd 5e d5 9e bd
       0.02822304 -0.002865288 -0.054937016 -0.0775554

bias f4 [32]
000000 b1 2b 52 3d 37 31 77 bb 0f b3 44 bb 43 91 04 3d
       0.0513112 -0.0037718543 -0.0030013954 0.032365095
000010 8f 6b 41 3d e3 6d 71 3c 44 cf ee 3d f2 16 b6 3c
       0.047221716 0.014735672 0.116606265 0.022227738
000020 30 d8 6c 3d 8f 54 f4 bc cb 8f 74 bd 36 9b 31 3d
       0.05782336 -0.029825477 -0.059707444 0.04336091
000030 99 9a cb 3c 0f 53 1c 3d 6c 80 a4 3b c0 6f 89 bd
       0.024853991 0.03816515 0.005020192 -0.06710768
000040 2e 08 71 3d f0 3d b5 3d 7d 0f 5b bd 92 ca 89 3d
       0.05884569 0.08849704 -0.053481568 0.0672809
000050 c7 2a 94 3d 44 e3 a2 3c c0 3e ae 3d db cb cd bc
       0.07234722 0.01988376 0.08508062 -0.02512162
000060 28 70 78 3d 60 e2 b6 3d 67 f3 b3 bc 12 93 99 3d
       0.060653836 0.08929896 -0.02196665 0.074987546
000070 d6 58 36 3d 02 b5 5e bd ac d5 b0 3d d4 3f c4 3c
       0.044518314 -0.05437184 0.08634505 0.023956217

weight f4 [64, 32, 3, 3]
000000 5d 9c 8b bd 07 d8 2b 3d 96 76 2f bd 14 a1 ae 3c
       -0.06816933 0.041954067 -0.0428377 0.021317042
000010 44 81 59 3d 35 44 90 3c 88 69 40 bd 65 11 86 3d
       0.053101793 0.017610649 -0.046975642 0.065462865
000020 2a 34 a1 3c 0b 0b 6a bd 05 7f 85 bd db 3d 4b bd
       0.019678194 -0.057139438 -0.06518368 -0.049619537
000030 91 47 84 3c d2 52 40 bc 18 f2 31 3d 6d df f1 3c
       0.016147407 -0.011738496 0.04344377 0.029525483
000040 8a 17 4f 3a c9 66 39 3d d3 83 e9 bb 18 49 77 3d
       0.0007899931 0.04526404 -0.0071263104 0.060372442
000050 67 58 23 bd 80 fb 83 bb c2 25 ee 3a 95 a9 df bb
       -0.03987923 -0.004027784 0.0018169212 -0.0068256357
000060 8a e5 46 bc a0 6e 3f 3c e2 c6 44 bd 18 11 36 3d
       -0.012139687 0.01168409 -0.048041232 0.044449896
000070 b1 f3 54 bc bf 27 fd bc 83 19 9e 3c a0 35 90 3d
       -0.012997554 -0.030902741 0.019299274 0.07041478
000080 e7 cb d6 ba 17 f5 84 3c b2 6d 11 3d 8a f0 92 bb
       -0.0016387672 0.01623015 0.035505004 -0.004484241
000090 28 f6 98 3b 7f 8c 68 bd 15 ab 33 ba ce 9e 10 bd
       0.004668016 -0.056774613 -0.00068538013 -0.035307698
0000a0 89 69 91 bd 2d cb ea 3c cf 91 33 3b e6 a9 fb bb
       -0.07100207 0.028661335 0.002740014 -0.0076801656
0000b0 a7 15 08 bd 18 ad 2a 3d 55 a4 7c 3d d5 31 3d 3c
       -0.033223774 0.04166898 0.061680157 0.011547525
0000c0 4a 2a 1e 3a a8 c2 01 3c 2b 53 c6 bc 2b d0 c9 3a
       0.0006033523 0.007919945 -0.02420958 0.0015397122
0000d0 e4 59 05 3c 32 be 7f 3d 10 71 2c 3d eb ed 22 3d
       0.008139107 0.062437244 0.042100012 0.039777678
0000e0 eb b4 7a 3b 0d 01 13 bd 8a 79 2e bd ae 83 b7 bc
       0.0038254808 -0.035889674 -0.042596377 -0.022401657
0000f0 10 5c 88 bd ad 70 61 bd 06 eb 21 bd 1c 46 84 bd
       -0.066581845 -0.055039097 -0.039530776 -0.06458685
000100 07 09 f1 bc b4 bd 53 bc 92 18 55 bd 84 a3 de bc
       -0.02942325 -0.012923647 -0.052025385 -0.02717758
000110 33 f1 91 3b d1 81 80 bd 14 24 2a bd 7d 3e e7 bb
       0.004453802 -0.062747605 -0.041538313 -0.0070570097
000120 28 0d 9f 39 85 93 47 3d ce b3 d7 b9 be bd ff bc
       0.00030336645 0.04872467 -0.0004114196 -0.031218406
000130 82 57 1f 3d 5f b4 6e 3d 0b 54 50 3d cd 4c 5c 3d
       0.038901813 0.058277484 0.0508614 0.05378418
000140 c8 bf 6f 3d 4b 42 6f 3c e7 bd 67 3d 5d e6 5d bc
       0.058532506 0.014603208 0.05657759 -0.013543692
000150 70 2b 2d 3d 98 dc 45 3d a2 29 c4 bc 08 80 88 bb
       0.042277753 0.048306078 -0.023945633 -0.004165653
000160 53 61 13 bd f0 74 8d 3c a7 81 cc bc a5 30 4a 3d
       -0.035981487 0.017267674 -0.024964167 0.049362797
000170 74 40 8c 3c e4 69 bf 3b 2d e5 11 bd c2 43 0b 3d
       0.017120577 0.0058414806 -0.03561895 0.034000166
000180 8e fb 40 bd 47 86 87 bc ec 89 ff bc 3e ce 14 bb
       -0.0471149 -0.01654352 -0.031193696 -0.0022705938
000190 0a 95 d5 bc 50 2b d9 bc aa 29 cc bc 50 58 1f bd
       -0.026072044 -0.02650991 -0.02492221 -0.03890258
0001a0 04 71 00 b9 21 68 36 bd 61 50 8f bc ca 81 5f bd
       -0.00012249133 -0.0445329 -0.017494382 -0.054567136
0001b0 8f 35 a9 3c a6 8e f8 3c 97 2d 98 bd e9 d5 90 bd
       0.020655422 0.030341458 -0.074305706 -0.0707205
0001c0 25 1f b9 3b f1 16 31 bd e3 1c 9a bd 45 34 48 3c
       0.0056494647 -0.04323477 -0.07525041 0.012219493
0001d0 ec 7e 1c bc e4 f4 2d 3c e7 29 07 3d ae 21 cf 3c
       -0.009551745 0.0106174685 0.032998946 0.025284614
0001e0 b2 16 12 bd 9c 79 20 3d 34 2b fb 3c 61 fe 7d bb
       -0.035666175 0.039178476 0.03066025 -0.0038756358
0001f0 d5 b3 60 bd a7 25 6f bd 2e 64 4f bd d4 67 81 3c
       -0.054859 -0.058385517 -0.05063265 0.01579658
000200 da cc 2d bc cf 9e 68 3d 60 11 81 bc 7f c8 1d 3d
       -0.010607922 0.056792077 -0.015755355 0.038521286
000210 4d 61 64 3d b7 4b 29 3d 10 4b 05 3c 29 8a 77 bc
       0.055756856 0.041331973 0.008135572 -0.015108624
000220 ee f9 04 3a 2c 86 89 3d 93 84 7a 3d a8 09 6c 3c
       0.0005072643 0.067150444 0.06116159 0.014406599
000230 cc e0 94 3d ea a1 7c 3d 29 6d b5 3b 80 75 bf bc
       0.07269439 0.06167785 0.0055366945 -0.023371458
000240 1b ae 1a bd 37 28 5b bd 95 0b 0e bd ae 0f a6 3c
       -0.037763696 -0.05350515 -0.034679014 0.020271149
000250 4c ab 76 bc da b5 a6 3c 02 44 28 3d ad d7 6b bd
       -0.015055489 0.020350385 0.041080482 -0.05757873
000260 e8 8b 5a 3d 55 3c 1a bd 53 91 73 bd 09 09 84 bd
       0.05335608 -0.037655193 -0.059464764 -0.06447036
000270 43 35 bd bd 1a 1a 65 bd 2b 14 2e bd 17 cb 12 bd
       -0.092386745 -0.055933096 -0.042499702 -0.035838213
000280 c3 53 75 bc 9b 6a d9 bc e1 0f 1b 3d 3d 71 1e bd
       -0.014973584 -0.026540091 0.03785694 -0.03868221
000290 22 51 17 bc 16 5e d1 bc 91 cc 93 3d 65 1c ad bc
       -0.009235652 -0.025557559 0.07216752 -0.021131704
0002a0 18 3c 39 3d f6 23 82 3d 0c 68 9c 3d 3c 3f 05 bd
       0.045223325 0.06354515 0.07637033 -0.032531008
0002b0 cc d7 1d bd a0 5d 8f 3d c7 bc 80 bc 80 9b 3e 3c
       -0.038535878 0.070002794 -0.015715016 0.011633754
0002c0 11 55 d4 3c 3f ba 1c bc 80 93 34 3d bf 7b d8 bb
       0.02591947 -0.009565889 0.04408598 -0.0066065486
0002d0 a5 97 34 3c f5 06 ba bc a9 62 4c bc 82 25 2f bd
       0.011022483 -0.022708395 -0.012474694 -0.04276038
0002e0 8c 13 3c 3d 96 ab 8b 3b a2 5a d4 bb 35 8a f4 3b
       0.04591708 0.004262398 -0.006480531 0.0074627646
0002f0 da 53 3a bd 50 ed 1c bd af f6 d2 3c 67 44 e0 bc
       -0.045490123 -0.038312256 0.025752394 -0.027376367
000300 e0 1b 73 3d 64 0b b4 bc 8b 68 71 3d e4 99 33 3b
       0.059352756 -0.021978088 0.05893759 0.0027404958
000310 ed f5 b8 bc 35 2a 75 3d f6 86 88 bd 2e 74 a4 bd
       -0.022578204 0.059854705 -0.06666367 -0.08029972
000320 d1 fb 19 bd 55 27 97 3c 6b ae 16 bd 0f 7a a4 bd
       -0.037593666 0.018451372 -0.03678743 -0.08031093
000330 0a 59 7a bd 54 f9 20 bd 4b 9b 92 3c ed ea 3f bc
       -0.06112007 -0.039300278 0.017896315 -0.0117137255
000340 70 37 cf bc 42 95 f1 bc 97 2a ca ba d5 ff 39 bd
       -0.02529499 -0.029490117 -0.001542407 -0.045409996
000350 fd ae 0d bd de 92 97 3b 3e 02 99 bd 8f 8c 56 bc
       -0.03459071 0.004625662 -0.07471131 -0.013095035
000360 0e 8e 2d 3d f6 46 30 3d af 94 42 3d 45 c2 d4 3b
       0.042371802 0.043036424 0.047505077 0.0064928853
000370 28 f1 bc bc 43 34 68 3c 53 85 02 3d 46 c2 50 3d
       -0.023064211 0.014172616 0.03186543 0.050966524
000380 b8 10 d0 3c 2e eb 92 bc 2d f3 9b 3c 8d c6 8c bc
       0.025398597 -0.017934408 0.019036854 -0.01718452
000390 fb c6 b1 bd 32 57 3e bd 7c 3b d5 bb 3f fc 14 bd
       -0.08680531 -0.046469875 -0.006507335 -0.036373373
0003a0 8d f4 7d bd 16 3a 87 bd ac 99 03 bd 36 21 f7 3c
       -0.0620008 -0.06602876 -0.032128975 0.030167203
0003b0 6e 3d 63 ba a0 da 3d bd aa e1 25 b9 2a b9 2e bc
       -0.00086685165 -0.046351075 -0.00015819693 -0.010664264
0003c0 5d 93 1c bd bb a1 2e 3d 01 e0 b6 bb 42 ef d7 3b
       -0.038226474 0.042634707 -0.0055809026 0.006589801
0003d0 61 10 ce bc 0f 5d 8c 3d e7 0d 27 bb 4a 42 5a 3b
       -0.025154294 0.06853687 -0.0025490464 0.0033303672
0003e0 87 a9 d2 3c 83 c5 22 bd 1c 40 29 bd 8b 69 03 bd
       0.025715603 -0.039739143 -0.041320905 -0.032083075
0003f0 07 54 20 3d f5 f3 c8 bc 90 8e 6e 3d 19 ca 68 b9
       0.039142635 -0.02453039 0.058241427 -0.00022200531

bias f4 [64]
000000 db 17 48 3d 92 3a 1b bc fd b8 24 3d 52 10 09 bc
       0.048850875 -0.0094744135 0.04021548 -0.0083657075
000010 25 ba 55 3b ac b4 6e bd 68 67 c8 bc 04 47 d6 3b
       0.0032612171 -0.05827777 -0.02446337 0.0065392274
000020 78 62 51 bd cd 52 4c 3d 0b 7f 02 bd 49 5d 61 3d
       -0.051119298 0.049883652 -0.03185944 0.055020604
000030 4e d3 42 3b ee 30 47 3d 1d f9 2e bd 89 e8 7a bd
       0.0029727998 0.048630647 -0.04271804 -0.06125692
000040 c5 e1 7f bd 09 f3 48 3d 3f 89 c0 bc c1 c8 de bc
       -0.06247117 0.0490599 -0.023502944 -0.027195336
000050 34 b8 30 3d 82 7a 53 3d a8 ee fd ba 62 38 b3 bc
       0.04314442 0.051630504 -0.0019373493 -0.021877471
000060 59 2e 03 3d 27 cc 9d 3c 13 03 85 bd 55 97 38 bd
       0.032026622 0.019262386 -0.06494727 -0.045066196
000070 87 a4 37 bd 63 b5 23 bd 04 ff 4d bd 24 e6 9f 3d
       -0.04483464 -0.039967906 -0.05029203 0.07807568
000080 ae c6 25 ba 52 7c 3a bd 28 10 0d 3d 2c 9b 59 bd
       -0.0006323856 -0.045528717 0.034439236 -0.0531265
000090 13 cc 29 bd af 90 80 3d 8b 12 64 3b 96 e8 87 3c
       -0.041454386 0.06277596 0.0034801092 0.016590398
0000a0 48 4e 48 3d 88 68 a8 3c cb 18 4f 3d be 65 10 bd
       0.04890278 0.020557657 0.050560754 -0.03525328
0000b0 5d 61 42 bd 98 82 7d bc f0 b9 40 3d dd 5a d2 3c
       -0.047456134 -0.0154730305 0.047052324 0.025678093
0000c0 78 50 b2 bc e0 4c 97 3a f9 dc 66 bd 69 9b c3 3c
       -0.021766886 0.0011543296 -0.05636308 0.023877816
0000d0 03 44 4a 3d 53 3d 8a 3d e5 df 29 bd 8c f0 ba bc
       0.049381267 0.06749978 -0.041473288 -0.02281978
0000e0 6b 2f 48 3d 18 7b 91 3d 4e 45 76 bd f1 d3 55 3d
       0.048873346 0.071035564 -0.060124688 0.052204076
0000f0 50 aa 4a bb e1 cb ff bc 17 e6 85 3c 95 5e 86 bd
       -0.0030924268 -0.031225147 0.016345067 -0.06561009

weight f4 [3, 4096]
000000 96 4e 5f bc cb 40 75 bc 40 b4 49 bc 43 2d 86 bc
       -0.013629576 -0.014969061 -0.012311041 -0.016379004
000010 18 db 9b bc 56 21 84 3b 5f 7a b5 3b 92 77 d5 3b
       -0.01902537 0.0040322943 0.0055382694 0.006514498
000020 b9 5b 9e 3a 7c e9 14 bb c7 44 c9 3b 1c a7 f1 bb
       0.0012081779 -0.0022722175 0.006142232 -0.0073746573
000030 53 91 2c 3c 27 38 70 3c 8a a3 7d 3b f2 e9 be bb
       0.010532695 0.014661825 0.0038702213 -0.0058262283
000040 81 e2 1b 3b 89 e9 40 3c ea 67 88 3c 93 96 1b 3d
       0.002378613 0.011774429 0.016651113 0.037985396
000050 2a 41 0b 3d 66 b0 57 3c 76 d1 6d 3c 18 e0 0f 3b
       0.033997692 0.013164615 0.014515271 0.0021953639
000060 41 ac 5a 3c 9d 85 0d 3d 3c 0e 98 3c 8d 2f d5 3c
       0.013346733 0.03455125 0.018561475 0.02602365
000070 c5 39 ff 3c aa 66 87 3c 35 5d 8e 3c 8d a2 b0 3c
       0.031155476 0.016528446 0.017378429 0.021561885
000080 f8 e5 94 3b 2a 2e 77 ba 80 1d 3e 3d 5e c9 38 3d
       0.004544016 -0.0009429181 0.046414852 0.045113914
000090 ae d6 0e 3d fa ad 0c 3d 08 55 cc 3c 2b be 3e 3c
       0.034872703 0.034345604 0.02494289 0.011642019
0000a0 43 8f 1b 3c 83 76 4a 3c 84 1e 2c 3d 00 70 98 3c
       0.0094946055 0.012357357 0.04202129 0.018608093
0000b0 14 7c ce 3c 30 96 0f 3d cb 26 59 3b 7c b5 16 3b
       0.02520565 0.03505534 0.0033134695 0.0022996357
0000c0 16 7d f6 3b ba ce 95 3c c2 52 11 3d 03 6e 41 3c
       0.0075222356 0.018287051 0.035479315 0.011806014
0000d0 4b 43 9c 3c 4d 54 76 3c e9 75 b4 bb b8 0c aa 3b
       0.019075057 0.015034747 -0.00550722 0.0051895045
0000e0 fa a3 92 3c 3d 33 27 3c 90 dd 41 ba df d1 be b9
       0.017900456 0.010205087 -0.0007395381 -0.0003639599
0000f0 49 ef b5 3b e0 db 85 3c 21 5f 41 bc 7d 3b 14 bb
       0.0055522067 0.016340196 -0.011802466 -0.0022618466
000100 ec f6 be bc 8a 41 df bb a2 ff 37 bb 03 18 0b 3c
       -0.0233111 -0.006813233 -0.0028075953 0.008489612
000110 fd fa e7 3a 78 d1 46 bc a0 47 f8 3b a5 0e a4 3c
       0.0017698702 -0.012134902 0.0075768977 0.020026514
000120 d6 61 48 3c f4 bf 9f 3c f6 57 f6 3c a9 7d 7b 38
       0.012230357 0.01950071 0.03007124 5.9960093e-05
000130 e2 f9 74 3c f8 c8 39 3c d8 68 9d 3c 1e 12 35 bb
       0.014952155 0.011339419 0.019215032 -0.0027629207
000140 a1 f4 7a bb 54 81 c5 3c cc 74 e8 3c 8f e7 e6 3c
       -0.0038292783 0.02410952 0.028376006 0.028186588
000150 2c 58 06 3c 54 c5 8e 3c 66 7c fe 3c 02 44 d4 3c
       0.008199733 0.017428078 0.031065177 0.025911335
000160 78 fa 6e bc a3 7d 33 3c 40 0a 09 3b 2c b5 df bc
       -0.014586084 0.010955247 0.002091065 -0.02730807
000170 01 fb 0d bd bf dd 08 ba de e8 aa 3c 48 e5 5f 3b
       -0.034663204 -0.0005221031 0.020862993 0.0034163762
000180 9b fb ed 3b f2 0e e0 ba 12 d5 00 bd 03 d6 15 bd
       0.0072626597 -0.0017094298 -0.0314532 -0.03658105
000190 20 cf 32 bc 58 fa e8 bc 67 5b b7 3b da 78 42 bb
       -0.01091364 -0.028439686 0.005595613 -0.0029674084
0001a0 45 90 97 3a 53 90 3e bc bf ca 92 bc c9 37 f2 bc
       0.0011563381 -0.011631089 -0.017918942 -0.029567616
0001b0 eb 54 07 bd f8 e8 30 bc dd 8f 3d 3c 46 7d 3d 3b
       -0.03303997 -0.010797732 0.011569944 0.002891378
0001c0 e0 a0 84 bc 0e 82 30 3c 81 0b 96 bc fa 2c 79 bc
       -0.016189992 0.010773195 -0.018316032 -0.015208477
0001d0 86 26 d6 bc c5 77 6e bc ec 26 ea 3c ab 37 9c 3c
       -0.026141416 -0.0145549225 0.028583013 0.019069513
0001e0 b0 18 f2 3b 06 c2 a2 3c e6 d7 8f 3c fe f2 46 3b
       0.007388197 0.019867908 0.017559003 0.0030357237
0001f0 f5 96 ab 3c 73 54 60 3c 43 e1 72 ba 10 ee 85 3c
       0.020946005 0.013692009 -0.0009265134 0.016348869
000200 d3 63 af 3a 70 cc fa 3b 3f ec aa 3c 06 5c 19 3c
       0.001338119 0.0076537654 0.020864604 0.009360319
000210 fd 11 f6 3c 5d ed ae 3c 28 ba 1e 3b 29 9d 7b 3c
       0.030037874 0.021353418 0.0024219844 0.015357294
000220 ed 50 41 bb c0 7e 06 bc e6 7e 2b 3c 42 aa 70 bc
       -0.0029497698 -0.0082089305 0.010467267 -0.01468903
000230 53 be ea bb 14 6c 70 bc 70 a5 f2 3c 33 d1 9b 3a
       -0.0071638017 -0.014674205 0.029619902 0.0011887908
000240 1a b9 96 3b b8 6b 86 bc 95 30 6f bc 07 21 49 bc
       0.0045997025 -0.016408786 -0.014598985 -0.012275941
000250 a4 ad 0c bd 8a e1 ef bc 64 b0 8c 3c 49 da 92 bb
       -0.034345284 -0.02928235 0.017173953 -0.004481588
000260 3c aa 12 3a 27 c9 19 3c 48 ee 70 bc 3f 95 66 bc
       0.0005594825 0.009386337 -0.014705248 -0.014073669
000270 4a d1 8f bc d4 fa 36 bc 32 a6 9f bc f4 27 1a bc
       -0.017555851 -0.0111682005 -0.019488428 -0.00940894
000280 42 45 87 bb 16 00 40 3c cf 88 3b 3b 9f ee 9e bc
       -0.004128129 0.0117187705 0.002861548 -0.019400893
000290 e0 3d bc bc e5 9f 16 bc fd ab 33 bc f0 1c 86 3c
       -0.022978723 -0.009193395 -0.010966298 0.01637122
0002a0 7b 43 fc bb bf eb 44 3c be d4 81 3b 47 9d 8a bc
       -0.007698474 0.012019097 0.0039621284 -0.016920699
0002b0 0b c0 e0 bc 55 c5 93 bc 89 6b f5 3b 2a 62 5a 3c
       -0.027435323 -0.018038431 0.007489626 0.013329068
0002c0 6d 7c e7 39 33 3c 9e 3a 2a 41 1a 3c f3 fa ed 3b
       0.00044152458 0.0012072384 0.00941495 0.0072625815
0002d0 6e 66 0e bc 8a 7a 80 ba 7b cd b6 3c 7d 88 2d bb
       -0.008691413 -0.0009802144 0.022314778 -0.0026479058
0002e0 e0 22 47 bb b9 6b b2 3b f5 3d ee ba 4d 7e e8 3c
       -0.0030385777 0.0054449704 -0.0018176424 0.028380537
0002f0 11 b8 78 3c 95 c5 84 3c 1e 8d f7 3a 2d 75 82 3b
       0.015180604 0.016207496 0.0018886661 0.0039812536
000300 fa 71 64 bc 4f 1b 2b 3c 67 d9 9d 3b 29 54 20 3c
       -0.01394319 0.010443523 0.004817176 0.00978569
000310 4e 09 ce 3c 41 53 20 3c 10 2c 47 bb fe f2 03 3c
       0.025150921 0.009785474 -0.0030391254 0.008053539
000320 fb 39 f4 ba 8b 37 84 39 c8 f7 0a 3b 8c 7a 78 ba
       -0.0018633002 0.00025218385 0.0021204818 -0.000947871
000330 8a 04 be 3b 48 47 c6 3b 13 70 17 3a 66 e9 b8 bc
       0.005798881 0.006050978 0.0005776893 -0.02257223
000340 21 aa 5c bc 48 3e f1 3a a2 95 50 3c 0b 47 a0 bb
       -0.013468296 0.0018405402 0.012730988 -0.0048912815
000350 46 6b 3d 3b 73 35 ae bc d4 ec 8c bb 3d b8 57 3c
       0.0028903051 -0.021265721 -0.004300693 0.013166484
000360 8a a7 d2 bc 83 c4 81 bb 71 02 4f 3b e1 93 95 bc
       -0.025714654 -0.0039601936 0.0031587149 -0.01825899
000370 8f 26 cb 39 8f 6b 83 bc 5e f6 28 bb 0a 8a 70 bb
       0.00038747906 -0.016042499 -0.0025781612 -0.0036703371
000380 cc a6 7a bc 11 73 35 ba d8 55 92 bb 85 05 46 bc
       -0.015298557 -0.0006921748 -0.0044658 -0.012086277
000390 39 71 e0 bb 56 03 5b 3b 09 08 f7 3a fc d9 ed bb
       -0.0068494347 0.0033418736 0.0018846999 -0.007258652
0003a0 a5 cb c4 bc fa ba 0e bb 3c bc db ba 8c 36 2d 3c
       -0.024022887 -0.0021778927 -0.0016764472 0.010572087
0003b0 ed 72 49 bb c0 b8 83 bc 91 97 e1 3b 69 1c 72 bc
       -0.0030738667 -0.016079307 0.006884523 -0.014777281
0003c0 a0 e6 ba ba 98 05 b9 ba 71 a0 a0 bc 2c 7b 4c 3c
       -0.0014259405 -0.0014116047 -0.019607754 0.012480538
0003d0 53 07 70 3a ad 43 6d bc 33 c5 88 bc ba 35 17 3c
       0.0009156365 -0.014481467 -0.016695594 0.009229118
0003e0 9f e6 be ba 42 ca 49 bc 9e 90 ba bc 6b 23 26 bb
       -0.001456458 -0.012316288 -0.022774037 -0.00253507
0003f0 ef c4 25 bb 6e 63 0d 3b 96 e6 91 3a 03 dd 33 3b
       -0.0025294384 0.0021574157 0.0011131342 0.0027444966

bias f4 [3]
000000 4b 9f 24 bb 49 94 df 3c c7 33 26 bb
       -0.002511936 0.027292388 -0.0025360452
