vision_system/model_weights.pth (torch, 54945 bytes, 8 tensors)

features.0.weight f4 [12, 3, 3, 3]
-0.16473496 -0.10894005 0.035746936 -0.10245405 -0.11116189 0.04015098 -0.076989144 -0.03678826
0.078107744 0.10847589 0.03505518 0.088594206 -0.020314304 -0.10649578 -0.04571952 -0.08282788
0.06856279 -0.17951389 0.09693894 -0.11961135 -0.15584348 -0.13761161 0.20921652 -0.095663264
-0.095635824 -0.014853459 0.18127887 -0.2043526 -0.1761778 -0.16036032 -0.26920745 -0.14221372
0.095321216 -0.08938982 -0.13161013 0.032901704 0.103239454 -0.20953956 0.12549886 0.08608421
-0.119079135 0.15842856 -0.1964037 0.055449396 -0.081407495 0.033270054 -0.06322294 -0.17145161
0.05839714 -0.12820421 -0.06399655 -0.016122323 -0.13944843 -0.08958753 -0.11612446 -0.124520615
-0.054143094 0.17138794 -0.10511035 0.04095923 0.13702871 0.19677015 0.11947666 0.18113658
-0.12816444 0.042259756 0.20199952 -0.023278572 -0.10963155 0.014328751 -0.1456989 -0.079644755
0.0033036387 -0.18191174 0.15123077 -0.106720865 0.049798757 -0.014788538 -0.10585834 0.048076477
-0.07267404 0.09214793 0.16145143 -0.13745274 -0.083008036 0.15934011 -0.14463158 0.12773836
0.15290023 0.13590986 -0.1102197 0.039499853 -0.18405639 -0.096694 -0.09862218 0.047891706
-0.158469 0.13694514 0.1497381 0.036444265 -0.20633544 -0.116888754 -0.20756206 -0.028517235
0.110142194 -0.17950754 -0.034874875 0.121978685 -0.19373998 0.016344924 -0.23436216 0.062138904
-0.007056356 0.120422944 -0.034572236 -0.07692758 -0.15070912 -0.2081434 -0.026785355 -0.11293331
-0.057301365 -0.041034624 -0.062652394 -0.050152306 0.14756237 -0.100085884 0.18227246 -0.18738268
-0.033365875 -0.17341658 0.16592465 -0.17000523 -0.10051678 0.09242536 -0.020763222 0.08998364
0.018348966 -0.19445144 0.003148689 0.083681986 -0.22791329 -0.0010453595 -0.2650142 -0.25180212
-0.038735073 -0.20778468 0.16032253 0.003209528 -0.07475157 -0.09526139 -0.097551405 0.17006896
-0.041420773 0.065604165 -0.008484637 0.08841822 0.12260205 -0.03524892 -0.1281927 -0.1382969
-0.030116912 0.13677551 0.05483024 -0.23140445 -0.1400339 0.082980745 -0.15318856 -0.15893051
0.08649158 -0.09978763 -0.09854566 0.17909253 -0.05607042 0.023474343 0.04178302 -0.17389381
-0.19858626 -0.14956976 -0.18491088 0.12619638 -0.011504393 0.1306968 0.085647196 0.11116924
-0.1861064 0.12227105 -0.18816623 0.03311145 0.050903212 -0.20362088 -0.13886887 -0.16241574
-0.17846751 0.09415167 0.054241125 0.14023796 0.08123848 -0.14137964 -0.19346766 0.02277532
0.010128148 0.10932045 -0.13730395 0.1553381 0.14668822 -0.02511281 -0.17601497 -0.105435394
-0.19075227 -0.00029601203 0.10433846 -0.17057562 -0.086210206 -0.09016594 -0.029292464 -0.13601804
-0.07866935 0.020905297 -0.14057495 -0.15213828 0.027090337 -0.17445505 -0.05806884 -0.16320968
0.022055814 0.061524913 0.098322794 -0.02680485 0.1511645 -0.18511438 -0.07510459 0.17981215
0.016544452 -0.17654784 -0.18816097 -0.101242214 -0.099843 0.092948124 -0.1701037 -0.0008387023
0.05473652 -0.12208328 -0.15449044 -0.08072376 -0.12514898 -0.087088324 0.017188238 -0.026527548
0.00655439 0.0275575 -0.1717017 0.09065576 -0.0937666 -0.06425507 -0.10137048 0.1138982
00000000: 48b0 28be f61b dfbd 616b 123d 6ed3 d1bd
00000010: d8a8 e3bd 5b75 243d 7cac 9dbd 49af 16bd
00000020: f4f6 9f3d 9b28 de3d 0596 0f3d e170 b53d
00000030: 2f6a a6bc 761a dabd 6444 3bbd aaa1 a9bd
00000040: a66a 8c3d 7dd2 37be ec87 c63d ccf6 f4bd
00000050: 6f95 1fbe 0fea 0cbe db3c 563e 1aeb c3bd
00000060: b7dc c3bd ec5b 73bc 2ba1 393e cf41 51be
00000070: f467 34be 7f35 24be 8fd5 89be 79a0 11be
00000080: c537 c33d 0312 b7bd cec4 06be f0c3 063d
00000090: 356f d33d 8a91 56be c682 003e eb4c b03d
000000a0: c3df f3bd 193b 223e 0d1e 49be e81e 633d
000000b0: f9b8 a6bd 2e46 083d 077b 81bd 0391 2fbe
000000c0: d731 6f3d f747 03be a010 83bd f612 84bc
000000d0: 92cb 0ebe ab79 b7bd a9d2 edbd aa04 ffbd
000000e0: 26c5 5dbd 5280 2f3e 1844 d7bd dec4 273d
000000f0: 4151 0c3e 1d7e 493e 2eb0 f43d de7b 393e
00000100: 8a3d 03be 9118 2d3d f6d8 4e3e b4b2 bebc
00000110: 8286 e0bd 23c3 6a3c 1832 15be ca1c a3bd
00000120: dc81 583b 1247 3abe 3ddc 1a3e 7890 dabd
00000130: c8f9 4b3d a04b 72bc 42cc d8bd d7eb 443d
00000140: 21d6 94bd 0eb8 bc3d 8653 253e 69c0 0cbe
00000150: 1e00 aabd 0e2a 233e 4d1a 14be d8cd 023e
00000160: e191 1c3e f42b 0b3e deba e1bd 99ca 213d
00000170: 4779 3cbe 8107 c6bd 6dfa c9bd 182a 443d
00000180: b345 22be 593b 0c3e f254 193e 9546 153d
00000190: 9949 53be 5f63 efbd 268b 54be fa9c e9bc
000001a0: 3b92 e13d d3d0 37be f5d8 0ebd f6cf f93d
000001b0: c663 46be cae5 853c a2fc 6fbe 5d85 7e3d
000001c0: 0139 e7bb 4ea0 f63d 9e9b 0dbd 358c 9dbd
000001d0: 7e53 1abe 8b23 55be f66c dbbc 9449 e7bd
000001e0: d6b4 6abd ec13 28bd e64f 80bd 816c 4dbd
000001f0: 971a 173e d4f9 ccbd a2a5 3a3e 3fe1 3fbe
00000200: a8aa 08bd 1e94 31be 27e8 293e da15 2ebe
00000210: bedb cdbd 8249 bd3d a217 aabc 5849 b83d
00000220: 9250 963c 471e 47be 3c5a 4e3b 7661 ab3d
00000230: 1a62 69be 7204 89ba f1af 87be 35ec 80be
00000240: aba8 1ebd 82c5 54be 972b 243e f256 523b
00000250: 5a17 99bd 6718 c3bd 08c9 c7bd 8f26 2e3e
00000260: d4a8 29bd 7a5b 863d 2603 0bbc 9d14 b53d
00000270: c916 fb3d 2c61 10bd f244 03be b49d 0dbe
00000280: beb7 f6bc e10e 0c3e ac95 603d 4af5 6cbe
00000290: 0c65 0fbe cff1 a93d 76dd 1cbe aebe 22be
000002a0: 7f22 b13d 755d ccbd 4fd2 c9bd 0864 373e
000002b0: 19aa 65bd 444d c03c ac24 2b3d 3811 32be
000002c0: 325a 4bbe d128 19be 4759 3dbe a039 013e
000002d0: ec7c 3cbc 62d5 053e cc67 af3d b3ac e33d
000002e0: ad92 3ebe 3f69 fa3d a6ae 40be df9f 073d
000002f0: e37f 503d fe81 50be a433 0ebe 5050 26be
00000300: 30c0 36be 97d2 c03d f12b 5e3d 8a9a 0f3e
00000310: 5c60 a63d d3c5 10be 631c 46be 4f93 ba3c
00000320: 88f0 253c 66e3 df3d 6899 0cbe f310 1f3e
00000330: 7035 163e 61b9 cdbc 453d 34be 83ee d7bd
00000340: 9054 43be 1032 9bb9 67af d53d 60ab 2ebe
00000350: fa8e b0bd eca8 b8bd c0f6 efbc 5048 0bbe
00000360: 651d a1bd 9641 ab3c e1f2 0fbe 23ca 1bbe
00000370: 8eec dd3c 58a4 32be 98d9 6dbd 7020 27be
00000380: 65ae b43c 8c01 7c3d 765d c93d d895 dbbc
00000390: deca 1a3e a08e 3dbe 6fd0 99bd ad20 383e
000003a0: 3b88 873c f5c8 34be 45ad 40be 1458 cfbd
000003b0: 7d7a ccbd 965b be3d aa2f 2ebe 5cdc 5bba
000003c0: 6733 603d cc06 fabd be32 1ebe 8052 a5bd
000003d0: 0e27 00be 5d5b b2bd 59ce 8c3c 4d50 d9bc
000003e0: 35c6 d63b 44c0 e13c 92d2 2fbe baa9 b93d
000003f0: b408 c0bd 2a98 83bd 549b cfbd 7643 e93d

features.0.bias f4 [12]
-0.07962909 0.05476619 -0.03522089 -0.068388 0.105093576 0.065164395 0.038141742 -0.021586677
0.081180826 0.07977794 0.111980096 0.04213881
00000000: 9414 a3bd 8352 603d c843 10bd 020f 8cbd
00000010: 4d3b d73d e974 853d 843a 1c3d 8bd6 b0bc
00000020: 2242 a63d 9e62 a33d d255 e53d bf99 2c3d

features.3.weight f4 [24, 12, 3, 3]
-0.04942719 -0.046111673 0.016209677 0.08785895 0.053378314 -0.010081017 -0.026035992 0.04832017
-0.0074370094 0.030931171 -0.025866326 0.0061109867 0.06851292 0.10064364 -0.048040587 0.040430475
0.07291909 0.046979636 0.06166472 0.051670205 -0.0050541274 -0.045643967 0.06322167 -0.06348825
-0.03346992 -0.044764318 -0.039522912 -0.041525576 0.04333087 0.08012049 -0.095992774 -0.024696684
0.003727039 0.03318564 0.043502495 0.04376844 0.014051451 -0.005964351 0.0077636368 0.098575674
-0.021280047 0.054222915 0.006007876 -0.034881793 0.053966105 0.14530595 0.12585235 0.10598347
0.042857178 0.12106154 0.016818197 -0.028065149 0.06601468 0.023895096 0.0900497 0.068303436
0.12535703 0.03248412 0.04130561 -0.02610078 0.028843787 0.055364173 0.017958406 0.044581156
0.0022262384 0.072467275 0.066880755 0.09968148 0.04060435 -0.017951127 0.09114381 0.081490085
-0.023920363 -0.048747953 0.11623469 0.053133063 0.11449454 0.058291316 0.06815334 0.10677327
0.03208517 0.013329773 -0.001801381 -0.020197237 0.09980639 0.07989326 0.0017514643 0.13147797
0.12548894 0.143422 -0.013716954 0.06488962 -0.04896935 -0.028199714 0.025547557 -0.06656978
0.0026627423 -0.014692876 0.044699434 -0.05365855 0.06938736 0.01934547 0.066435464 0.0058720806
0.019458625 -0.018464627 -0.0041389274 -0.066500634 -0.022929404 0.01678471 -0.039386414 -0.07553908
-0.09258205 -0.09484512 -0.07761354 0.08823075 0.029917136 0.0244819 -0.018467605 0.04549033
0.04051552 0.056448534 0.06220789 -0.08550119 -0.0940012 0.058011122 -0.068035364 0.025017964
0.013761755 0.05645598 -0.019086538 -0.032221865 0.036509745 -0.07002517 -0.051464055 -0.063541226
0.03398035 -0.103894316 -0.10684485 -0.021276861 -0.06989623 0.054942794 -0.054880332 -0.11064036
0.053066514 -0.10292302 0.061937798 0.058927104 0.06306734 0.043493446 0.022748178 -0.05458653
-0.04537996 0.043651287 -0.09740707 -0.10604735 -0.08283495 0.019768063 -0.08589716 -0.03572881
-0.064714245 -0.057405375 -0.07884678 0.082148984 -0.05178486 -0.018488368 0.01322357 -0.050962035
-0.023907594 -0.04949673 -0.081929 -0.10140972 -0.06611435 0.008425557 0.00035457598 -0.003828907
-0.020981763 -0.016298091 -0.0115313055 0.052472085 0.022141162 -0.103747636 -0.08099565 0.0092496835
0.010739184 -0.0711607 0.008674467 -0.107926585 -0.1172893 -0.06492508 -0.11461729 -0.15568446
-0.10648098 -0.04332329 -0.04565183 -0.13820001 -0.09685694 0.021059722 -0.011827308 -0.041231867
0.085364886 -0.0021950689 0.119390056 0.0141132595 0.006213258 -0.06454826 0.04943099 0.08044144
0.07720681 0.08461687 -0.02204481 0.03740119 -0.039797533 -0.012990057 -0.06686477 0.0509891
0.01117049 0.008760941 -0.018796766 -0.08723948 -0.10167521 -0.014829372 0.016980883 0.031544674
-0.012212951 -0.07232655 0.08951388 0.1071075 -0.11426765 -0.056871224 0.06671346 -0.08902235
-0.06644575 -0.05912722 0.015174574 0.12614447 0.114995785 0.06187174 -0.031507626 0.14709409
-0.07083076 -0.056243137 0.09060331 -0.05889279 0.10712798 -0.05400549 -0.03173662 0.098175526
-0.029475516 -0.02353884 0.013772731 -0.033830587 0.05025056 0.08551977 0.013354178 0.06111333
00000000: 2a74 4abd 98df 3cbd 28ca 843c 65ef b33d
00000010: 38a3 5a3d da2a 25bc 6f49 d5bc 5feb 453d
00000020: 28b2 f3bb 5e63 fd3c 9ee5 d3bc ac3e c83b
00000030: 8050 8c3d 411e ce3d 35c6 44bd 6d9a 253d
00000040: 9b56 953d b86d 403d 2594 7c3d 23a4 533d
00000050: 189d a5bb 2bf5 3abd 5d7a 813d 2106 82bd
00000060: c117 09bd ca5a 37bd c7e2 21bd b916 2abd
00000070: b67b 313d 3616 a43d dc97 c4bd b350 cabc
00000080: 5741 743b aaed 073d ac2f 323d 8946 333d
00000090: 0f38 663c 9a70 c3bb 1b66 fe3b 0be2 c93d
000000a0: 7e53 aebc d918 5e3d b7dd c43b 36e0 0ebd
000000b0: 900b 5d3d 15cb 143e 70df 003e dd0d d93d
000000c0: 028b 2f3d 1def f73d 51c6 893c e2e8 e5bc
000000d0: b432 873d a6bf c33c fa6b b83d ace2 8b3d
000000e0: 985d 003e 120e 053d 1230 293d 4ed1 d5bc
000000f0: ce49 ec3c 8bc5 623d 821d 933c bb9a 363d
00000100: 15e6 113b b969 943d c7f8 883d ce25 cc3d
00000110: bf50 263d 3e0e 93bc 9ba9 ba3d 46e4 a63d
00000120: a3f4 c3bc efab 47bd 740c ee3d 0ea2 593d
00000130: 1d7c ea3d e0c2 6e3d fa93 8b3d f2ab da3d
00000140: bd6b 033d 1f65 5a3c 511c ecba ad74 a5bc
00000150: 4b67 cc3d 149f a33d 6491 e53a 29a2 063e
00000160: 2c80 003e 37dd 123e 13bd 60bc d9e4 843d
00000170: 1694 48bd 1603 e7bc 1c49 d13c bd55 88bd
00000180: 6781 2e3b 63ba 70bc c116 373d 11c9 5bbd
00000190: f61a 8e3d 647a 9e3c 510f 883d 956a c03b
000001a0: b267 9f3c 2143 97bc d79f 87bb 7c31 88bd
000001b0: 72d6 bbbc 1780 893c a653 21bd 3cb4 9abd
000001c0: a89b bdbd 293e c2bd d9f3 9ebd 53b2 b43d
000001d0: c814 f53c 448e c83c 6049 97bc 1154 3a3d
000001e0: 9af3 253d 9436 673d b3cd 7e3d 3f1b afbd
000001f0: b383 c0bd 129d 6d3d 2056 8bbd 79f2 cc3c
00000200: fc78 613c 633e 673d 5f5b 9cbc 13fb 03bd
00000210: 3e8b 153d 5b69 8fbd f9cb 52bd e721 82bd
00000220: fb2e 0b3d 8bc6 d4bd 79d1 dabd d04c aebc
00000230: c125 8fbd b20b 613d 33ca 60bd 6a97 e2bd
00000240: 465c 593d 4ec9 d2bd 7db2 7d3d 8c5d 713d
00000250: 7329 813d 2f26 323d 635a ba3c 2096 5fbd
00000260: 56e0 39bd b1cb 323d 5c7d c7bd 5a2f d9bd
00000270: 5fa5 a9bd a2f0 a13c daea afbd 5f58 12bd
00000280: e788 84bd e621 6bbd 6c7a a1bd ba3d a83d
00000290: 5d1c 54bd eb74 97bc aca7 583c 91bd 50bd
000002a0: dcd9 c3bc 15bd 4abd 64ca a7bd e6af cfbd
000002b0: f666 87bd 590b 0a3c 62e6 b939 66ee 7abb
000002c0: f2e1 abbc 9383 85bc cded 3cbc f8ec 563d
000002d0: 6261 b53c a479 d4bd 0ce1 a5bd fc8b 173c
000002e0: 67f3 2f3c b3bc 91bd 5a1f 0e3c 9d08 ddbd
000002f0: 5f35 f0bd 71f7 84bd 78bc eabd bf6b 1fbe
00000300: b312 dabd c373 31bd 6afd 3abd 4e84 0dbe
00000310: ee5c c6bd 7085 ac3c 53c7 41bc bfe2 28bd
00000320: c9d3 ae3d 25db 0fbb c682 f43d 4d3b 673c
00000330: 9698 cb3b e131 84bd 2678 4a3d 7bbe a43d
00000340: 9b1e 9e3d 9c4b ad3d 5197 b4bc fd31 193d
00000350: bd02 23bd 3fd4 54bc 66f0 88bd f2d9 503d
00000360: 6e04 373c 0d8a 0f3c adfb 99bc 9daa b2bd
00000370: 183b d0bd e5f6 72bc 7e1b 8b3c fd34 013d
00000380: d418 48bc f11f 94bd 0e53 b73d 2d5b db3d
00000390: 2805 eabd cdf1 68bd 11a1 883d 5a51 b6bd
000003a0: b614 88bd 622f 72bd c79e 783c 042c 013e
000003b0: e982 eb3d 396d 7d3d 240e 01bd d59f 163e
000003c0: b80f 91bd 345f 66bd 3a8e b93d 9139 71bd
000003d0: ea65 db3d dc34 5dbd 42fe 01bd 4010 c93d
000003e0: a376 f1bc 86d4 c0bc 05a7 613c f191 0abd
000003f0: 88d3 4d3d fd24 af3d 7bcb 5a3c f951 7a3d

features.3.bias f4 [24]
-0.08261787 0.08161092 -0.034295917 0.05960769 0.01508362 -0.030701894 -0.06746268 0.074688464
0.081093885 0.09916251 0.090725884 -0.050508004 -0.07075882 0.08194647 0.08102096 0.037984475
-0.061527938 -0.01179819 -0.06561014 0.056285635 0.08708256 0.09212407 0.06760575 0.085642055
00000000: 8f33 a9bd a023 a73d e079 0cbd 3127 743d
00000010: 4a21 773c 8a82 fbbc e029 8abd 44f6 983d
00000020: 8d14 a63d b715 cb3d 7ece b93d 7be1 4ebd
00000030: 00ea 90bd 8dd3 a73d 51ee a53d 9c95 1b3d
00000040: b804 7cbd 324d 41bc 9c5e 86bd c48b 663d
00000050: 5758 b23d 8bab bc3d e274 8a3d 1a65 af3d

features.6.weight f4 [24, 24, 3, 3]
0.007631782 -0.035768684 -0.00523325 0.031272773 -0.05381147 -0.03977638 -0.075363606 0.049267597
0.04202498 0.037264895 -0.0004692517 0.016438901 -0.026080156 -0.025371257 0.043855228 -0.06317664
-0.009628747 -0.07011563 0.0199901 0.07280889 0.11834331 -0.032483857 0.03701139 0.012872458
-0.03904945 -0.029225957 0.048614543 0.051010337 -0.044357482 0.010578964 0.070420295 0.021556344
0.046246607 0.057552062 0.027502079 -0.0039840597 0.11660724 0.11323559 0.09434696 -0.008077536
0.083906434 -0.009444991 0.03000898 -0.008634543 0.07616823 -0.02291424 0.061601628 -0.008851379
-0.03630873 -0.03237064 -0.0529945 -0.06437837 0.014868012 -0.051771354 0.04031306 0.05579039
0.078988925 0.056882743 0.009766064 0.035744723 -0.060022723 -0.048278153 0.043835804 0.017708976
0.019778138 -0.010824661 0.017968595 0.006558071 -0.023872765 0.012864292 -0.009763061 -0.0010056183
0.0349609 0.045760106 -0.015774544 0.07034199 0.047633685 0.06711961 0.060721707 0.036781274
0.020839173 0.102142654 0.051708356 0.051929593 0.12480979 0.016634794 0.031216018 0.04006663
0.11141878 0.0010650898 -0.063798346 -0.016947336 0.060979657 0.02467131 -0.0024865184 -0.016392313
0.017803326 -0.063300826 0.07556087 -0.04658969 -0.021406472 0.01343789 0.08046081 0.084833205
0.015662998 0.043936748 -0.035046384 0.040434018 0.020086382 -0.03360938 0.09302211 0.06859788
-0.055036608 -0.020204252 -0.027154496 -0.01037585 0.061943796 0.029323392 0.04656054 0.08038139
-0.0053154323 -0.06919268 -0.025141295 -0.014159968 0.0019385344 -0.02295276 0.08270981 -0.0057811313
-0.07325606 -0.021054195 0.021939157 0.02653899 0.016516216 0.009528586 -0.048958816 -0.02392673
0.08747465 0.04282163 0.029797612 0.06546924 0.06791033 0.09437457 0.007719255 0.0726907
0.029683474 0.043999184 -0.014162639 -0.030388832 -0.055680364 -0.07159222 -0.0028645264 -0.00086458155
0.0062214183 0.021630399 -0.005148711 0.05118096 -0.01203604 0.03687185 0.007727582 0.013256179
0.033765692 0.08303601 0.09269469 0.06250664 0.109450094 0.055093087 -0.012593875 -0.013319527
0.09384263 -0.018457253 0.0013852873 0.09892457 0.026121968 0.08294535 0.039760914 0.0123988185
-1.0018593e-06 0.07237849 0.07601469 -0.032151535 0.00045847095 0.0020303233 -0.030535277 0.09812597
-0.0027862685 0.06673465 0.083813146 0.038609453 -0.012773352 0.053074077 0.05632323 0.110333465
-0.0081138015 -0.04311576 0.035005156 0.05517047 -0.046788454 0.05220762 0.022784673 0.013854635
0.052889265 -0.019808477 0.00022028162 0.12176134 0.043273322 0.066498965 0.089721136 -0.017367808
0.0009111662 -0.07520396 0.027924763 0.05925538 -0.058553044 0.053697575 0.05968455 -0.03470153
0.05479465 -0.035919644 0.010621125 -0.053872135 0.0024584385 0.03821334 0.012706729 0.036580432
-0.07995571 -0.06423338 -0.04729419 0.050685517 0.0072018723 0.047116384 0.007250161 0.046015974
0.0028483304 0.020170793 0.006307167 0.02727701 -0.039795462 -0.046996813 -0.03216083 0.026063332
-0.008895753 0.043005448 -0.0390791 0.014171965 0.03183094 0.07641467 -0.060023375 0.051808298
0.03134945 0.031696122 -0.058944535 0.08537222 -0.025625337 0.029741602 0.08379381 0.06116705
00000000: 0714 fa3b 2f82 12bd af7b abbb e117 003d
00000010: 6a69 5cbd 8fec 22bd 3c58 9abd d2cc 493d
00000020: 6322 2c3d 13a3 183d e605 f6b9 e0aa 863c
00000030: 0da6 d5bc 62d7 cfbc 8aa1 333d c162 81bd
00000040: e4c1 1dbc c998 8fbd 47c2 a33c d41c 953d
00000050: fa5d f23d cb0d 05bd 4199 173d 01e7 523c
00000060: 51f2 1fbd 466b efbc 0b20 473d 37f0 503d
00000070: 31b0 35bd 6453 2d3c 8438 903d ee96 b03c
00000080: 156d 3d3d b6bb 6b3d 0a4c e13c b78c 82bb
00000090: c7cf ee3d 10e8 e73d fb38 c13d a457 04bc
000000a0: 23d7 ab3d 2abf 1abc 64d5 f53c e677 0dbc
000000b0: 17fe 9b3d a5b6 bbbc fd51 7c3d 6005 11bc
000000c0: 76b8 14bd 1497 04bd c310 59bd cfd8 83bd
000000d0: f698 733c 330e 54bd 4f1f 253d 7784 643d
000000e0: f2c4 a13d e1fd 683d d701 203c 0f69 123d
000000f0: 63da 75bd 50bf 45bd 2c8d 333d 6a12 913c
00000100: c305 a23c eb59 31bc e032 933c 16e5 d63b
00000110: d190 c3bc c0c4 523c 3ff5 1fbc f3ce 83ba
00000120: 2933 0f3d f36e 3b3d 9e39 81bc 760f 903d
00000130: 8a1b 433d 0276 893d 53b7 783d f6a7 163d
00000140: eab6 aa3c 2b30 d13d 24cc 533d 20b4 543d
00000150: 469c ff3d b145 883c bcb8 ff3c e81c 243d
00000160: 882f e43d 7c9a 8b3a b5a8 82bd 24d5 8abc
00000170: cec5 793d 7d1b ca3c dbf4 22bb 2c49 86bc
00000180: 48d8 913c dda3 81bd a8bf 9a3d d5d4 3ebd
00000190: a05c afbc 992a 5c3c a3c8 a43d 08bd ad3d
000001a0: b04f 803c 05f7 333d cc8c 0fbd 249e 253d
000001b0: 328c a43c fda9 09bd 6082 be3d 0c7d 8c3d
000001c0: 116e 61bd 6383 a5bc 1b73 debc 78ff 29bc
000001d0: c7b8 7d3d 9c37 f03c 44b6 3e3d 009f a43d
000001e0: 142d aebb e4b4 8dbd 1ef5 cdbc 36ff 67bc
000001f0: 6c16 fe3a 6d07 bcbc c363 a93d a56f bdbb
00000200: 4607 96bd d979 acbc bfb9 b33c 4c68 d93c
00000210: 044d 873c c91d 1c3c 0a89 48bd fd01 c4bc
00000220: e925 b33d bc65 2f3d 1f1a f43c bd14 863d
00000230: 9214 8b3d 7447 c13d cef1 fc3b ddde 943d
00000240: c22a f33c 7d38 343d 6a0a 68bc 00f2 f8bc
00000250: 1811 64bd f19e 92bd c7ba 3bbb 16a5 62ba
00000260: 0add cb3b 3c32 b13c 85b6 a8bb 20a3 513d
00000270: d032 45bc f006 173d a837 fd3b 7230 593c
00000280: e54d 0a3d c90e aa3d b7d6 bd3d 7b03 803d
00000290: 5f27 e03d 4aa9 613d 8a56 4ebc 253a 5abc
000002a0: 9130 c03d aa33 97bc 8792 b53a f798 ca3d
000002b0: bdfd d53c 40df a93d 57dc 223d 6a24 4b3c
000002c0: a077 86b5 2c3b 943d 97ad 9b3d 54b1 03bd
000002d0: ee5e f039 2c0f 053b 1e25 fabc 45f6 c83d
000002e0: d499 36bb 2dac 883d 3aa6 ab3d f224 1e3d
000002f0: 5247 51bc 3464 593d 30b3 663d 83f6 e13d
00000300: c0ef 04bc 279a 30bd 9161 0f3d 6efa 613d
00000310: 40a5 3fbd a8d7 553d eca6 ba3c 8dfe 623c
00000320: 6aa2 583d 6345 a2bc 66fb 6639 025e f93d
00000330: 5e3f 313d 9c30 883d b7bf b73d ef46 8ebc
00000340: 54db 6e3a 8904 9abd 79c2 e43c c5b5 723d
00000350: 51d5 6fbd fdf1 5b3d c977 743d 3123 0ebd
00000360: 5b70 603d 7a20 13bd 3a04 2e3c 07a9 5cbd
00000370: c11d 213b 9785 1c3d e22f 503c 5dd5 153d
00000380: d2bf a3bd ca8c 83bd 8db7 41bd 9e9b 4f3d
00000390: affd eb3b 1cfd 403d c292 ed3b 3f7b 3c3d
000003a0: 0eab 3a3b 383d a53c 5aac ce3b 0974 df3c
000003b0: 9100 23bd bb7f 40bd 13bb 03bd c582 d53c
000003c0: 7ebf 11bc 7b26 303d 6811 20bd 8831 683c
000003d0: 2961 023d 4b7f 9c3d 12db 75bd f034 543d
000003e0: 4868 003d cbd3 013d d36f 71bd a1d7 ae3d
000003f0: 3aec d1bc a9a4 f33c 179c ab3d 4d8a 7a3d

features.6.bias f4 [24]
0.015388949 0.05496518 -0.010574619 -0.01794187 -0.03821482 -0.058457322 -0.036806606 -0.017237406
0.049252823 0.043824613 0.05071284 0.01419721 0.0065136272 0.052514978 -0.0018925513 0.04779286
-0.072229795 -0.049586024 0.06337493 0.053659484 -0.07177605 0.013843098 -0.019772302 0.018988747
00000000: ee21 7c3c 2b23 613d 2b41 2dbc d4fa 92bc
00000010: 2587 1cbd f270 6fbd 86c2 16bd 7635 8dbc
00000020: 54bd 493d 7081 333d 44b8 4f3d 6a9b 683c
00000030: 4470 d53b f219 573d 7c0f f8ba 72c2 433d
00000040: 37ed 93bd b71a 4bbd b7ca 813d 0cca 5b3d
00000050: 52ff 92bd 29ce 623c 86f9 a1bc 4a8e 9b3c

classifier.1.weight f4 [3, 1536]
0.026870213 0.022203788 0.0035752668 0.02771293 -0.006189095 0.0072603785 0.020041492 -0.010692948
0.0025345036 0.03703499 0.0068841698 -0.015440921 0.0062863748 0.0072606327 -0.013586079 0.0007711894
0.03904894 -0.0019004839 -0.020083524 -0.07230053 -0.073445566 -0.023836402 -0.013214275 -0.038842216
0.030622022 -0.006420056 -0.009033481 -0.092232905 -0.104461335 -0.042634357 -0.033190977 0.0014400128
0.020946551 0.009973849 -0.043321345 -0.10772465 -0.10141036 -0.09235901 -0.019847205 -0.0035039946
0.006358525 0.014836863 -0.027179068 -0.08095872 -0.04039142 -0.014930758 -0.02954786 -0.0141156595
0.024472777 0.017616618 0.0057723722 -0.002757701 -0.054335374 -0.015001136 0.02302465 0.011318645
-0.020459121 0.028175801 0.009174041 0.018293383 0.008777783 0.01751349 0.0076785483 0.006575511
0.010548155 0.009129662 -0.014888953 0.010022488 -0.010409178 -0.0039443346 0.016163109 -0.009236326
-0.012830423 -0.009960752 -0.009579934 -0.0011230729 0.0054113152 -0.031017493 0.0039244657 -0.009028543
-0.013714027 -0.013570216 -0.03883923 -0.018452108 0.009901571 -0.028817246 -0.016828852 0.031618595
-0.0055540893 -0.026273433 -0.016628066 -0.02996091 -0.041346595 -0.023325635 0.036231685 -0.014457761
-0.006700458 0.019333867 -0.0061287344 -0.031197742 -0.0605232 -0.007675299 -0.01607593 0.01116838
-0.012743402 0.017103245 -0.017201096 -0.0061960733 -0.04215838 -0.006991367 -0.01335993 -0.02442057
-0.0010486668 0.020242434 0.03484449 0.008324755 0.023839084 0.005732416 0.03208858 0.019784998
0.01364713 0.0053707804 0.012736308 0.014780006 0.009038036 0.02394513 0.0003257905 -0.036198713
0.0058319853 -0.029642832 0.0042350306 0.0025539135 -0.012925383 -0.00463727 -0.019845711 -0.012189031
0.01412286 -0.042669695 -0.036588296 -0.013092729 -0.0148987435 -0.013041248 -0.020869456 -0.0014107443
-0.017299345 -0.011842408 -0.054526106 -0.044532128 -0.038620945 -0.008662798 -0.022884043 -0.005334977
0.014771016 -0.056133177 -0.07822672 -0.06536095 -0.023274057 -0.030165289 -0.014963705 0.0064135655
0.0014823487 -0.056755405 -0.051966995 -0.049404062 -0.053014036 -0.024436845 -0.05727206 -0.029198226
-0.021139525 -0.017692834 -0.066318616 -0.04625894 -0.07110756 -0.03557279 -0.039378844 -0.052760605
0.013304048 -0.012649747 -0.038191307 -0.04299929 -0.027697474 -0.06110039 -0.023088694 -0.026846917
0.013049274 -0.019460257 -0.04027531 -0.023604633 -0.06637353 -0.015885437 -0.034975033 -0.015536833
-0.039608963 -0.014329894 -0.03153165 0.022582645 -0.010209244 0.00049925025 0.01799051 -0.011008081
0.005414583 -0.01753167 0.011515425 0.00016726425 0.005285493 -0.024740763 0.0016692952 0.0015474453
0.009207247 -0.012350143 0.045448143 0.012800221 -0.019983994 -0.039084174 -0.02055029 -0.015825482
-0.0022419444 0.041906618 0.03509093 -0.016876196 -0.016621625 -0.021515228 -0.015749227 -0.03362516
0.0138264075 0.033340655 0.0030654583 -0.039297767 0.0037054962 -0.003915046 0.026177123 -0.03160655
-0.0044135978 0.043781467 0.003589578 -0.02606601 -0.038244203 -0.029210428 0.022982314 -0.060096797
-0.010524257 0.009123671 0.01259586 -0.008909521 0.021540277 0.032067113 0.015974792 -0.023305517
0.00042407782 -0.012510569 0.035617914 -0.0023550736 0.002239178 -0.0027851714 -0.006544554 -0.012361237
00000000: ec1e dc3c b8e4 b53c 064f 6a3b 3a06 e33c
00000010: e4cd cabb 78e8 ed3b 0e2e a43c 7931 2fbc
00000020: ea19 263b 00b2 173d 9a94 e13b ebfb 7cbc
00000030: effd cd3b 9aea ed3b 2598 5ebc a529 4a3a
00000040: c8f1 1f3d a819 f9ba 3486 a4bc 4d12 94bd
00000050: a16a 96bd 8f44 c3bc b080 58bc 0419 1fbd
00000060: 09db fa3c 555f d2bb 2a01 14bc 9be4 bcbd
00000070: d3ef d5bd 5da1 2ebd 43f3 07bd d0be bc3a
00000080: 1a98 ab3c 5b69 233c b971 31bd be9e dcbd
00000090: 3cb0 cfbd b826 bdbd 9b96 a2bc 46a3 65bb
000000a0: 2c5b d03b 5016 733c a3a6 debc afcd a5bd
000000b0: 7971 25bd 23a0 74bc 5b0e f2bc 5e45 67bc
000000c0: 227b c83c ba50 903c 2b26 bd3b 8cba 34bb
000000d0: c58e 5ebd 53c7 75bc 319e bc3c d771 393c
000000e0: e399 a7bc f0d0 e63c b84e 163c 01dc 953c
000000f0: b1d0 0f3c 7378 8f3c 559c fb3b 6277 d73b
00000100: 2bd2 2c3c 9494 153c ccf0 73bc 5d35 243c
00000110: 428b 2abc 7a3f 81bb 7f68 843c f653 17bc
00000120: b236 52bc 6c32 23bc 28f5 1cbc 1334 93ba
00000130: 6751 b13b 6618 febc ce98 803b 74ec 13bc
00000140: ccb0 60bc 9c55 5ebc e215 1fbd e028 97bc
00000150: 333a 223c 2512 ecbc a9dc 89bc 8082 013d
00000160: 14ff b5bb 623b d7bc 9537 88bc 9570 f5bc
00000170: 0c5b 29bd 6715 bfbc ad67 143d 3fe0 6cbc
00000180: 848f dbbb 0f62 9e3c 8dd3 c8bb 6892 ffbc
00000190: 2de7 77bd 1381 fbbb abb1 83bc 95fb 363c
000001a0: b4c9 50bc 1b1c 8c3c 50e9 8cbc 6e08 cbbb
000001b0: 44ae 2cbd d617 e5bb 9ce3 5abc a60d c8bc
000001c0: 6b73 89ba 76d3 a53c 19b9 0e3d 8e64 083c
000001d0: 2f4a c33c fed6 bb3b 516f 033d 2614 a23c
000001e0: 3698 5f3c 5ffd af3b f3ab 503c d727 723c
000001f0: 4514 143c 9428 c43c dcce aa39 1a45 14bd
00000200: 3d1a bf3b 86d5 f2bc 03c6 8a3b 8f5f 273b
00000210: fcc4 53bc 3df4 97bb 7993 a2bc 80b4 47bc
00000220: 9163 673c 6bc6 2ebd 9cdd 15bd e382 56bc
00000230: dc19 74bc f5aa 55bc 6cf6 aabc b9e8 b8ba
00000240: 5bb7 8dbc a906 42bc c456 5fbd 5267 36bd
00000250: ff30 1ebd 69ee 0dbc 5177 bbbc 08d1 aebb
00000260: 2202 723c e7eb 65bd 5535 a0bd f6db 85bd
00000270: 3ca9 bebc 321d f7bc 542a 75bc e328 d23b
00000280: 5e4b c23a 5b78 68bd 58db 54bd ea5b 4abd
00000290: 3f25 59bd c72f c8bc 1c96 6abd 1e31 efbc
000002a0: cc2c adbc 90f0 90bc 0ed2 87bd 047a 3dbd
000002b0: d7a0 91bd c6b4 11bd b64b 21bd 811b 58bd
000002c0: 39f9 593c e240 4fbc 7d6e 1cbd 0620 30bd
000002d0: d0e5 e2bc 6744 7abd 8024 bdbc 11ee dbbc
000002e0: 9fcc 553c 1e6b 9fbc b9f7 24bd 815e c1bc
000002f0: d8ee 87bd 2d22 82bc fb41 0fbd 338e 7ebc
00000300: 023d 22bd efc7 6abc 5527 01bd 3dff b83c
00000310: ac44 27bc 1ee0 023a d660 933c 3d5b 34bc
00000320: d06c b13b 949e 8fbc 31ab 3c3c a863 2f39
00000330: ee31 ad3b 24ad cabc 41cc da3a a6d3 ca3a
00000340: fed9 163c 4158 4abc d527 3a3d 05b8 513c
00000350: 79b5 a3bc ba16 20bd 1559 a8bc 71a4 81bc
00000360: 96ed 12bb 46a6 2b3d 82bb 0f3d f33f 8abc
00000370: 132a 88bc b440 b0bc 8604 81bc 89ba 09bd
00000380: 2888 623c 3690 083d dbe5 483b b2f6 20bd
00000390: e9d7 723b c949 80bb 6871 d63c df75 01bd
000003a0: f19f 90bb 3254 333d 203f 6b3b 6388 d5bc
000003b0: f4a5 1cbd b54a efbc 6845 bc3c 0f28 76bd
000003c0: ef6d 2cbc 737b 153c de5e 4e3c 3df9 11bc
000003d0: 3c75 b03c ce58 033d 91dd 823c 36eb bebc
000003e0: c356 de39 21f9 4cbc 17e4 113d 9457 1abb
000003f0: 2cbf 123b 6c87 36bb b373 d6bb c986 4abc

classifier.1.bias f4 [3]
-0.02476937 0.015871411 0.01124406
00000000: 22e9 cabc c304 823c 0139 383c
