vision_system/model_weights.pth (torch, 147553 bytes, 8 tensors)

features.0.weight f4 [16, 3, 3, 3]
000000 50 66 2f 3e de cc 1f 3e d0 09 ee 3a 20 d8 df bb
       0.17128873 0.15605494 0.0018160883 -0.006831184
000010 98 de 7e 3d cb 63 36 3e 10 75 02 3d 6e 45 07 3e
       0.062224 0.17811505 0.03184992 0.13210079
000020 9e 51 3e bd 43 c1 22 3e 26 06 7c bd 8d 18 f8 3d
       -0.046464555 0.15894036 -0.0615293 0.12114058
000030 ca c2 4c 3e d5 ba a3 bd 91 6d c4 bd 80 17 51 3e
       0.19996181 -0.0799462 -0.09591211 0.20419121
000040 c8 df e7 bd 76 3c 47 3d 94 90 b3 3d 21 e9 2e 3e
       -0.1132198 0.048641644 0.087678105 0.17081119
000050 41 91 ee bd ac e4 29 3d 93 e2 08 3e 11 be 7c bd
       -0.11648799 0.041477844 0.13367681 -0.0617047
000060 3b 95 49 3e 4a c2 e4 3d 75 23 01 be 83 4b 0c 3d
       0.19685833 0.1116987 -0.12611182 0.0342517
000070 29 0b 39 be d7 cc 15 3e 33 3b 83 bd 0e e6 e7 bb
       -0.18070664 0.14628921 -0.06407776 -0.007076985
000080 38 e9 2a bd e0 df 0a 3e dd e5 e6 3d 90 03 d3 bd
       -0.04172632 0.13561964 0.11274312 -0.10303414
000090 2f d2 29 3e be 23 3c bd 2f 65 c3 3c e4 1d d5 3d
       0.16584085 -0.045932524 0.023851959 0.10406092
0000a0 91 48 49 be cb 89 f2 bb de 12 ee 39 e3 4a b2 3d
       -0.19656588 -0.00740168 0.00045408955 0.0870569
0000b0 88 57 de bc a7 97 42 be d3 00 84 3d 68 74 42 be
       -0.027141348 -0.19003163 0.0644547 -0.18989718
0000c0 97 6f 90 3d aa 43 2d ba 2a d1 b7 3d cc 16 fa 3d
       0.07052534 -0.0006609509 0.08975442 0.122113794
0000d0 20 11 1c 3b 0e 62 04 be 4e 32 31 be 82 5a 2c 3e
       0.0023813918 -0.1292803 -0.17304346 0.16831401
0000e0 98 a4 9a bd e3 58 11 3e a8 3d 48 bd d6 f8 35 3e
       -0.07550925 0.14194064 -0.048886925 0.17770705
0000f0 58 5f 07 be 8f 0d c5 3c 4e b5 8b bd e6 8f 88 bd
       -0.13219965 0.024054317 -0.068216905 -0.066680714
000100 4f ec 04 be 2d ef 22 3e 24 c8 ca bc 15 bb f1 3d
       -0.1298077 0.15911551 -0.024753638 0.11803261
000110 76 96 4c 3e 0b 5e ff bc ca 08 42 3e de 4d f5 bd
       0.19979271 -0.031172773 0.18948665 -0.119777426
000120 cd 2d ec bd 0a de 00 3e 32 9e 11 be 48 ae 08 3d
       -0.11532173 0.12584701 -0.14220503 0.033369333
000130 e7 0f 9f 3d a3 7a 54 3e ee 86 d4 bd 80 5e 47 3e
       0.07766705 0.20749907 -0.10377298 0.19469643
000140 6b d8 b5 bb 40 9a f3 3d 57 92 4c 3e d1 09 fa bd
       -0.0055494807 0.11894655 0.19977699 -0.122089036
000150 cb 35 af 3d 2e 25 01 bd c6 ca 42 3e f8 60 2e bd
       0.08555182 -0.031529598 0.19022664 -0.042572945
000160 84 48 34 3e ef 57 92 bd af 30 35 be 84 16 f3 3d
       0.17605788 -0.07145678 -0.17694353 0.11869529
000170 0c c3 37 3e 3a 16 42 3e 4b 9d 76 bd af 3d de 3d
       0.17945498 0.18953791 -0.0602086 0.10851609
000180 3d f6 27 3e fb 0a 58 3d 31 7e 79 3d df ab d0 bc
       0.16402526 0.052744847 0.06091136 -0.02547258
000190 b8 6c 32 3b 59 10 19 3e e6 8d 2d 3e 8d 67 a6 bd
       0.0027225446 0.14947642 0.16948661 -0.081252195
0001a0 9d ab 5f 3d 4e 39 36 bd 73 95 2d 3e 8d be 3e 3d
       0.054607023 -0.044488244 0.16951542 0.046568442
0001b0 8b 05 74 bd 6f d3 8e bd f4 95 46 be 1f fd e2 bd
       -0.0595756 -0.069739215 -0.1939314 -0.11083435
0001c0 52 1b d3 bd fc 00 46 be 87 bf 07 be 9a 52 80 bd
       -0.10307945 -0.19336313 -0.13256656 -0.06265755
0001d0 e8 09 43 be fe b1 d1 bd a2 27 89 bd 5b 9c 1b bd
       -0.19046748 -0.102390274 -0.066970125 -0.03799091
0001e0 95 39 15 3e f4 de 92 bc 51 ad 1d 3e 64 02 98 bd
       0.14572747 -0.017928578 0.15398146 -0.07422331
0001f0 51 74 6e 3d f1 53 f5 3c df f3 ce 3d 15 af 3d be
       0.058216397 0.029947253 0.101051085 -0.1852382
000200 57 ac 74 3c d9 6a 28 be a3 ef 94 3d c5 45 1c 3e
       0.014933667 -0.16447009 0.072722696 0.1526099
000210 10 34 2c 3e ad 00 e7 3d ed 71 dc bc 2a d1 cd bd
       0.16816735 0.11279426 -0.026909793 -0.100496605
000220 2c b7 39 3e 46 fd 0a 3e 11 20 2f 3e d7 e7 09 be
       0.18136281 0.13573179 0.17102076 -0.13467346
000230 9d 9f 4c 3e 76 3c 09 3e b6 2f d7 bc 39 1c f1 bd
       0.19982763 0.1340197 -0.026267868 -0.11772961
000240 fe a3 b4 bd 24 cb 2f 3e c0 4b f7 3c 2f 21 eb 3d
       -0.088203415 0.17167336 0.030187488 0.11480939
000250 93 57 04 3e 24 90 85 3c 8e f1 b1 bd 13 0a 59 bc
       0.12924032 0.016304083 -0.08688651 -0.013247031
000260 bc 74 19 3d 20 30 66 3e c4 e6 01 3d a3 ac ad bd
       0.037464842 0.22479296 0.031714216 -0.084801935
000270 cc 3f 55 bc a0 19 09 be c8 79 4e 3e 81 a9 a2 3d
       -0.013015699 -0.13388681 0.20163643 0.079424866
000280 45 7f 55 bd 37 e0 23 3d 9e ea 3c 3e c5 4c be bd
       -0.052123327 0.04000875 0.18448874 -0.092919864
000290 44 91 26 bd f3 50 eb 3d 34 ad be bd d7 ce 2b 3e
       -0.04066588 0.11490049 -0.093103796 0.16778122
0002a0 7e 98 fe bb 22 76 f5 bd c1 2c 3e be 31 af 51 be
       -0.0077696433 -0.11985423 -0.1857176 -0.20476986
0002b0 d4 cd 13 3e 73 38 3c 3e ea 4f a9 3c 7d 99 6f bd
       0.14433986 0.18380909 0.020667989 -0.058495987
0002c0 d2 22 53 bd a3 94 08 be 90 84 43 be 6a d3 ba 3d
       -0.05154688 -0.1333795 -0.19093537 0.09122355
0002d0 d6 29 8f bd b6 bb 93 3d 2d fb 22 3d 61 84 1c 3e
       -0.069904014 0.072135374 0.03979032 0.15284874
0002e0 0d a7 15 be 17 ff d4 bb 1c 74 cf 3d e7 97 15 be
       -0.14614506 -0.0065001356 0.10129568 -0.14608727
0002f0 b5 53 09 3e 90 46 24 3d 78 43 21 be bb a9 47 3d
       0.13410838 0.040106356 -0.15748394 0.048745852
000300 5d b0 02 bd f3 88 74 3d 4e b9 26 be 00 32 26 3e
       -0.031906474 0.059700917 -0.16281626 0.16230011
000310 2e a6 b5 3d 03 ac 98 3d 21 ae 2d be d3 f0 f9 bd
       0.08869587 0.07454684 -0.16960956 -0.12204137
000320 04 a3 d3 3d ca 84 3a be 00 67 bd 3d c0 3d 5e bd
       0.10333827 -0.18214718 0.09248161 -0.05425811
000330 4d 12 c3 bd 26 fc 12 3e 8f 53 de 3d 6d 8b 74 bd
       -0.09524975 0.14354 0.10855781 -0.05970328
000340 2b ee bb 3d cd 62 46 be 3c 18 26 be 26 8e 5e bd
       0.09176286 -0.19373627 -0.16220182 -0.054334782
000350 d9 88 90 3d 52 4c a2 3c fa ff a0 bd a4 63 88 bd
       0.070573516 0.019811783 -0.07861324 -0.0665963
000360 a4 d8 d6 3d 16 99 4c be 94 4d 66 be fa 29 e3 bd
       0.1049054 -0.19980273 -0.22490531 -0.11091991
000370 56 05 96 3d ce 49 06 be 89 ad 29 be 30 4d 4c 3e
       0.073252365 -0.13114092 -0.16570105 0.1995132
000380 65 2b 30 3e d9 76 43 be 37 c2 57 3d 0f f3 10 3d
       0.17204054 -0.19088306 0.052675452 0.03538805
000390 17 99 c2 3c 58 3a ff bb 00 3e 3e bd d6 9b 38 3d
       0.02375464 -0.0077889375 -0.046445847 0.04507049
0003a0 6c 0b 50 3e 93 ef e6 bc a7 50 9a bd 5f 94 8d bb
       0.20316857 -0.02819041 -0.075349145 -0.0043206657
0003b0 78 6d 3a bc cd 1c 00 be a4 69 25 3e f8 70 0a 3d
       -0.011378638 -0.12510987 0.1615358 0.03379914
0003c0 9c 38 4f be 60 9e 75 bc c4 65 8a 3d 2e 74 40 be
       -0.20236439 -0.014991373 0.067576915 -0.18794319
0003d0 1f 14 74 3d 4e ee 1f bd 5b e2 32 be 0a a3 3c be
       0.0595895 -0.039045624 -0.1746916 -0.1842157
0003e0 1f de 78 bd c7 e6 84 bd 56 c0 3b b9 2a d8 28 bd
       -0.060758706 -0.0648933 -0.0001790536 -0.041221775
0003f0 4d 90 c9 bd 4f 82 1c bd 46 15 97 3d a8 f4 22 3d
       -0.09841976 -0.03821021 0.073771045 0.039784104

features.0.bias f4 [16]
000000 c3 9d f9 bd 37 63 08 be 22 74 0f 3c 9a c8 b9 3d
       -0.12188294 -0.13319097 0.008755716 0.09071465
000010 fd 39 9e bd 4a 57 08 be 9e 6c b7 bd 27 7b 26 3e
       -0.07725904 -0.13314548 -0.08956264 0.16257916
000020 f0 35 0e be d8 bd 4e bd 09 aa d8 bd df e3 96 bd
       -0.13887763 -0.050474018 -0.10579307 -0.07367682
000030 70 37 c6 bd 46 39 f9 3d 06 d6 77 bd 28 79 9a 3d
       -0.096785426 0.12169127 -0.060506843 0.0754264

features.3.weight f4 [32, 16, 3, 3]
000000 08 99 4c 3d ab 8e ac 3c b5 e5 ac 3c ec a2 1a 3d
       0.04995063 0.021064123 0.021105627 0.03775303
000010 ae a7 9e bb 22 7d 1a bd 64 ac 33 bd 05 fe 7e 3d
       -0.0048417663 -0.037716992 -0.043865576 0.06225397
000020 b5 cb 29 3c 21 32 b6 bd 56 2d 8b 3c 8c 65 4c 3d
       0.010363509 -0.0889628 0.016989391 0.04990153
000030 21 45 53 3c 6e 11 dd bc 80 dc ac bd f0 f2 8d 3c
       0.0128949 -0.02698585 -0.084404945 0.017327756
000040 f8 66 0e 3d 67 a6 82 bd 98 b4 7c bd d3 7e 76 bd
       0.034766167 -0.06379395 -0.061695665 -0.060179543
000050 7d 14 0a 3d b4 45 0d bc a2 56 72 bd ac 0d 3f 3c
       0.033710945 -0.008622576 -0.05916465 0.0116609745
000060 ee b9 57 3d 93 a1 aa bc a8 4e 97 bd ce 9e 46 bd
       0.05266755 -0.020828998 -0.07388049 -0.04849129
000070 9e 51 a7 3c f2 4e 35 3d ad 3e 34 3c 48 7d 02 3c
       0.02042466 0.04426474 0.011001271 0.00796444
000080 ce bc e4 bc e8 e1 8c bd 31 0e ce bd 73 8d 7e bc
       -0.02792206 -0.06879026 -0.100613005 -0.015536654
000090 bc 21 ea bc df 51 2d bd fa 3d 24 bd d5 a0 ff 3c
       -0.028580539 -0.042314406 -0.040098168 0.03120462
0000a0 ea ec 0d 3d 77 b7 e1 3b f2 19 4a 3d 94 c3 ad 3c
       0.034649767 0.006888326 0.04934115 0.021211423
0000b0 f8 98 a1 bd ee 7e 96 bc b8 6e 88 bd 74 c9 9b bd
       -0.078905046 -0.018371072 -0.06661743 -0.076067835
0000c0 93 64 af bd ba 8d 10 3d 53 67 bb bd e4 60 ea 3c
       -0.08564105 0.03529141 -0.09150567 0.028610654
0000d0 09 cc 6d bd 0b 77 6a 3d b8 27 a5 bd ed 94 c2 bd
       -0.05805591 0.057242434 -0.080642164 -0.095010616
0000e0 80 ac 25 3d d7 cd 86 3d 32 71 4a 3d 9a 82 9f 3d
       0.040447712 0.065822296 0.049424358 0.07788582
0000f0 47 80 f1 3c 7b af 82 bd d3 95 91 3d 49 a5 8c 3d
       0.029480113 -0.063811265 0.07108655 0.06867463
000100 23 72 76 bd ef c3 b1 3c 51 d6 3e 3d e0 f4 b0 3d
       -0.060167443 0.021699874 0.046591107 0.08640456
000110 0a ea bd 3c ff 63 8b 3d f8 71 50 3d e3 82 c0 3c
       0.023182888 0.06806182 0.05088994 0.023499912
000120 e8 bf 89 bd b6 5a 3e 3c 23 97 18 3d 26 ac 89 3d
       -0.06726056 0.011618307 0.03725351 0.06722288
000130 91 ca 76 bd de 25 6e 3d 96 ca 97 bd 5b f2 97 bc
       -0.060251776 0.05814158 -0.07411687 -0.018548181
000140 73 a4 cf bc 09 4a 36 bd 99 42 9d bd 11 d7 b0 bd
       -0.02534697 -0.0445042 -0.07678718 -0.08634771
000150 52 ad 27 bc 7a 65 e0 bc c1 37 91 3b 4a e9 26 3d
       -0.010234194 -0.027392138 0.004431695 0.040749826
000160 68 40 29 bd 18 75 3e 3d ba ad 66 bd db 56 e1 3b
       -0.04132119 0.046498388 -0.056318022 0.006876809
000170 36 db 02 3c f4 4d 38 3d fe ec ad 3d 88 c9 82 3d
       0.007986834 0.044996217 0.08492468 0.06386095
000180 a2 7e 83 3d 70 47 83 3d 7d 49 ac 3d e2 1e 6b bc
       0.06420638 0.0641011 0.08412454 -0.014350625
000190 90 e0 34 3d 91 27 05 bc 7b 06 1f bd dd 20 a6 bd
       0.044159472 -0.008127109 -0.03882454 -0.08111737
0001a0 fd b6 65 bd 90 49 8d bd 80 8b ac bd 62 08 3b 3c
       -0.056082714 -0.068987966 -0.08425045 0.011415573
0001b0 59 30 34 bd 79 5a f7 bc 02 24 86 3c 98 b0 ae bd
       -0.04399142 -0.030194508 0.016374592 -0.08529776
0001c0 1a 7d 6e 3c 5f c5 84 bd 13 6e 9c bd e7 a1 79 3d
       0.014556194 -0.06482958 -0.076381825 0.060945418
0001d0 7e 54 e9 3c 01 aa 4a 3d 27 51 5b bd cb 4e 09 bd
       0.028482672 0.049478535 -0.05354419 -0.03352241
0001e0 74 db 86 bc b8 16 ee 3b 46 a7 a7 3d 55 98 59 3d
       -0.016462065 0.007265892 0.08186202 0.05312379
0001f0 3c 13 8e 3d 95 e9 14 bd 77 ac 72 3c 84 97 50 bd
       0.069372624 -0.036355574 0.014811627 -0.050925747
000200 e1 f7 2d bc 83 c7 cf 3c 23 ec 96 bd a0 bd a8 3c
       -0.010618181 0.02536369 -0.07369258 0.020598233
000210 7f 9c 8e 3d 19 ba 95 bd 61 17 ab 3d 2f a7 08 3c
       0.06963443 -0.07310886 0.083540685 0.008340641
000220 17 14 7d 3d 1c bc df bc eb a8 b8 bc 4b 53 bb 3c
       0.061786737 -0.027311377 -0.022541484 0.022866866
000230 1f bb 8d 3b 10 38 7b bd b7 57 a7 3d 4b b3 9d 3d
       0.004325285 -0.061332762 0.08171027 0.07700213
000240 b9 04 9e bc e3 2c 50 3d d6 8e 8f bd 1c c1 d4 3c
       -0.019289361 0.050824057 -0.07009666 0.025970988
000250 1f 16 4e bd 27 e2 80 3d 4f 8b cd 3c e8 4d 90 bd
       -0.050314065 0.06293135 0.025090842 -0.070461094
000260 87 e7 26 3d f7 ad 73 bd 25 a5 fa 3c 0b 99 ea 3d
       0.040748145 -0.059492078 0.030596325 0.11454972
000270 ae 2e 97 3d 54 18 27 bd 66 ba 89 3d 0c 83 15 bd
       0.0738195 -0.040794685 0.06725006 -0.03650193
000280 d0 6e 27 bc 6d 27 86 3c 53 41 26 3d 9c 7e 81 3d
       -0.010219291 0.016376222 0.04058964 0.06322977
000290 ab 53 a2 bb cd a2 9e bd 1d 2d 97 3c d5 1e 7d 3d
       -0.0049538217 -0.077458955 0.018454129 0.06179698
0002a0 51 9e b0 3d 10 64 fa bb 91 49 62 bd 2a d7 5c bd
       0.086239465 -0.007641323 -0.05524594 -0.053916134
0002b0 8b e8 58 bd c6 df d3 3c 82 4d f0 3b 36 35 21 bd
       -0.052956145 0.02586354 0.0073334584 -0.039357387
0002c0 6c c0 48 bd ce 81 65 3d 37 ec 89 3d d9 d2 f8 3c
       -0.049011633 0.056031995 0.067345075 0.030373977
0002d0 ad c5 ca 3d 8b 9c 71 3d 9d 45 90 3d c9 df 5b 3d
       0.09900985 0.05898718 0.07044528 0.053680215
0002e0 0a 65 a0 3d 3a 32 b3 3d 70 c9 f4 bc 22 71 69 bc
       0.07831772 0.08749814 -0.02988121 -0.014248164
0002f0 a8 6f b3 bc 81 59 fa bc fc 23 b3 bd 36 d7 08 bd
       -0.021903828 -0.030560257 -0.08747098 -0.033408366
000300 22 f0 c1 bd 77 95 9f bd c0 66 1a bb 31 66 9c bc
       -0.0946963 -0.0779218 -0.002355978 -0.019091697
000310 c8 23 68 bd 57 64 8e 39 6c 10 2d bd c9 ba 93 3d
       -0.05667475 0.0002715911 -0.04225199 0.07213361
000320 35 06 91 3d f5 e8 79 3d f0 b9 c0 3d c6 df 98 3c
       0.07081262 0.06101318 0.09410465 0.018661391
000330 5f 91 a8 3d d6 65 5e bd fa 36 98 bd cb cc 91 3d
       0.08230852 -0.054296337 -0.07432361 0.07119139
000340 b1 58 8d bd 7a 34 3b bd 22 10 5a 3c 9e 65 2b bd
       -0.06901682 -0.045704342 0.01330951 -0.041844957
000350 f1 c7 97 bd f6 26 35 3d 85 6e 64 3d 2e 12 dc bc
       -0.07411183 0.04422661 0.055769462 -0.026864138
000360 35 96 f0 3d d7 73 6a 3d 91 98 d0 bc 4b 52 fe 3d
       0.117474 0.05723938 -0.025463374 0.1241804
000370 f6 e5 bc bc 45 7c 3d 3d 56 61 a8 3c 81 aa bc 3d
       -0.023058873 0.04626109 0.020554226 0.092122085
000380 44 01 85 3d da 76 d9 bc 32 e6 7c 3d f6 7f 26 bd
       0.06494382 -0.02654593 0.06174297 -0.040649377
000390 5c 87 e3 3d 12 ad bd 3d 23 fc c3 bb 2f fa 7f 3d
       0.11109802 0.09261526 -0.005980985 0.062494453
0003a0 95 8a d4 3d 09 71 92 3d f4 af 80 3b 42 53 a9 3c
       0.10377995 0.07150466 0.0039272252 0.020669583
0003b0 99 8d ae bc be 34 30 bc af 6e a0 3c 03 28 c8 3d
       -0.021307753 -0.010754762 0.019584028 0.09773257
0003c0 ef 6d 84 3c 67 66 5e bd 10 18 57 bd 5c 0a 33 bd
       0.016165702 -0.054296877 -0.052513182 -0.04371105
0003d0 a2 c9 5d bd bb 4b 4a bd 61 74 9a 3d d9 c6 31 3d
       -0.05414737 -0.04938863 0.07541729 0.043402527
0003e0 41 ee a9 3c 2e cb e0 3c 52 e2 24 bd 26 5f 37 3d
       0.020743491 0.027440634 -0.0402549 0.044768475
0003f0 1c a0 bb 3d f3 06 6b 3d 38 cb d4 3c ac e8 b2 3d
       0.09161398 0.057379674 0.025975809 0.08735785

features.3.bias f4 [32]
000000 6b d1 35 3d c9 77 8b 3d a2 fa 1d bb b3 72 57 3d
       0.04438917 0.068099566 -0.0024105688 0.05259962
000010 90 66 f5 bc cd 80 ed 3a 0f 4e 29 3d 95 50 41 3c
       -0.029956132 0.0018120051 0.041334208 0.011798997
000020 e7 d3 60 3d 34 ef 7e bd 8d a8 78 bd 9a 54 07 bd
       0.054889586 -0.06223984 -0.060707618 -0.033039667
000030 d8 59 0c bd 78 50 3c 3d 52 68 86 bd 95 ab e9 bc
       -0.03426537 0.04597518 -0.06562866 -0.0285242
000040 88 e6 f8 3b e6 94 cc bc 18 d1 15 3d 2b 08 21 3a
       0.007595841 -0.024973344 0.03657636 0.000614288
000050 67 13 1c 3d 5d ac 10 3d e1 1a b3 bb 26 f2 7e 3a
       0.03810444 0.03532063 -0.0054658507 0.0009725414
000060 0f 63 3b 3d 84 28 55 bd 9e 58 55 bd ef 49 2f bd
       0.045748767 -0.05204059 -0.052086465 -0.042795118
000070 a2 a7 20 3d df 0b 47 3c c2 e4 50 3d f2 9b 1f bd
       0.039222367 0.012148826 0.05099941 -0.03896708

features.6.weight f4 [64, 32, 3, 3]
000000 06 47 f3 bc 05 4b b6 bc 19 34 53 bb 2c b4 a7 bc
       -0.029696953 -0.022252569 -0.0032227098 -0.020471655
000010 e1 91 df bc e5 76 ed bc 93 9b 6c bd 23 02 e7 3c
       -0.02729124 -0.028987357 -0.057765555 0.028199261
000020 8c 85 62 3d 0d 58 57 bc 13 08 90 3d 02 5d 73 3d
       0.05530314 -0.013143552 0.0703279 0.05941487
000030 23 d7 96 3d 3b 0a 2c 3d 14 7e 82 3b 88 8f ec 3a
       0.07365253 0.042001944 0.003982315 0.0018048147
000040 30 50 3b 3d c9 ae 89 3d b8 38 ae 3d 7d e5 3b 3d
       0.04573077 0.06722791 0.08506912 0.045873154
000050 91 2b 9b 3d bc 47 c4 3c e1 e6 91 3d 6f 23 79 bc
       0.07576669 0.023959987 0.07124115 -0.015206202
000060 e9 a9 42 bb c3 29 db ba 89 31 b0 bc ed ec 84 3d
       -0.0029703325 -0.001672082 -0.021507995 0.064905025
000070 e5 01 80 3c cb 4c 2b 3c 22 77 ee 3c c0 06 79 bc
       0.015625903 0.010455321 0.029109541 -0.015199363
000080 b6 b8 18 3d b9 2a 6e 3c 5c d0 26 bd 63 dd 1a 3d
       0.03728553 0.014536553 -0.04072605 0.037808787
000090 30 98 04 bd 1d 5c 3e bd 88 9a b8 3c b5 e8 c9 3c
       -0.0323717 -0.046474565 0.022534624 0.024647096
0000a0 dd 73 2e 3d 50 88 48 3d 6d 1a 6a 3c 7b 37 46 bd
       0.042590965 0.048958123 0.014288527 -0.048392754
0000b0 2f 83 6e 3d 1c 63 41 3d 40 d8 99 3a b8 cc 04 3c
       0.058230575 0.04721366 0.0011737421 0.008105449
0000c0 2e 42 c9 3c 59 d4 56 bd 4e b9 03 bd 49 ab fd 3c
       0.02456769 -0.052448604 -0.032159142 0.030965464
0000d0 33 bb 00 bc 01 14 20 bd 57 13 8e 3a 0b 3e 20 3d
       -0.007857132 -0.039081577 0.0010839504 0.03912167
0000e0 52 61 17 3d d4 13 e0 3b 22 4e 45 3d f7 24 1a bd
       0.036958046 0.006838301 0.048170216 -0.03763291
0000f0 8f 2a b3 bc f8 d7 ee 3c b5 b5 03 bd 32 8f b4 bc
       -0.02187088 0.029155716 -0.03215571 -0.022040937
000100 ce a3 5a 3c 92 b7 c6 3c 14 64 28 3d 39 40 81 bb
       0.013344718 0.024257455 0.041111067 -0.0039444235
000110 91 5a de 3c 63 c1 3d 3d ec c1 41 3d 7b ac a4 3c
       0.027142795 0.046327006 0.04730408 0.020101776
000120 2c 89 92 bc 55 e3 84 bb d2 11 f1 bb 9a dd dc 3a
       -0.017887674 -0.0040554204 -0.0073568607 0.001685071
000130 79 06 1d bc 4f f1 4c bd 73 e0 a3 3c b0 e3 3b 3d
       -0.009584063 -0.050034817 0.020004487 0.045871437
000140 3f f8 ec bc 04 c1 a2 bc 8f 0c 3f bd 78 b3 36 bd
       -0.028926967 -0.019867428 -0.046642836 -0.04460475
000150 ef bc cb 3c 00 aa 0b bd 36 01 8d bb 31 99 a0 3b
       0.024870364 -0.03409767 -0.004303123 0.0049010743
000160 67 65 77 3c d8 df df 3c b6 23 57 3b d8 74 8a 3d
       0.01509986 0.027328417 0.0032827682 0.067605674
000170 ec ad 2a 3d 4d c9 cd 3c de ee 8a bb 7f c6 39 3d
       0.04166977 0.025120402 -0.004239901 0.045355316
000180 9b 66 b8 bc d5 42 70 3d 54 bc 32 bd ae 33 07 3d
       -0.022509864 0.058657486 -0.043636635 0.03300827
000190 b9 26 46 3d a4 6a a0 3c 62 c2 a3 bc 25 31 11 bd
       0.048376773 0.0195821 -0.01999015 -0.03544726
0001a0 ed 55 44 bd 3d 56 be 3c 6c 4f 97 3d 17 b4 89 3d
       -0.047933508 0.023234481 0.073881954 0.067238025
0001b0 a6 51 d2 3c cb 8d 13 3d 7d 41 8f bc 42 b7 e4 3b
       0.025673699 0.036023896 -0.017487282 0.006979854
0001c0 9b d5 35 bc ef fb 06 bc 55 58 88 3d c1 06 f3 bc
       -0.011098291 -0.008238777 0.06657473 -0.029666306
0001d0 60 f0 31 bd 8b 2f 0f bc 81 64 dd 3c 7f 1e 6c 3c
       -0.04344213 -0.0087393625 0.027025463 0.014411568
0001e0 75 72 4f 3d 30 ff 34 bd 64 80 63 bd da 8f 01 3d
       0.050646264 -0.04418868 -0.055542365 0.03163133
0001f0 a7 a1 8a 3c 0f e7 5f 3c ee ef e1 bc 0e c7 9d 3c
       0.016922785 0.0136659285 -0.027580228 0.019259956
000200 63 78 cc 3c 55 40 5a 3d a2 22 6c 3d ca 1b 5e 3d
       0.024959749 0.053284008 0.057650216 0.05422572
000210 42 4d 6e 3d 41 7d ad bc 80 e0 3b bc 6e 2f 7f b9
       0.058179148 -0.02117789 -0.011467099 -0.00024336364
000220 31 84 8d 3d 60 39 f2 3c ab 19 43 3c db 5c 75 3d
       0.06909979 0.029568374 0.011907975 0.059903007
000230 ba dc 70 bc b8 2d 68 3d db 6f 6e 3d e1 fc 12 bd
       -0.014701063 0.056684226 0.058212142 -0.035885695
000240 24 55 d6 bc 1d 73 24 3d 1b 64 3c 3c 38 54 c1 3c
       -0.026163645 0.040148843 0.011498476 0.023599729
000250 98 65 87 bb b2 3d fb bc 6a 7a 43 3d b5 62 f7 3c
       -0.004131984 -0.030669067 0.047724165 0.030198434
000260 26 c6 b3 3c 42 73 9b 3d 8c 8d 7c 3d e9 58 ff bc
       0.02194507 0.07590343 0.061658427 -0.031170325
000270 cf 3e 7f 3d 67 57 04 3c 73 e4 e2 3c 88 c8 50 bc
       0.06231576 0.008077479 0.027696824 -0.012743123
000280 b2 38 1b bd 4c a0 64 3d 68 e1 aa bc e0 a5 2a 3c
       -0.037895866 0.055816934 -0.020859435 0.010415524
000290 41 6f 86 3d e0 61 9d 3d c6 e2 e3 3c 97 bf 6d bc
       0.06564189 0.07684684 0.027818095 -0.014511011
0002a0 af e3 11 3d f5 25 55 3c b1 6d 87 bc e9 d3 94 3b
       0.035617527 0.013009538 -0.016531797 0.004541863
0002b0 08 4c 99 3c 4f 40 aa bc 03 a1 aa bc 42 19 1e bd
       0.018713012 -0.020782618 -0.02082873 -0.038598306
0002c0 08 b1 4a 3d 84 13 6f 3d 88 1d bc 3b a3 28 33 bd
       0.049485236 0.05836822 0.005740825 -0.043739926
0002d0 7b 16 09 3c fc c2 89 3d 08 a8 f4 bb f5 33 4c 3d
       0.008367176 0.067266434 -0.00746632 0.049854238
0002e0 c6 37 84 bc d3 3f 1d 3d 95 cb 63 3d ac f2 0e bd
       -0.016139876 0.038390946 0.055614073 -0.0348994
0002f0 61 60 2c 3d 1f 50 82 bc 2f f7 05 3d 78 99 82 bc
       0.0420841 -0.015907345 0.032706436 -0.01594232
000300 03 a6 ad 3c 5d 9c 6d bb 25 9b 12 bd ca 4a 67 3d
       0.021197325 -0.003625653 -0.03579249 0.05646781
000310 9f 1f 1a bc 8d 8e bb bc 63 cd 56 3c ca 65 93 3c
       -0.009406953 -0.022895122 0.013110491 0.017992873
000320 26 2a a0 bc 37 74 e7 bc 61 53 86 3d 42 4d 20 bb
       -0.019551348 -0.028253658 0.06558872 -0.0024460112
000330 b3 6e d7 3c 58 d2 8c 3d b3 57 d4 bc c4 ee 39 3b
       0.026297903 0.068760574 -0.025920724 0.0028371075
000340 43 ab 86 bd 7a ea 12 bb 7d f5 52 bd 5a 23 bd bc
       -0.06575634 -0.002241759 -0.051503647 -0.023088146
000350 e2 86 82 bd f1 78 07 bd 39 2d 43 bd 46 32 95 3c
       -0.06373383 -0.033074323 -0.04765055 0.018212449
000360 5a b7 37 bc 65 cb 83 3c 0c 35 93 3d 2f 7b 2b 3d
       -0.011213148 0.016088197 0.07187852 0.041865524
000370 a9 aa 14 3d c4 03 05 bd d1 41 35 bc 1a ac 64 3d
       0.036295567 -0.032474294 -0.011063055 0.05582819
000380 18 32 db bb 08 3d 2b bc 44 71 ce bc d1 ac c0 bb
       -0.0066893212 -0.010451563 -0.025200494 -0.0058799763
000390 55 08 0a 3d 01 b5 12 bd aa 39 5a bd ee 54 37 3d
       0.033699352 -0.03581715 -0.05327765 0.04475873
0003a0 a6 50 0a bb 22 b6 56 bd 0a 1a 34 3c 40 b6 c0 bc
       -0.00211052 -0.05241979 0.010992536 -0.023524404
0003b0 24 a9 14 bd de 02 40 3d ef a5 2c 3d c5 f9 47 3d
       -0.036294118 0.046877734 0.042150434 0.048822183
0003c0 e7 8c d8 bc 71 ce cc b9 93 a8 29 3d ba 79 42 bc
       -0.026434375 -0.00039063723 0.04142053 -0.011869842
0003d0 2d 78 2a bd d5 86 39 bc b8 26 82 3c 6c c9 06 3b
       -0.041618515 -0.01132365 0.015887603 0.0020566834
0003e0 89 4f 09 bd 31 00 af bc ed ca 57 3d f8 7d 06 bd
       -0.033523116 -0.021362396 0.05268376 -0.032834977
0003f0 21 3f 2b bd bf 8e 3e 3d c4 4d 21 bd 34 5f 1d bd
       -0.04180825 0.046522852 -0.039380804 -0.03842087

features.6.bias f4 [64]
000000 3e dc f8 3b 74 3a c7 3c 7e 0f 0b bd e3 73 89 bc
       0.0075946143 0.024319865 -0.03395032 -0.016778892
000010 d3 35 5a 3d f0 c7 7a bc 0c c1 21 bd a8 59 87 3d
       0.053273987 -0.015306458 -0.039490744 0.066088974
000020 14 8f 11 bd ae 5e ab 3b e6 25 9f bc 6b 91 54 bc
       -0.03553684 0.0052297926 -0.019427251 -0.0129741235
000030 81 29 c8 3c d3 73 0a bd 83 5e 0a 3d 6d 49 71 bd
       0.024433853 -0.033801865 0.03378154 -0.058907915
000040 e3 d2 08 bd c4 63 39 bd f6 8e 81 bd 7b 36 82 3c
       -0.033404242 -0.04526116 -0.06326096 0.015895119
000050 ea a9 c6 3c 67 61 16 bd cb a4 2b 3d 5a 64 4d 3d
       0.024250943 -0.036713984 0.041905206 0.05014453
000060 20 3d 21 bd eb 95 20 3d e9 96 c5 3b 5a 59 cc 3c
       -0.039364934 0.039205473 0.006029953 0.02494495
000070 70 c6 60 bd 9c 16 13 3d 3d c0 63 3d 50 59 25 bd
       -0.054876745 0.035910234 0.055603255 -0.04036838
000080 0f bf 87 bc f5 20 d2 3a b0 bf 99 bc 8e 7e 91 3d
       -0.016570596 0.001603155 -0.018768162 0.071042165
000090 b1 4e b8 3c bc f1 b5 3c e0 66 2d 3c f7 9b ca 3c
       0.02249846 0.022209994 0.010583609 0.024732573
0000a0 79 31 53 3d 8c ef c9 3c a7 45 a3 3c 7a ef d9 bc
       0.051560853 0.024650358 0.019930674 -0.02660345
0000b0 f5 c3 b6 3c 50 85 69 3c 78 83 cb 3c 79 f0 f7 bc
       0.022310236 0.014252976 0.024842963 -0.030266033
0000c0 62 dc 79 ba d8 81 36 3d 24 4c b5 bc 6b 44 81 bc
       -0.0009531436 0.044557422 -0.022131033 -0.015779695
0000d0 39 f6 c7 3c 25 33 f0 3c 06 6d 3b 3d 9d a3 0b bd
       0.0244094 0.029321263 0.04575827 -0.03409158
0000e0 80 ab 09 3d f3 2b 3c bd e5 e2 9f 3c 37 a1 d3 bc
       0.03361082 -0.04594035 0.019517371 -0.02583371
0000f0 1d c5 29 ba 72 55 d9 ba 8f 00 80 3c e2 1a 49 ba
       -0.00064762105 -0.0016581251 0.015625266 -0.00076715474

classifier.1.weight f4 [3, 4096]
000000 0d f9 00 bd af 66 81 bc 65 5f d9 ba 98 bf a2 bc
       -0.031487513 -0.015796034 -0.0016584216 -0.01986675
000010 d8 22 c7 bc 01 63 b1 ba fa bf 50 bc 4a 81 c3 bc
       -0.024308607 -0.0013533534 -0.012741083 -0.02386536
000020 d4 55 8b 3c 22 93 d2 39 c8 17 92 3c e4 39 89 3c
       0.0170087 0.00040163944 0.017833605 0.016751237
000030 2c 4f 3b 3b 46 3b aa bb 09 4b b0 3c ec 5d 9f 3a
       0.0028581126 -0.005195054 0.021520155 0.0012158728
000040 31 3f 90 bc a5 87 93 bb a5 78 e4 3c 4b ed 03 3d
       -0.017608257 -0.004502254 0.027889559 0.032208722
000050 43 18 47 3c e2 d6 8a 3b 6d 4c 89 bb fb d2 b7 3b
       0.012151781 0.004237042 -0.004190019 0.0056098676
000060 97 63 8a bc 8b e8 91 bb 21 f7 e0 3c 99 2e 25 bb
       -0.016893191 -0.00445277 0.02746159 -0.0025204776
000070 8c 14 c9 3c 37 44 e2 b9 30 dd 92 3c 94 f8 3c 3b
       0.02454593 -0.00043156903 0.017927736 0.0028834688
000080 8c b5 bb 3a 6b 47 73 3c 93 26 c9 3c 69 6b 02 3c
       0.0014321073 0.01484857 0.024554526 0.007960179
000090 2c 2d 56 3c 3a 2e 61 bc 78 0a 99 3b 7e fd ea 3b
       0.013072293 -0.013743931 0.0046704374 0.007171332
0000a0 3d df f5 bb 47 23 39 3c 3c 94 fa 3c 71 8e 49 3c
       -0.0075034187 0.011299915 0.030588262 0.012302027
0000b0 77 a0 d2 bc bd c3 b9 3b 06 9e ca bc 7f f3 5d 39
       -0.025711281 0.005669086 -0.024733555 0.00021166912
0000c0 d6 6a e1 ba f1 06 c5 ba 8d d0 c0 3c f7 8b f9 3b
       -0.0017197977 -0.0015031976 0.023536945 0.007615562
0000d0 e6 56 57 3c 2f 4f 3c 3c 52 77 a0 3b 6a 1b 7b 3c
       0.013143277 0.011493488 0.0048970366 0.01532636
0000e0 05 ac d0 bc fd ca 9b bc 6d fe 00 bd aa 88 32 bc
       -0.02547265 -0.01901769 -0.03149264 -0.010896841
0000f0 74 43 59 bc ee 24 1b 3a d5 dc 24 bc 77 66 d2 3b
       -0.013260711 0.0005918284 -0.010062416 0.006420906
000100 b0 0b ce bc cb 55 84 bb d1 7f a6 bc 9d 40 22 bc
       -0.025152057 -0.0040385476 -0.02032462 -0.0099031
000110 9e f3 fe bc a3 d2 bf bc 5e 01 0a bd a5 c4 d7 bc
       -0.031122025 -0.02341587 -0.03369271 -0.026338885
000120 63 18 35 ba 4f b5 78 3c 90 85 17 3d 9a a1 07 3d
       -0.0006908236 0.015179946 0.03699261 0.0331131
000130 46 38 97 3c c8 14 a7 3c 03 7e f8 3c 6c a0 88 3a
       0.01845945 0.020395651 0.030333525 0.0010423786
000140 51 f3 b7 3b f3 97 c6 3c cd 5c d0 3c c8 d8 0a 3d
       0.0056137224 0.024242377 0.025434876 0.033898145
000150 5c dc 2d 3d 6f 17 ad 3c e7 c0 34 3d a4 68 1e bc
       0.04244648 0.021129338 0.04412928 -0.009668503
000160 df 46 1f 3b 93 9b de 3c 26 f7 ba 3c 56 12 fa 3c
       0.0024303717 0.027173793 0.022822928 0.030526321
000170 64 1a 2e 3d db 8b 52 3d 42 e6 ee 3c 42 a0 8b bc
       0.042505637 0.051402908 0.02916253 -0.01704419
000180 31 b1 91 39 68 c4 53 3d 7d d4 03 3d 77 5c 04 3d
       0.00027788573 0.05170098 0.032185066 0.032314744
000190 97 4f ed 3c da 47 00 3d 49 a3 41 3d 1a 42 f2 bc
       0.028968615 0.031318523 0.04727486 -0.029572535
0001a0 65 fd 45 bb 29 7e 03 3d cc bc cc 3c c8 f4 54 3d
       -0.003021085 0.032102738 0.02499237 0.051991254
0001b0 ec cd 04 3d 22 4a 20 3d 83 c2 48 3b 80 8a 39 bc
       0.032422945 0.0391332 0.0030633516 -0.011324525
0001c0 89 2f ef bb 1a 80 5f 3c ca c6 d8 3c ee 67 bf 3c
       -0.007299368 0.013641382 0.026461978 0.023364987
0001d0 bc f5 a5 3c 78 aa b4 3c 3e df 05 bc 6f 0d c4 bc
       0.020258777 0.022053942 -0.008170901 -0.023932187
0001e0 da 66 84 bc 6c 59 a6 bc 2a 80 29 bc 55 79 97 ba
       -0.016162325 -0.020306312 -0.010345498 -0.0011556546
0001f0 44 86 73 3b a5 b8 0e bc e7 c5 68 bc 8c db 2a bc
       0.0037158886 -0.008711015 -0.01420734 -0.010428321
000200 02 a4 4b 3c 3c 84 78 bc b0 c5 42 bb 0c fe 7e 3c
       0.012429239 -0.015168246 -0.0029719882 0.015563499
000210 c0 da da bb bc 7c 36 3c fc 82 27 3c 48 7a 8b 3b
       -0.006678909 0.011138137 0.0102241 0.0042565204
000220 10 aa bd bb 5b aa 34 bc 7b 2d ee bb 09 fb 5d bc
       -0.0057880953 -0.011026944 -0.0072686053 -0.013548621
000230 d0 b8 48 3c b8 5b 20 bc 03 15 1c bc 2c 0a 3a 3c
       0.012251094 -0.009787492 -0.009526494 0.011354964
000240 68 39 13 3c 80 8c 96 bb fc 93 96 3b 66 3b 51 3c
       0.008985855 -0.0045943856 0.004595278 0.012770509
000250 b8 28 7a bb 46 bc 53 3c 2c 63 2a 3c 2c d5 ef ba
       -0.0038171243 0.012923306 0.010399621 -0.0018297783
000260 8c 72 03 bc 70 cf bd bb e6 08 6d bc 98 c9 87 bb
       -0.008022916 -0.0057925507 -0.014467454 -0.004143905
000270 78 9b eb 3b f8 07 a5 3b 1c 11 12 3c 97 e4 43 bb
       0.007190164 0.0050363503 0.008915212 -0.002989089
000280 e0 7c df 3b 92 d2 4f 3c d7 68 42 ba 4a aa 7d 3c
       0.006820306 0.012684481 -0.0007416135 0.015482495
000290 30 8a b3 ba 9c 8e b7 3b 5e fb 7c 3c 4d e6 37 3b
       -0.0013697799 0.005601717 0.01544079 0.0028060854
0002a0 83 9a 90 bc f3 cc 83 3c 4a ea 4b bc 20 36 50 bb
       -0.017651802 0.016088938 -0.012445996 -0.0031770542
0002b0 50 35 ad 3a 2c f2 8f 3b b0 b6 5f bb 39 0d 12 3c
       0.0013214741 0.004392883 -0.003413599 0.008914285
0002c0 fc a6 74 bc 25 06 b8 bc 14 f8 bc bb a4 ed 69 3b
       -0.01493239 -0.022463867 -0.005766878 0.0035694623
0002d0 b8 7a a0 bb 98 ae 25 bc 80 7e 31 3a 56 60 11 ba
       -0.0048974417 -0.010112427 0.0006770864 -0.0005545666
0002e0 d4 61 7e bc 5d 2b 5c bb 82 92 7b 3c d3 32 2a bc
       -0.015526254 -0.0033595182 0.015354754 -0.010388094
0002f0 7f 90 f6 3a 18 8b 0d 3c 3e c0 50 3c 90 dd 50 bc
       0.0018811374 0.00863912 0.012741147 -0.012748137
000300 59 fb 9a 3b 48 70 b5 bb 37 b7 8f 3b f2 92 69 3c
       0.00472967 -0.0055370666 0.0043858546 0.014256226
000310 eb 8e 76 3c 28 64 48 bb 0a 06 49 3c 07 1b b5 bb
       0.015048723 -0.0030577276 0.012269506 -0.0055269036
000320 de 5b ed 3a b8 ba 85 bc 8f d3 5e bc e9 30 59 3c
       0.0018109044 -0.016324386 -0.013600244 0.01325629
000330 8a 15 77 3b b1 7c e8 ba 13 b8 c4 bb e9 a7 55 bc
       0.0037702047 -0.0017737356 -0.0060033887 -0.013040521
000340 2d 52 b4 bb a7 9b 38 bc 98 b3 38 bc dc 58 29 bc
       -0.00550296 -0.011267579 -0.011273287 -0.010336127
000350 61 f8 bb bc a2 28 00 bc 02 8a fc 38 db fc 31 bb
       -0.022945585 -0.007822188 0.00012042002 -0.002715877
000360 4b e9 ab 3a 40 1d 6f bc 2c 1b 21 bd d5 88 30 bd
       0.0013115791 -0.014594376 -0.039332554 -0.043099243
000370 18 d7 b9 bc 61 9b 92 bc 7f 27 4b bc a9 8f 93 bb
       -0.022685573 -0.017896356 -0.012399553 -0.0045032096
000380 7b 1d d0 3b 61 1d 42 bc 30 4c ed bc 49 e1 74 bc
       0.0063511706 -0.011847825 -0.028966993 -0.01494629
000390 37 ff b6 bc 5d 8f 90 bc 6f be 93 bc d5 53 f6 bc
       -0.022338493 -0.017646486 -0.018035142 -0.030069271
0003a0 82 32 a8 bc 2e 7f 90 bb 32 16 c7 bc 72 85 d7 bc
       -0.020531897 -0.0044096923 -0.024302576 -0.026308749
0003b0 26 a3 eb bc b8 c8 26 bd fa 3d d5 bc f4 a2 2f bc
       -0.028764319 -0.040718764 -0.02603053 -0.010720003
0003c0 ce 3c 78 3c 0f 29 a0 bc dc 27 4d 39 0b 83 eb bc
       0.015151216 -0.019550828 0.00019565172 -0.02874901
0003d0 ff 90 19 bd d2 29 b2 bc e6 d2 df bb 3b 89 aa bc
       -0.037491795 -0.021748457 -0.006830561 -0.02081739
0003e0 65 83 9d b9 e5 b3 86 bb bf 31 9f bc 68 b2 fc bb
       -0.0003004327 -0.0041108006 -0.0194329 -0.0077116974
0003f0 3d 4d f0 bc 30 ce 92 bc 33 2e 13 bb 0b 4f 23 bc
       -0.029333705 -0.017920583 -0.0022457957 -0.009967576

classifier.1.bias f4 [3]
000000 a5 7c 7e ba 64 d6 24 3c e6 b0 16 3b
       -0.00097079045 0.01006088 0.0022993623
