vision_system/model_weights_3.pth (torch, 52733 bytes, 8 tensors)

features.0.weight f4 [8, 3, 3, 3]
0	0x3dd5b390	0.104346395
1	0x3e3164e7	0.17323647
2	0x3cdb50aa	0.026771862
3	0xbe076088	-0.13220417
4	0xbe3b7554	-0.18306476
5	0x3e3a0d83	0.18169217
6	0x3ce40c01	0.027837755
7	0xbe49be8c	-0.19701594
8	0xbe48d7df	-0.19613598
9	0x3e0acdcd	0.1355507
10	0x3e1f4cbb	0.15556614
11	0x3cc0a5e9	0.023516612
12	0x3e381f34	0.17980653
13	0x3e147659	0.14498271
14	0x3e283df3	0.16429882
15	0xbe11aaef	-0.14225362
16	0x3d839140	0.064241886
17	0xbe62cfee	-0.22149631
18	0x3b48faee	0.0030667144
19	0x3e479abe	0.19492623
20	0x3d1e361b	0.038625818
21	0xbe3bb661	-0.18331291
22	0xbcb34373	-0.021882748
23	0x3d177bc3	0.036983263
24	0xb9397f46	-0.00017690388
25	0xbe5b8fa1	-0.21441509
26	0xbc42dde9	-0.011893728
27	0xbe0afc53	-0.13572817
28	0x3d4f6064	0.050629035
29	0xbe27be73	-0.16381244
30	0xbe53f430	-0.20698619
31	0xbe5e8ce9	-0.2173344
32	0xbd7b2351	-0.061312977
33	0x3855f833	5.101431e-05
34	0x3dc59056	0.096466705
35	0x3e634efd	0.221981
36	0xbcf1d3de	-0.029519971
37	0x3e0941ba	0.13403979
38	0xbd99c752	-0.075087205
39	0xbddd0453	-0.107918404
40	0x3ce232f6	0.02761219
41	0x3e35cf16	0.17754778
42	0xbdf61ebb	-0.1201758
43	0x3e3c806f	0.18408369
44	0x3e539e20	0.20665789
45	0xbdcdca92	-0.10048403
46	0xbd7d1686	-0.06178906
47	0xbb5f295e	-0.0034051756
48	0x3d4cda84	0.05001308
49	0xbe4efbfc	-0.20213312
50	0x3e012956	0.12613425
51	0xbe314329	-0.17310776
52	0xbd498781	-0.049201492
53	0x3e2e3da8	0.17015707
54	0xbe17abc8	-0.14811623
55	0xbd44fa2f	-0.048090156
56	0xbdba45c5	-0.09095339
57	0xbda9d62e	-0.08292805
58	0x3d657710	0.05602175
59	0xbe0a1c63	-0.13487391
60	0x3c81b9dd	0.015835697
61	0xbe04f4dc	-0.12984031
62	0xbdd9995e	-0.106249556
63	0xbdeed3d3	-0.11661496
64	0xbe112b7d	-0.14176746
65	0xbc8eb102	-0.017418388
66	0xbe3faca7	-0.18718205
67	0xbdab943f	-0.08377885
68	0x3d4581b8	0.048219413
69	0x3e03df3a	0.12878123
70	0xbd0e77a7	-0.034782078
71	0x3ded0e06	0.115749404
72	0x3d63d857	0.05562624
73	0x3e207d24	0.15672737
74	0xbd075c38	-0.03304693
75	0xbdf3c209	-0.11902244
76	0xbda5dc21	-0.08098627
77	0x3d600106	0.054688476
78	0x3cfe32a0	0.03103
79	0xbcd43f97	-0.025909228
80	0xbe150f78	-0.14556682
81	0x3c121594	0.008916277
82	0xbd950fde	-0.07278417
83	0x3e3dcb99	0.18534698
84	0x3df5c821	0.12001062
85	0xbd4e76fa	-0.050406434
86	0x3cbaacbe	0.022787448
87	0xbd5e9b0b	-0.05434708
88	0xbd7b1c23	-0.06130613
89	0x3c1ec767	0.009691096
90	0x3d5d6e96	0.05406054
91	0xbdfbf808	-0.123031676
92	0xbc5b603e	-0.013389645
93	0x3df8f7c2	0.12156631
94	0x3e422935	0.18961032
95	0xbc117749	-0.008878537
96	0x3c88c54e	0.016695645
97	0xbd3a1081	-0.045425896
98	0xbd33d5e4	-0.043905154
99	0x3e1d26fe	0.15346906
100	0x3d5bd106	0.053666137
101	0x3e7eee2f	0.24895547
102	0x3e78fcf6	0.24315247
103	0xba57e36e	-0.0008235489
104	0x3cd1681c	0.025562339
105	0x3e1f195f	0.15537022
106	0x3da50f9c	0.08059618
107	0xbc8e3287	-0.017358078
108	0x3cf6cbb0	0.030126423
109	0x3e0a6f6a	0.13519064
110	0x3dacbeb6	0.08434813
111	0xbd8264f8	-0.063669145
112	0x3e2e7f1c	0.17040676
113	0x3df573fb	0.11985012
114	0xbe15c8ec	-0.14627427
115	0x3d441bd6	0.04787811
116	0x3e430705	0.19045646
117	0xbd7389a7	-0.059457447
118	0x3d768e74	0.060194448
119	0x3da7dcaa	0.08196385
120	0x3e0e85e3	0.13918261
121	0xbc201f0e	-0.009773029
122	0x3e5633e5	0.20918234
123	0x3dc895b6	0.0979418
124	0x3ca0782c	0.019588552
125	0x3d2f4d2f	0.042798217
126	0x3d74cd20	0.059765935
127	0x3c14077b	0.009034987
128	0x3e4ab3d7	0.19795166
129	0xbc4e9f20	-0.012611181
130	0x3ba3cabf	0.0049985345
131	0xbe003936	-0.12521824
132	0xbda39931	-0.07988203
133	0x3d4fbdb9	0.050718043
134	0xbcf1aa61	-0.029500188
135	0x3dd2108c	0.10257062
136	0x3c98e6b9	0.018664705
137	0xbe4e93e3	-0.20173602
138	0xbb44e5dd	-0.0030044236
139	0x3be26800	0.0069093704
140	0x3d534624	0.051580563
141	0x3dedfde8	0.116206944
142	0x3e312d87	0.17302524
143	0x3e271ab8	0.16318786
144	0xbce62ff1	-0.028099032
145	0xbd7465c6	-0.05966737
146	0xbe1508ff	-0.14554213
147	0xbe419f61	-0.18908454
148	0xbc965ff1	-0.018356295
149	0x3dd22c73	0.10262384
150	0x3d0ef8b7	0.03490516
151	0x3e6bd623	0.23030905
152	0xbdfab6d8	-0.12241906
153	0xbd36b821	-0.044609193
154	0x3d38017c	0.04492329
155	0x3df90717	0.121595554
156	0xbe2a5657	-0.16634499
157	0xbe43c7b1	-0.19119145
158	0xbdd7cd66	-0.105372235
159	0xbd8f2aff	-0.06990623
160	0x3e30c95a	0.1726431
161	0xba53968f	-0.0008071446
162	0x3d9bb030	0.076019645
163	0xbdd4f0f9	-0.103975244
164	0x3be7e443	0.0070767715
165	0xbe4edc90	-0.20201325
166	0x3d92bead	0.07165275
167	0x3e199d91	0.15001513
168	0x3d98e189	0.074648924
169	0xbe360240	-0.17774296
170	0x3d9dec43	0.07711079
171	0x3dd329d8	0.103107154
172	0xbe1e3310	-0.15449166
173	0xbc958990	-0.018254071
174	0xbd64ba50	-0.055841744
175	0xbd37a443	-0.044834387
176	0xbd14ee41	-0.03636003
177	0xbbe71cc7	-0.007052991
178	0xbca3f052	-0.020012055
179	0xbd1a0717	-0.037604418
180	0xbe3d30ce	-0.18475649
181	0xbe2d2550	-0.16908765
182	0x3ca6748c	0.020319246
183	0x3c979c22	0.018507067
184	0xbe4b94ee	-0.19881031
185	0x3e17fb4b	0.14841954
186	0xbd0988b8	-0.03357765
187	0x3e334393	0.17506246
188	0xbe2d5a5c	-0.16929
189	0x3cd4a344	0.025956757
190	0x3e3c34d7	0.18379532
191	0xbdbeed82	-0.09322645
192	0x3d648a0f	0.055795725
193	0xbd52398d	-0.051324416
194	0x3e4d312e	0.20038292
195	0x3e23ad84	0.1598416
196	0x3e4c62f9	0.1995963
197	0x3ce04427	0.027376248
198	0xbd926382	-0.07147886
199	0xbe4ed279	-0.20197476
200	0xbdd9c379	-0.106329866
201	0x3c2da22a	0.010597745
202	0xbe0e5155	-0.13898213
203	0xbe03aa21	-0.12857868
204	0x3e4f3b82	0.20237544
205	0x3e473bb6	0.19456372
206	0xbd17b00c	-0.037033126
207	0x3cc02379	0.023454415
208	0xbe3372f6	-0.17524323
209	0xbdc278d2	-0.09495701
210	0xbd977250	-0.0739485
211	0x3dba06ee	0.09083353
212	0x3dc5b288	0.09653193
213	0xbcf72e31	-0.030173393
214	0xbcd9d7a6	-0.026592087
215	0xbc253954	-0.010084469

features.0.bias f4 [8]
0	0xbe0bb23b	-0.13642208
1	0xbdc14229	-0.09436447
2	0xbde9b1b2	-0.11410846
3	0x3e44215f	0.19153355
4	0xbe42e304	-0.19031912
5	0x3e56659c	0.20937198
6	0x3e1e01d6	0.15430388
7	0x3e1c4346	0.15260038

features.3.weight f4 [16, 8, 3, 3]
0	0xbd9da3e0	-0.07697272
1	0xbb8963d5	-0.004192809
2	0xbd406253	-0.04696877
3	0xbbdb29ca	-0.0066883313
4	0x3d2947f6	0.041328393
5	0xbcf3c26f	-0.0297558
6	0x3d97a542	0.07404567
7	0x3df055dd	0.11735127
8	0xbc9d762f	-0.019221393
9	0xbd823a4e	-0.06358777
10	0x3c932466	0.017961692
11	0xbce1d02f	-0.02756509
12	0x3db57953	0.088610314
13	0x3d683e7e	0.056700222
14	0x3e142d2d	0.14470358
15	0x3d12343b	0.035694342
16	0x3d4b73f3	0.049671125
17	0xbd06b50a	-0.032887496
18	0x3d8b410b	0.06799515
19	0x3d5df677	0.054190125
20	0x3d8ce009	0.06878669
21	0x3daaba6d	0.08336339
22	0x3d4adb9c	0.049525842
23	0xbc83c5a1	-0.016085448
24	0x3dba59d9	0.09099168
25	0xbc367f00	-0.011138678
26	0xbb1c93c7	-0.0023891793
27	0xbdabcca6	-0.08388643
28	0x3cae6b0c	0.021291278
29	0xbda32000	-0.07965088
30	0x3c5a8fb0	0.013339922
31	0x3d220e00	0.039564133
32	0xbdc18723	-0.094496034
33	0xbd0a4d31	-0.03376502
34	0x3d11f787	0.03563645
35	0x3cdf3a82	0.027249578
36	0x3d55a8c7	0.05216291
37	0xbd6c9c5e	-0.05776631
38	0x3d24f572	0.040273137
39	0xbd9b9089	-0.07595927
40	0x3cc445e0	0.0239591
41	0xbdf87aff	-0.12132835
42	0x3cf49049	0.029853957
43	0xbcbe4011	-0.023223909
44	0xbd4b49f9	-0.049631093
45	0x3c38d608	0.011281498
46	0x3d8cf5ec	0.068828434
47	0xbdda9b5f	-0.10674166
48	0x3d1dd8ad	0.038536716
49	0xbdbcdf11	-0.09222234
50	0x3dc00d82	0.093775764
51	0x3de468f6	0.11152832
52	0x3d23279d	0.0398327
53	0xbc544629	-0.012956181
54	0x3cee3c5b	0.029081514
55	0x3dbcd094	0.092194706
56	0xbd8badc3	-0.06820252
57	0x3d584b8e	0.05280643
58	0x3da6fe7b	0.08154007
59	0x3ddbd786	0.10734467
60	0x3c7745f6	0.015092364
61	0x3ded65c0	0.11591673
62	0xbb8969c2	-0.0041935155
63	0x3c52a539	0.012856775
64	0xbb5b62e6	-0.0033475696
65	0xbddd6a60	-0.10811305
66	0x3d782f72	0.060592122
67	0xbdc4ac67	-0.09603196
68	0xbd9cb9ab	-0.07652601
69	0x3dd469ab	0.10371717
70	0xbdf7e7f5	-0.12104789
71	0xbdde3477	-0.108498506
72	0xbd3102bb	-0.043215495
73	0x3db49ec0	0.08819342
74	0xbda64432	-0.08118476
75	0xbd0f8ace	-0.035044484
76	0x3db5596d	0.08854947
77	0x3ca939a9	0.020657377
78	0x3cf404ab	0.029787382
79	0x3da6ee53	0.081509255
80	0x3d89df5f	0.06732058
81	0x3df0d931	0.11760176
82	0x3d900ab6	0.07033293
83	0x3e026df1	0.12737252
84	0x3d326323	0.043551575
85	0xbd23ef6b	-0.04002325
86	0xbd4c2918	-0.049843878
87	0x3d91d9ce	0.07121621
88	0x3e2e2321	0.17005588
89	0x3d0b8740	0.03406453
90	0x3d0894af	0.03334492
91	0x3daf98b8	0.08574051
92	0x3c7e005a	0.0155030135
93	0x3df96fa0	0.12179494
94	0x3dfaa0cc	0.12237701
95	0x3ded1661	0.11576534
96	0xbc4eb5f8	-0.012616627
97	0x3dc9c28b	0.09851559
98	0xbd8015ca	-0.06254156
99	0xbdd96c16	-0.10616319
100	0xbdd1118d	-0.10208426
101	0xbda920b8	-0.08258194
102	0x3d8ada08	0.067798674
103	0xbd2b4701	-0.04181576
104	0x3de5afd5	0.11215178
105	0xbd36cec9	-0.0446308
106	0x3df1ab9a	0.118003085
107	0xbdc1b823	-0.094589494
108	0x3b46e98b	0.0030351605
109	0x3d294636	0.041326724
110	0x3dbc2e41	0.0918851
111	0xbd1c9aa2	-0.038233407
112	0x3dcb8aa1	0.09938551
113	0x3d97300d	0.07382212
114	0x3d9f721e	0.07785438
115	0xbda765a9	-0.08173687
116	0x3d52a94f	0.051430997
117	0xbe04207f	-0.12903021
118	0x3da63499	0.08115501
119	0x3b169b07	0.0022980587
120	0xbd944721	-0.07240129
121	0xbda7b1ed	-0.081882335
122	0x3cc4075a	0.023929287
123	0x3c9488e5	0.018131683
124	0x3c96fe72	0.018431876
125	0x3d157d45	0.03649642
126	0x3d23b386	0.03996613
127	0x3db7005b	0.08935615
128	0xbde7a97c	-0.113116235
129	0x3d0a0a77	0.033701386
130	0xbcbed278	-0.023293719
131	0xbdcfd0fc	-0.101472825
132	0x3d03d5e1	0.032186393
133	0x3d9dbc6f	0.077019565
134	0xbdb19d01	-0.08672524
135	0xbc732bb0	-0.014841959
136	0xbdb3954b	-0.0876871
137	0xbdc42c9f	-0.09578823
138	0xbdc8dea5	-0.09808091
139	0xbd2e6f42	-0.042586572
140	0xbd99a8ef	-0.07502925
141	0xbe11d0d6	-0.14239821
142	0xbd84d98b	-0.064868055
143	0x3d1799e0	0.03701198
144	0x3dca134d	0.098669626
145	0x3c222e19	0.009898686
146	0x3cb8d127	0.02256067
147	0xbc4cbf54	-0.012496788
148	0x3cce66b5	0.025195459
149	0xbbcd862a	-0.006272097
150	0x3cd7a9f4	0.026326157
151	0xbd58fe04	-0.052976623
152	0x3dc55d46	0.09636931
153	0x3dfd15e8	0.12357694
154	0xbbc31980	-0.0059539676
155	0xbd274ace	-0.040842824
156	0x3d4bc261	0.04974592
157	0x3d71cd66	0.059033774
158	0xbd046198	-0.032319635
159	0x3d443f9c	0.047912225
160	0x3d63d639	0.05562422
161	0x3e02889f	0.1274743
162	0x3da811c1	0.08206511
163	0xbd323b70	-0.043513715
164	0x3df5ea89	0.12007625
165	0xbda35dbc	-0.07976863
166	0xbd08b32d	-0.033374
167	0x3dba2cd4	0.090905815
168	0xbcd70b68	-0.026250556
169	0x3e0549a8	0.13016379
170	0x3dd4bf50	0.103880525
171	0xbe045e29	-0.12926544
172	0xbde9fc61	-0.114250906
173	0xbd59d816	-0.05318459
174	0x3a04834b	0.00050549646
175	0xbd10dee8	-0.03536883
176	0xbdfcba16	-0.123401806
177	0xbdab798f	-0.08372795
178	0xbdc6be0b	-0.097042166
179	0xbdae7810	-0.08518994
180	0xbbd02267	-0.0063517573
181	0xbd23f179	-0.04002521
182	0x3d9e363a	0.07725187
183	0xbc728e61	-0.014804454
184	0xbc6231d0	-0.013805822
185	0xbdd84594	-0.10560146
186	0x3d103fa8	0.035216957
187	0x3d533d14	0.05157192
188	0x3d2cb824	0.042167798
189	0x3cc01cdf	0.023451267
190	0x3dd241a5	0.10266427
191	0x3df9383f	0.12168931
192	0xbd9daace	-0.07698594
193	0x3db8d5d0	0.090251565
194	0xbda1fc61	-0.079094656
195	0xbb016800	-0.0019745827
196	0x3d6583d7	0.056033935
197	0xbd738a88	-0.059458286
198	0x3d49c091	0.04925591
199	0x3ca1e942	0.019764546
200	0xbd6eeb58	-0.05832991
201	0x3dc2a4ea	0.09504111
202	0x3b39cb33	0.0028349876
203	0x3d29204d	0.04129057
204	0xbbb2be07	-0.005454782
205	0x3d63b677	0.055593934
206	0xbc008e1a	-0.00784638
207	0xbcdf7d8a	-0.027281541
208	0x3c939b93	0.01801852
209	0x3a8ba2f3	0.0010653421
210	0x3d9ad2b9	0.075597234
211	0x3cbac4d0	0.022798926
212	0x3e02bbd1	0.12766959
213	0xbd8e1f1c	-0.069395274
214	0xbdd5462d	-0.104137756
215	0x3e055b14	0.13023025
216	0x3e0a3d8f	0.13500045
217	0x3e365661	0.17806388
218	0x3d5dbc73	0.054134797
219	0x3df54129	0.11975319
220	0x3dc91c3e	0.0981984
221	0x3de8e2ee	0.113714084
222	0x3e1caf6f	0.15301298
223	0x3d738a16	0.05945786
224	0x3d51f00e	0.051254325
225	0x3db1438d	0.086554624
226	0xbb852213	-0.0040629
227	0x3dde4598	0.10853118
228	0x3d833d21	0.06408144
229	0x3c279d5a	0.010230387
230	0xbc235c4f	-0.009970739
231	0x3dea11da	0.11429186
232	0x3d3a7cda	0.045529224
233	0x3d0cd3cb	0.03438167
234	0xbdf4556e	-0.11930357
235	0x3d637e3e	0.055540316
236	0x3ddc1a8c	0.10747251
237	0xbdc8a6fc	-0.09797475
238	0xbdce4d6b	-0.1007336
239	0xbdf0290b	-0.11726578
240	0xbd213aec	-0.039362833
241	0x3dd07a7d	0.10179613
242	0x3cad77fb	0.021175375
243	0x3dfa529b	0.12222787
244	0x3d1612ed	0.036639143
245	0x3b72e683	0.0037063665
246	0x3c915db7	0.017744882
247	0xbcf9e08f	-0.030502586
248	0xbdb41235	-0.08792535
249	0x3dc1fb07	0.09471708
250	0x3d6cad3c	0.057782397
251	0xbd204131	-0.03912467
252	0x3d5fdbcd	0.054652978
253	0xbdc3f435	-0.09568063
254	0x3dcc171a	0.09965344
255	0xbccfd80f	-0.02537158

features.3.bias f4 [16]
0	0x3d46db3d	0.048548926
1	0xbd9e16e2	-0.07719208
2	0xbc94da98	-0.01817064
3	0xbd09a70c	-0.033606574
4	0x3d48fd04	0.04906942
5	0x395ec67f	0.00021245515
6	0x3c055563	0.008138034
7	0x3e06b10f	0.1315348
8	0xbd986795	-0.07441632
9	0x3cd5b6fc	0.02608823
10	0x3df9edf6	0.122035906
11	0xbd1b112a	-0.037858166
12	0xbd01af2e	-0.031661205
13	0xbda5e7d0	-0.08100855
14	0x3c77e127	0.015129364
15	0xbdbf194f	-0.09330999

features.6.weight f4 [32, 16, 3, 3]
0	0xbc8fc6ca	-0.017550845
1	0xbd5bb2dd	-0.053637374
2	0x3c689fdd	0.014198271
3	0x3c10d9da	0.008841002
4	0x3d9631bd	0.073337056
5	0x3b450111	0.003006045
6	0xbc4f53a8	-0.012654223
7	0xbd9c796c	-0.07640347
8	0xbd54070f	-0.051764544
9	0xbd9479ad	-0.0724977
10	0xbdc48b61	-0.09596897
11	0xbd80bcda	-0.062860206
12	0x3b36fba0	0.0027920976
13	0xbda23699	-0.0792057
14	0x3d537c9b	0.051632505
15	0xbd9f278a	-0.07771213
16	0xbde6f4b9	-0.11277146
17	0xbcb7cd74	-0.022436835
18	0xbd5af4d8	-0.053456157
19	0x3db51812	0.08842482
20	0x3dc48afe	0.09596823
21	0x3d3dd930	0.046349704
22	0x3d1dd259	0.03853068
23	0xbd1ba8f9	-0.03800294
24	0x3dc15eb3	0.094418906
25	0xbd79b739	-0.06096575
26	0x3d669d63	0.05630244
27	0xbd285ebc	-0.04110597
28	0x3d8f2d3d	0.069910504
29	0x3d5b9610	0.053609908
30	0x3c881f1a	0.016616393
31	0xbd8003a6	-0.06250696
32	0x3ac0b9a1	0.0014703759
33	0xbd58c412	-0.052921362
34	0xba5b2c7a	-0.00083608145
35	0x3c5fc405	0.013657575
36	0x3db6e233	0.08929863
37	0xbbd1c91e	-0.006402149
38	0x3d26c877	0.040718522
39	0x3dbee251	0.0932051
40	0x3dac92d5	0.084264435
41	0xbc891ffd	-0.016738886
42	0x3cc3eb62	0.02391595
43	0x3bbfe01b	0.005855573
44	0x3c9bbbfd	0.019010538
45	0x3c4db335	0.012554933
46	0x3d29c1b4	0.041444495
47	0x3c890254	0.016724743
48	0x3d4cc813	0.049995493
49	0xba018b94	-0.0004941758
50	0x3ce23f6d	0.027618134
51	0x3de91293	0.11380496
52	0x3dbb2885	0.09138588
53	0xbcbc4241	-0.022980811
54	0x3c911924	0.017712183
55	0xbbc153e3	-0.0058998927
56	0xbc6d8f59	-0.014499509
57	0x3c5b4b07	0.013384587
58	0x3d9410e9	0.07229788
59	0x3d32e59f	0.043676015
60	0xbd62d09d	-0.05537473
61	0x3da2a5d8	0.079417884
62	0xbd082e63	-0.033247363
63	0x3a578087	0.0008220751
64	0x3c24ffce	0.010070754
65	0xbd9c30d4	-0.07626501
66	0x3d505c2c	0.050869152
67	0xbcd4d796	-0.025981706
68	0xbd3f02d3	-0.046633553
69	0xbc3142ca	-0.010819146
70	0xbdce79ab	-0.100818
71	0xbca553ff	-0.020181654
72	0x3d7930f9	0.06083772
73	0x3c8bb2c1	0.01705301
74	0xbbb57e0d	-0.005538708
75	0x3d4e27d0	0.050330937
76	0x3d7294b9	0.059223864
77	0xbd95aeb2	-0.07308711
78	0xbc7e3bb0	-0.01551716
79	0xbd468ae8	-0.048472315
80	0x3d3b0082	0.04565478
81	0xbc00751a	-0.007840419
82	0x3adf55b2	0.0017039089
83	0xbd3670d1	-0.044541184
84	0x3c18f15e	0.00933489
85	0xbd266420	-0.04062283
86	0x3cce564c	0.025187634
87	0x3b988161	0.004654095
88	0xbdc0b036	-0.094086096
89	0x3ca1ea63	0.019765085
90	0x3da92dc1	0.0826068
91	0x3d5da7b5	0.054115016
92	0x3dbc9824	0.09208706
93	0x3c88f971	0.016720505
94	0x3d8edd59	0.069758125
95	0x3ddfeff1	0.10934437
96	0xbc9dfd53	-0.019285833
97	0xbc64f1ec	-0.013973694
98	0x3d487fd5	0.048950035
99	0x3d9a2a2a	0.075275734
100	0x3d300467	0.04297295
101	0x3de9538a	0.11392887
102	0x3af1d2b8	0.001844964
103	0x3da112b6	0.07864897
104	0x3da15c2e	0.0787891
105	0x3dc881e2	0.09790398
106	0x3da010eb	0.07815727
107	0x3a0bfca2	0.00053400744
108	0xbd12152d	-0.035664726
109	0x3dc643e4	0.09680918
110	0x3d99c07c	0.075074166
111	0x3dcf24f6	0.101144716
112	0x3de563c8	0.112006724
113	0xbce82225	-0.028336594
114	0xbad49ccc	-0.0016221046
115	0xbd1f1593	-0.038838934
116	0x3d8d76d2	0.06907429
117	0xbde56629	-0.11201126
118	0xbdee8888	-0.11647135
119	0xbc85ea71	-0.016347142
120	0xbdb3d9dd	-0.087817885
121	0xbd9997aa	-0.07499631
122	0xbd56daef	-0.052454885
123	0xbbd51b05	-0.006503465
124	0xbe094560	-0.1340537
125	0x3c444db4	0.0119814165
126	0x3d9e52ff	0.07730674
127	0x3dc210df	0.09475874
128	0x3d681ac9	0.05666617
129	0x3dcb501d	0.0992739
130	0x3d93e7eb	0.07221969
131	0x3c7c86fe	0.015413044
132	0x3c8747c9	0.016513722
133	0xbc4d0809	-0.012514123
134	0x3ccfc558	0.025362656
135	0xbd551609	-0.052022967
136	0x3aac0dc9	0.0013126667
137	0xbd5fd71f	-0.054648515
138	0xbd858949	-0.06520326
139	0x3cb34f1b	0.021888306
140	0x3d5faa56	0.054605804
141	0xbd28d9ec	-0.04122345
142	0xbd5b21ca	-0.05349902
143	0xbda0eb0b	-0.07857331
144	0xbd33285e	-0.04373967
145	0xbc2707e7	-0.010194755
146	0x3cc35491	0.023844035
147	0xbd1fa1db	-0.038972717
148	0x3bafc147	0.0053636166
149	0x3d9fb829	0.07798798
150	0x3d08cf9b	0.033401113
151	0x3d95c885	0.07313637
152	0xbc1beca7	-0.0095168715
153	0xbdcc61d6	-0.09979598
154	0xbdbdfa1b	-0.092762195
155	0xbd8778f8	-0.0661487
156	0xbe00fadf	-0.125957
157	0x3cb774ca	0.022394557
158	0xbdaf59f6	-0.085620806
159	0xbdf8b00c	-0.12142953
160	0xbdac93d0	-0.084266305
161	0xbc20252e	-0.009774489
162	0x3d1088be	0.035286658
163	0x3d4cd53c	0.050008044
164	0x3ddf9dc6	0.10918765
165	0xba05ba6b	-0.0005101326
166	0x3d893e7b	0.0670137
167	0xbb9ae26e	-0.0047266996
168	0xbc9bbc05	-0.019010553
169	0x3cef8af2	0.029241059
170	0x3b9b36dc	0.0047367644
171	0xbd1c270c	-0.038123176
172	0x3d98ad2e	0.074549064
173	0x3ab3d9a1	0.0013721475
174	0x3dad15b7	0.084514074
175	0x3c7c2c8b	0.015391479
176	0xbcba3e76	-0.022734862
177	0x3cb6fb87	0.022336734
178	0x3d21d4c3	0.039509546
179	0xbd57e62e	-0.05270975
180	0x3c21af2f	0.009868427
181	0xbc209dc5	-0.00980324
182	0x3d23f2b3	0.040026378
183	0x3d4d47d9	0.050117347
184	0xbc81ce62	-0.015845481
185	0x3d3067a7	0.0430676
186	0x3c9bc132	0.019013021
187	0x3dd840aa	0.10559209
188	0x3deb7a49	0.114979334
189	0x3d723dfd	0.059141148
190	0x3d89267d	0.06696794
191	0xbc4c038d	-0.012452018
192	0xbcc9e38a	-0.024644632
193	0x3c7f6e28	0.015590228
194	0x3db672d7	0.08908623
195	0xbcd76c18	-0.02629666
196	0x3d8f28e5	0.06990222
197	0x3e030f01	0.12798692
198	0xbd0ca133	-0.03433342
199	0xbd6c9982	-0.057763584
200	0x3ca3f583	0.02001453
201	0x3ddcb7e7	0.10777264
202	0x3d6c1431	0.057636444
203	0xbd374594	-0.04474409
204	0xbc17e2ff	-0.009270429
205	0xbc45e488	-0.012078412
206	0x3e03321a	0.12812081
207	0x3b2aaa91	0.0026041607
208	0xbd02fe18	-0.031980604
209	0xbd3f83f5	-0.046756703
210	0xbdeb16b3	-0.11478939
211	0x3cf3bd6a	0.029753406
212	0x3c4b0405	0.012391095
213	0xbd0bab2e	-0.034098797
214	0xbd0b1585	-0.03395607
215	0xbdcbf098	-0.09957999
216	0x3d43e1d1	0.047822777
217	0x3b5de4af	0.003385823
218	0x3d7788f8	0.060433358
219	0xbd5f21b1	-0.05447549
220	0xbd983b63	-0.07433202
221	0x3d76258c	0.0600944
222	0x3d01d639	0.03169844
223	0x3ce428e7	0.027851535
224	0x3c8f47dc	0.01749032
225	0x3d088648	0.033331186
226	0x3c912207	0.01771642
227	0xbc2782f1	-0.01022409
228	0x3ce26491	0.027635844
229	0xbd29492f	-0.04132956
230	0x3d575d0d	0.052578975
231	0xbd150929	-0.03638569
232	0xbd827158	-0.06369275
233	0x3bcf7344	0.0063308794
234	0xbd57f26f	-0.052721437
235	0x3c4d8df8	0.012546055
236	0xbd6c332f	-0.057666
237	0x3c0ba342	0.00852281
238	0x3dbfa553	0.09357705
239	0x3d80c0dc	0.06286785
240	0xbbb5f291	-0.005552598
241	0xbb482e23	-0.0030545078
242	0x3defb82b	0.11705049
243	0xbce2832f	-0.027650444
244	0x3ded1387	0.1157599
245	0x3dcf41d5	0.10119978
246	0xbd16d22f	-0.03682154
247	0x3dfef824	0.12449673
248	0x3d1e00be	0.038574927
249	0x3cdc8dab	0.026923021
250	0x3dea3bba	0.11437173
251	0x3daf8370	0.085699916
252	0x3cf57a72	0.029965613
253	0x3dcd1051	0.10012878
254	0x3c232e3a	0.009959752
255	0x3de314ea	0.110879734

features.6.bias f4 [32]
0	0x3c5d5231	0.0135083655
1	0xbccba2d1	-0.02485791
2	0x3bf51698	0.0074795
3	0xbcb38e0f	-0.021918325
4	0x3d7e2f1c	0.062056646
5	0xbd91466a	-0.070935085
6	0xbd098604	-0.033575073
7	0x3d20eaad	0.039286304
8	0x3dc15c6a	0.09441455
9	0x3dc87e75	0.09789745
10	0x3c61ad8f	0.01377429
11	0xbd391692	-0.04518754
12	0x3d20c8bd	0.03925394
13	0xbd2c6486	-0.042088054
14	0x3c640702	0.013917686
15	0x3ade90b5	0.0016980382
16	0x3d41bc26	0.047298573
17	0xbd1d6742	-0.038428552
18	0x3cbf030c	0.023316883
19	0x3d047271	0.032335702
20	0x3d7dab9d	0.06193124
21	0x3db2ee0e	0.087368116
22	0x3d8944c2	0.06702568
23	0x3b36226d	0.0027791515
24	0xbda9f125	-0.08297948
25	0x3d8a0d06	0.06740765
26	0xba9a767c	-0.0011784579
27	0xbcdb62f8	-0.02678059
28	0xbd930026	-0.07177763
29	0x3d842ab3	0.06453457
30	0x3d95049a	0.07276268
31	0x3d6128ba	0.05497048

classifier.1.weight f4 [3, 2048]
0	0x3cf54e1b	0.02994447
1	0x3c406253	0.011742192
2	0x3b8e420f	0.004341371
3	0x3cec4e70	0.028845996
4	0xbc351187	-0.011051542
5	0xbbb9c40d	-0.005669123
6	0x3ba89367	0.005144525
7	0x3cfeb013	0.031089818
8	0x3cc272dd	0.023736412
9	0xbb036376	-0.0020048297
10	0x3b09d793	0.0021033033
11	0xba5c37c4	-0.0008400644
12	0x3b4e137d	0.0031444721
13	0xbc3b4254	-0.011429388
14	0xbb755e7f	-0.0037440357
15	0x3c645c1a	0.013937974
16	0x3c868611	0.01642135
17	0x3c578495	0.013154169
18	0xbce72daa	-0.028220017
19	0xbd0fd02a	-0.03511063
20	0xbd7716a7	-0.060324337
21	0xbcf4871f	-0.029849587
22	0x3c677570	0.01412712
23	0x3ce4db46	0.027936589
24	0xbb1884dd	-0.0023272552
25	0xbbc19429	-0.0059075546
26	0xbce92cf5	-0.02846382
27	0xbd98b5e5	-0.07456569
28	0xbd76cb52	-0.060252495
29	0xbd89a056	-0.06720035
30	0xbd2841be	-0.04107832
31	0xbc0ca892	-0.008585112
32	0x3c094b39	0.008379751
33	0xbd2ae59b	-0.041722875
34	0xbd414ca7	-0.047192242
35	0xbcfd18bd	-0.030895585
36	0xbd9fc5fe	-0.07801436
37	0xbd0c15b3	-0.03420038
38	0xbd57dc1a	-0.05270014
39	0x3c6d8436	0.014496854
40	0xbb0386fc	-0.002006947
41	0x3c063682	0.008191707
42	0xbcfb0f3e	-0.030646916
43	0xbd6a23b1	-0.057162944
44	0xbd5d0f5b	-0.053969722
45	0xbd4e0977	-0.050301995
46	0xbcd1f4bf	-0.0256294
47	0xbaed3c44	-0.0018099626
48	0x3b929e1f	0.004474416
49	0xbbfbebc8	-0.0076880194
50	0x3c1fae8a	0.009746203
51	0xbd1709ee	-0.036874704
52	0xbd00a985	-0.031411666
53	0xbc92f57b	-0.01793932
54	0xbc49a2ec	-0.01230691
55	0x3bcc0416	0.006226073
56	0x3c147e27	0.00906328
57	0xba53216e	-0.00080539926
58	0xbbd5064e	-0.0065009957
59	0x3ce70141	0.02819884
60	0xbbd50cb4	-0.0065017585
61	0xbc069394	-0.008213896
62	0x3bbe9a1d	0.0058167116
63	0xbccba654	-0.024859585
64	0xbbbf7358	-0.0058426075
65	0x3d075256	0.033037506
66	0xbb7433a3	-0.0037262223
67	0xbb970805	-0.0046091103
68	0xbc544fc4	-0.012958471
69	0x3be449d3	0.0069668083
70	0x3d080237	0.033205237
71	0x3b8d1ee0	0.004306659
72	0xba0e424e	-0.000542675
73	0x3c431081	0.01190579
74	0xbc4a79d1	-0.012358145
75	0xbd17c521	-0.03705323
76	0xbcaf17f9	-0.021373736
77	0xba19e499	-0.00058705505
78	0x3c258967	0.01010356
79	0xbad03d21	-0.0015887358
80	0xbbb03c82	-0.005378307
81	0xbc06c533	-0.008225727
82	0xbce873ff	-0.028375624
83	0xbd8168d9	-0.06318826
84	0xbd96dfd0	-0.073669076
85	0xbd85bb97	-0.065299205
86	0xbba73ddd	-0.00510381
87	0xbc00882b	-0.007844965
88	0xbbdd8c90	-0.006761141
89	0xbcf55e28	-0.029952124
90	0xbd82116e	-0.06350981
91	0xbd3d4224	-0.046205655
92	0xbd760c1d	-0.060070146
93	0xbd8a9359	-0.067663856
94	0xbce4455b	-0.027865103
95	0xbbd29de8	-0.0064275153
96	0xbb38eb21	-0.002821632
97	0xbc3c7165	-0.011501645
98	0xbd3607df	-0.0444411
99	0xbd3231c8	-0.043504506
100	0xbd8a3e23	-0.06750133
101	0xbd53c2c6	-0.051699422
102	0xbcd4242e	-0.025896158
103	0xbc84500a	-0.016151447
104	0xbb20b324	-0.0024520839
105	0x3cd619f8	0.02613543
106	0xbcbc0eca	-0.02295627
107	0xbd3569b3	-0.044290256
108	0xbd1b194d	-0.037865926
109	0x3b8688c9	0.0041056615
110	0x3c57bfa6	0.013168251
111	0x3cb50750	0.022098213
112	0xbc2fdfb3	-0.010734486
113	0x3cc99156	0.024605434
114	0x3d31f5da	0.043447353
115	0x3c3ee579	0.01165139
116	0x3c85eb94	0.016347684
117	0x3d0bba7e	0.0341134
118	0x3c33b9f7	0.01096963
119	0xbb6996c0	-0.0035642833
120	0x3c265aa8	0.01015345
121	0xbb9f3f3e	-0.004859834
122	0xbc6508ba	-0.013979131
123	0x3bea0106	0.0071412353
124	0x3cb882c1	0.022523286
125	0x3a946946	0.0011322878
126	0xbbfd128b	-0.0077231578
127	0xbbe5dd09	-0.007014875
128	0x3b429f9f	0.0029697192
129	0x3cba2695	0.022723475
130	0x3c993d00	0.018705845
131	0x3c6b5d75	0.014365544
132	0x3c3ba95e	0.0114539545
133	0x3d029b6c	0.031886503
134	0x3c92ede4	0.0179357
135	0x3cb292d4	0.021798529
136	0xbb5690eb	-0.0032740186
137	0x3bb7da14	0.0056107137
138	0xbc88da8e	-0.016705777
139	0xbae39e5a	-0.0017365918
140	0x3cbcc5aa	0.023043472
141	0xbc38c16c	-0.011276584
142	0x3cefd299	0.029275225
143	0x3ceb30e5	0.028709838
144	0xbca00cd3	-0.019537365
145	0xbbc02a1d	-0.0058643953
146	0xbcebf003	-0.02880097
147	0xbd328332	-0.04358215
148	0xbd560ba8	-0.05225721
149	0xbc8f8a62	-0.01752204
150	0xbbf7a4dd	-0.007557495
151	0xbbc44c24	-0.005990522
152	0xbbf36e71	-0.007428937
153	0xbc92484f	-0.017856745
154	0xbd92b672	-0.07163705
155	0xbd9ee7bf	-0.07759046
156	0xbd760927	-0.060067322
157	0xbd82a222	-0.06378581
158	0xbca35023	-0.019935673
159	0x3c3eaf93	0.01163854
160	0x3b4a51ae	0.0030871439
161	0x3b2af0f6	0.0026083565
162	0xbd0e9269	-0.034807596
163	0xbce72b4b	-0.028218886
164	0xbd3bb311	-0.045825068
165	0xbd6a7e97	-0.05724963
166	0xbcd5965a	-0.02607267
167	0xbc1ba0cd	-0.009498787
168	0xbbdbeb39	-0.0067113903
169	0x3c87c71e	0.016574439
170	0xbd5990d0	-0.05311662
171	0xbd7336cd	-0.059378434
172	0xbd8f256c	-0.069895595
173	0xbd3a0dae	-0.045423202
174	0xbc93b7c6	-0.018031966
175	0xbcc76263	-0.024338907
176	0x3cb0f648	0.021601811
177	0x3adf9285	0.0017057216
178	0x3bc6521a	0.0060522677
179	0xbcca6d58	-0.024710342
180	0xbca39033	-0.01996622
181	0x3a054478	0.000508375
182	0x3c68dbda	0.014212573
183	0x3a8c1d7a	0.0010689937
184	0xbce70c42	-0.028204087
185	0x3c038438	0.008027129
186	0xbb95dfa1	-0.004573778
187	0x3d03d8b3	0.032189082
188	0x3c7150c3	0.014728728
189	0x3cef25a4	0.029192753
190	0x3cfaa204	0.030594833
191	0xbc24ef57	-0.010066829
192	0x3ab2c6e5	0.0013639597
193	0xbc4656a2	-0.012105616
194	0x3c455f02	0.012046577
195	0x3bf19211	0.007372149
196	0x3ae200ef	0.001724271
197	0x3c021c4b	0.007941316
198	0xbc3b317e	-0.011425374
199	0x3c341904	0.010992292
200	0xbc82ec5c	-0.015981846
201	0xbbaa2ecc	-0.005193567
202	0x3a861a28	0.0010231184
203	0xbc81dad7	-0.015851421
204	0xbceee721	-0.029162945
205	0xbc9933ac	-0.018701397
206	0xbc1047e7	-0.008806205
207	0x3aaa4a3c	0.0012992094
208	0xb9db019d	-0.00041772137
209	0xbce0e89c	-0.027454667
210	0xbcc702c7	-0.024293317
211	0xbd1b6708	-0.037940055
212	0xbd0c27f6	-0.034217797
213	0xbd1839ac	-0.037164375
214	0x3b0ac01e	0.002117164
215	0x3ccbe190	0.02488783
216	0x3be0dbbc	0.006862132
217	0x3c6435c9	0.013928839
218	0x3b5d3af0	0.0033757053
219	0x3cc0d1fc	0.023537628
220	0xbb45faa6	-0.0030209213
221	0xbccce318	-0.02501063
222	0x3c5e980b	0.013586055
223	0xba7f81d0	-0.00097468216
224	0x3c224f9b	0.009906675
225	0x3ca7f7bf	0.020503877
226	0x3c57bd1a	0.013167644
227	0x3c3ce50c	0.011529218
228	0x3c73ed7d	0.014888165
229	0x3cc6693d	0.024220103
230	0xbc1644c7	-0.009171671
231	0x3c6dd9d6	0.014517268
232	0x3c7bfe46	0.015380448
233	0x3cd74cb1	0.026281686
234	0x3cbd9a05	0.023144731
235	0x3cfb6a36	0.030690294
236	0x3c2bd495	0.010487695
237	0x3d3449f4	0.04401584
238	0x3caabdfb	0.020842543
239	0xbc7da1f0	-0.015480503
240	0xbcafea0f	-0.021473913
241	0x3cca2585	0.024676094
242	0x3ce8bff3	0.028411841
243	0x3c9e2538	0.019304857
244	0x3d6d40a0	0.05792296
245	0x3d3696fa	0.044577576
246	0x3c77ead2	0.015131669
247	0x3cc80494	0.024416246
248	0xbbd9dae5	-0.0066484087
249	0xbd01d5fb	-0.03169821
250	0xba7c534d	-0.000962545
251	0x3cafd48a	0.021463651
252	0x3d21c61c	0.039495572
253	0x3b6a2199	0.0035725592
254	0x3b9f62af	0.004864059
255	0x3bbd16db	0.005770547

classifier.1.bias f4 [3]
0	0x3bf1adc8	0.0073754527
1	0x3c4ec238	0.012619548
2	0xbc099834	-0.008398104
