vision_system/model_weights_2.pth (torch, 29693 bytes, 8 tensors)

features.0.weight f4 [8, 3, 3, 3]
000000 42 82 4d bd 6d 1f 8b be 37 7b f4 bc b4 3b 83 be
       -0.05017305 -0.27172413 -0.02984391 -0.25631487
000010 bb 86 20 bd d7 6e ce 3b 20 28 e3 bd bb dd 91 be
       -0.03919099 0.006299834 -0.110916376 -0.2848948
000020 42 38 54 be f3 1b 0f 3e 09 9b 08 be db 23 17 be
       -0.20724586 0.13975506 -0.13340391 -0.14759772
000030 c7 4c d8 3b c9 40 a1 bc 2d 86 f9 3d 29 a7 d0 3d
       0.0066009494 -0.019684212 0.12183795 0.10188133
000040 26 d2 d5 bd be 84 3a be 9e f1 e7 3d 7e f1 1e 3e
       -0.10440473 -0.182147 0.11325382 0.1552181
000050 f3 f0 a8 bd 20 fa 2f bd c8 5c 0a 3d 1d 33 f1 3d
       -0.082490824 -0.042963147 0.03377989 0.11777327
000060 69 b4 fa bd 29 17 39 be 1a 38 2c be 5f 0a a5 bd
       -0.12241442 -0.18075241 -0.16818276 -0.08058619
000070 2e 20 17 3d 68 78 3d 3d 28 fb 38 3e 55 52 ab 3d
       0.036895923 0.046257406 0.18064559 0.08365313
000080 ce b7 7f 3e 40 a3 46 3e 6e 6d 80 3e f8 4c 4d 3e
       0.2497246 0.19398212 0.25083488 0.20048892
000090 60 a7 4c 3d 67 de 5f 3e 5c 52 8e 3e 79 a8 1f 3e
       0.04996431 0.21862184 0.2779721 0.15591611
0000a0 2b f2 0d bd 31 21 4b 3e 05 0d ca bd 6b 44 72 3e
       -0.034654777 0.1983688 -0.098657645 0.23658912
0000b0 2a 7e fb 3d 90 1a 47 3c 50 8c fd bd cd ad 8f 3c
       0.12279923 0.012152329 -0.12380278 0.01753893
0000c0 d1 88 28 3d 60 59 32 be 78 2e fb bd 45 17 f0 3d
       0.041146103 -0.17416906 -0.122647226 0.11723188
0000d0 94 5a c3 bd 1c ac 41 be 37 2c 42 be d9 79 d2 3d
       -0.09538761 -0.18913311 -0.18962179 0.10277147
0000e0 08 de 3e 3d c5 0e 85 be 1a fb 4a be d8 87 86 be
       0.046598464 -0.2598783 -0.1982235 -0.26275516
0000f0 41 12 45 be 6f 17 3f be 66 62 06 bd 19 7c 2d 3e
       -0.19245245 -0.18661283 -0.032808684 0.16941871
000100 e5 39 6e bd c5 5f cc 3d f4 3c ae 3d b8 25 1a bc
       -0.05816068 0.09979204 0.0850772 -0.009408407
000110 8f 96 44 be 74 98 40 be 94 23 41 be 69 c5 48 bd
       -0.19198059 -0.18808156 -0.18861228 -0.04901639
000120 58 d4 66 bc ff dd 17 ba 2e 61 08 3e 82 86 31 3e
       -0.014088713 -0.0005793273 0.13318321 0.17336467
000130 27 8b d2 3d 1e 7c 35 be ac 07 99 3d d5 b9 d9 bd
       0.102804475 -0.17723128 0.074721664 -0.10631148
000140 2a 83 85 bd d6 3e 2f be a6 91 11 be 29 c6 f7 bd
       -0.06519158 -0.17113814 -0.14215717 -0.12098343
000150 2e 76 54 3d e4 77 00 be 03 dc a5 3d c2 74 7c 3d
       0.051870517 -0.12545735 0.080986045 0.061634786
000160 ee c3 e0 bd 68 62 73 be a7 f5 6b be b2 e7 40 bd
       -0.109748706 -0.23768008 -0.23042928 -0.047095962
000170 a9 1d 07 be 49 7f 2c be 62 a4 47 3d bf f9 56 3c
       -0.13194908 -0.1684543 0.048740752 0.013121068
000180 33 7d 18 3d 6c 42 5b 3a 50 72 4e be cd e9 a8 3d
       0.037228774 0.00083640846 -0.20160794 0.08247719
000190 f9 5d 64 be f4 64 b1 bd e0 17 99 3a a2 03 fd bd
       -0.22301473 -0.086618334 0.0011680089 -0.123542085
0001a0 37 de 31 be 06 8a 72 bd db 04 31 be 44 4b 5a be
       -0.17369924 -0.05921366 -0.17287008 -0.21317774
0001b0 68 b4 18 3e e6 a5 ff bd 05 89 5a be 4d cb 29 3d
       0.1491257 -0.124828145 -0.21341331 0.04145365
0001c0 1e 15 27 bc 77 09 01 3e 61 e2 9f bc 39 aa 9c bc
       -0.010197906 0.12601267 -0.019517126 -0.019124137
0001d0 b1 a9 34 bc 47 7d 66 3d 2b c2 02 be 9f f5 a7 bc
       -0.011026786 0.056271818 -0.12769382 -0.020502863
0001e0 c8 94 01 3e 96 81 f2 bb 0c 36 28 bd 28 9c 2b 3e
       0.12654412 -0.0074007018 -0.041067168 0.16758788
0001f0 66 9f af 3c 72 23 10 be 92 eb a4 3d c3 ae 48 3e
       0.021438312 -0.14076021 0.08052744 0.19597916
000200 20 eb fb 3d e8 ce 02 3e 36 58 8d b9 4e b1 0e 3e
       0.12300706 0.12774241 -0.00026959338 0.13934824
000210 f4 8b fe 3d 09 3c 41 3e e9 b8 4f 3e 49 d4 0d be
       0.12429038 0.18870558 0.20285381 -0.13850512
000220 b9 49 69 3e db cd 04 3e c6 0e a1 bd 4c 18 8c bd
       0.22782029 0.12969153 -0.07864146 -0.06840572
000230 f3 ef 2d 3e bf eb c8 bd 5f fb 6a 3e f4 9a f6 3d
       0.16986065 -0.0981059 0.22947453 0.12041274
000240 99 e8 3d be b6 da 58 be 8b 2f bb 3d 8c d8 97 bd
       -0.1854576 -0.21177182 0.091399275 -0.0741435
000250 6d 72 39 3d da 13 8b bd f9 12 2a be 82 ef 9a 3d
       0.04527514 -0.06790896 -0.166088 0.07565214
000260 26 83 a3 3d 2f e1 4a bc 25 5b 3d be f5 00 aa bc
       0.07983999 -0.0123827895 -0.184918 -0.02075241
000270 fd 25 fe bd cc b5 b7 bd 38 30 8e 3c 5b 97 ca 3d
       -0.124095894 -0.08970222 0.017356977 0.0989215
000280 29 ff 38 be dd a2 03 3c 0e b4 31 3e 14 73 56 3e
       -0.18066086 0.008034435 0.17353842 0.20942336
000290 d2 03 55 3e 7c 95 13 3e 88 15 7e 3e 7f 86 d2 3d
       0.20802239 0.14412493 0.24812901 0.10279559
0002a0 57 1b 30 3e de 18 05 3e 66 5e 01 bc e9 43 56 3e
       0.1719793 0.12997767 -0.0078960415 0.20924343
0002b0 5e d7 fe 3c 2c 2d d9 3d b8 3d 5f 3e e2 f5 25 bd
       0.031108554 0.10604319 0.21800888 -0.040517695
0002c0 ff 5a cb bd c1 9d 2b 3e 4c 3e fb 3d 06 1a ab 3d
       -0.099294655 0.16759397 0.122677416 0.08354573
0002d0 73 42 07 3e de 66 0a be e5 9c 92 bd 7a bd 04 3e
       0.13208942 -0.13515803 -0.071588315 0.12962905
0002e0 f2 b8 d8 3b da ab 9d 3d c9 a6 08 be 39 02 f0 3d
       0.006613844 0.07698794 -0.13344873 0.11719174
0002f0 cf 8d 45 3c b1 ec 8a 3e 0a 8e c9 3d b9 a6 1f 3e
       0.012057736 0.27133706 0.09841545 0.15590943
000300 b3 d5 c6 3d db b1 8c 3e 89 2c 1b 3d 10 87 5c 3e
       0.09708729 0.27479443 0.03788427 0.21535897
000310 ed 10 88 3e 46 a0 cc 3d 81 c6 a9 bd 03 a3 49 bd
       0.26575413 0.09991507 -0.08289815 -0.049227726
000320 11 48 a4 bd 46 c2 87 3e 0e 74 5f 3e 19 4c bd bd
       -0.08021558 0.26515406 0.21821615 -0.0924303
000330 f7 c2 69 3e 1a 90 18 3e e8 14 5d 3e 29 af 64 bd
       0.2282828 0.1489872 0.21590006 -0.05583111
000340 2b 7e 0f be ff 99 90 bd e2 f6 b5 bd 31 1f cb 3c
       -0.14012973 -0.070606224 -0.0888498 0.024795147
000350 d8 48 f9 3c b0 58 31 bd d5 7a 04 3e fa 0e c3 bd
       0.030430242 -0.04329747 0.12937482 -0.09524341

features.0.bias f4 [8]
000000 4e 37 46 3d 3a 33 ee 3d 3b 1c 0a be 6b 96 03 be
       0.048392586 0.116308644 -0.13487332 -0.12850349
000010 90 c5 38 bd e5 c5 b5 3d b8 9f fb bd d9 77 24 3e
       -0.045110285 0.08875636 -0.12286323 0.16061343

features.3.weight f4 [16, 8, 3, 3]
000000 73 23 da 3c 98 8a fc bb 09 56 11 be 5d fc f1 3c
       0.026628232 -0.0077069513 -0.14192976 0.029539282
000010 8b 87 0a be aa d2 b3 bd 1d 6a f7 3c 18 27 07 be
       -0.13528268 -0.08780415 0.030201966 -0.13198507
000020 64 0f 00 bd 51 72 33 3e 9a 69 88 3d 25 43 f5 3d
       -0.031264678 0.17524077 0.06660767 0.119756974
000030 10 83 c0 3d 0e 3b 62 3d 67 50 be 3d f6 9f e1 3d
       0.09399998 0.0552321 0.09292679 0.11016838
000040 85 18 0e 3e fc 2d 2c 3e 34 d1 f3 bd 5c 97 91 bc
       0.13876541 0.16814417 -0.11905137 -0.01777237
000050 42 66 18 be 07 aa 1e 3d 44 7b 0a 3b db bd 8a 3d
       -0.14882758 0.03873637 0.00211306 0.06774493
000060 cd 27 11 3d 90 5b 19 be 64 f2 df bb d3 1f e4 bd
       0.035438348 -0.14976335 -0.006834315 -0.111388825
000070 70 21 cc bc 45 69 5f 3b 4c 1c 04 be f7 9f 5a bb
       -0.024918288 0.0034089845 -0.1290142 -0.0033359507
000080 4f 24 88 bd c8 6a c2 bc 4f f7 a7 3a 1b 20 28 3d
       -0.0664755 -0.023732558 0.0012814793 0.041046243
000090 ef 26 1f be e3 b8 79 bd f3 67 ea bd 63 99 a4 bc
       -0.15542196 -0.060967337 -0.11445608 -0.020092672
0000a0 f2 50 2b be c8 f7 8f bd 94 3b 60 be e9 7c 2d be
       -0.16730097 -0.070296824 -0.21897727 -0.1694218
0000b0 57 5a 9c 3c 3b 58 af 3d 26 9a 11 3d 0c a8 e5 3d
       0.019086046 0.085617505 0.035547398 0.11213693
0000c0 c2 c1 75 39 e4 27 44 bd 5e 97 fb 3d 24 dd 92 bd
       0.00023437201 -0.047889605 0.122847304 -0.071710855
0000d0 06 37 1f 3e 14 bc d3 3c 7b 9e 34 3d 7b 7d 0d 3d
       0.15548334 0.025846519 0.04409645 0.034543496
0000e0 50 29 1b bc 20 50 25 3d 60 7b c6 bc dc bc af 3d
       -0.009470299 0.040359616 -0.024228752 0.08580944
0000f0 1a 3a f8 3d 70 97 29 bd a5 eb 20 3e f0 63 83 3c
       0.12120457 -0.041404188 0.15714891 0.016038865
000100 db 0d 23 3e 6f 83 fa 3d 7e e9 f0 3d 93 53 3b 3e
       0.15923254 0.122321 0.11763285 0.182936
000110 45 56 a6 bc c0 8c 86 3d 01 cc e0 3d 5d dd 2b bc
       -0.020304808 0.06569815 0.10976411 -0.010489789
000120 03 eb b9 3d 58 32 a0 bd c9 bf 11 3e 4e f0 70 3d
       0.09078028 -0.07822102 0.14233316 0.058822922
000130 ee 07 d8 3d 91 a8 0b 3e 18 88 f1 3d 74 5f 13 3e
       0.105483875 0.13638522 0.11793536 0.14391881
000140 1a 74 a7 3d 56 ce 7b bd 16 3e bb bd 49 ab b9 3d
       0.081764415 -0.061476074 -0.09142701 0.09065873
000150 c5 a6 26 3d 54 d8 a5 bd 45 c1 d3 3c 11 89 a1 3d
       0.040686388 -0.08097902 0.025848994 0.078874715
000160 a5 b0 84 bd 64 ef 9b 3d cf bf 8f 3d fe 2a 04 3e
       -0.06479005 0.076140195 0.070190065 0.12907025
000170 d0 9f 1e 3e 5f 06 00 bc 31 8a 4e 3d b9 76 23 bc
       0.15490651 -0.007814019 0.05042476 -0.009977036
000180 0c 66 b0 3c 82 a9 37 3e d6 c1 0a 3e 6b ca bc bc
       0.021533035 0.17935756 0.13550505 -0.02304574
000190 21 1b 87 3d f1 82 b6 bd 6b a5 bd 3b cb 29 a7 3d
       0.06596971 -0.08911694 0.0057875416 0.08162268
0001a0 f6 a0 b9 bd 8e 49 89 bd be ea df 3d a6 84 96 3d
       -0.09063904 -0.067034826 0.109334454 0.073495194
0001b0 7c 33 9a 3d 27 6b 14 bc 57 5e 1d 3e f3 d3 8a 3d
       0.07529351 -0.00905875 0.15368019 0.06778707
0001c0 cc ee ae 3d ae fc 59 3d ca e4 76 3d f3 7f 04 bd
       0.08541641 0.05321949 0.060276784 -0.032348584
0001d0 66 33 d8 3d 3f 65 0f 3d ee e2 b1 3c b2 46 b5 bc
       0.105566785 0.035008665 0.021714654 -0.022128437
0001e0 1a 3c b3 bd 39 0e d0 bd f3 26 f2 bd 22 83 de 3c
       -0.08751698 -0.10158963 -0.11823835 0.027162138
0001f0 db 76 ec bd 28 5b c0 bd 13 ba 9f bd c8 8e b4 bd
       -0.115461074 -0.09392387 -0.07799163 -0.08816296
000200 33 14 17 bc cd 18 a5 bd 91 67 ad 3d 34 06 01 be
       -0.009221124 -0.08061371 0.08467019 -0.12600023
000210 83 b4 c3 3d e2 f0 2f bd a8 0d 9a 3d 21 da 01 3e
       0.09555914 -0.042954333 0.07522136 0.12680866
000220 46 8a a9 3d af d7 fb bd 5c c2 84 bd 0e 73 83 bd
       0.08278327 -0.12296998 -0.064823836 -0.06418429
000230 04 17 ed 3a fc 41 fb 3d 37 d8 34 3d e5 d0 44 3a
       0.0018088524 0.12268445 0.04415151 0.00075079344
000240 46 a2 c9 3d 56 43 70 3d 23 e7 0d be 4e 42 ff 3d
       0.09845404 0.058657967 -0.13857703 0.124638185
000250 84 29 e5 3d 39 ec ef bd 7f 94 9d 3d 2c 7e e5 bb
       0.11189559 -0.11714978 0.07694339 -0.0070035663
000260 f6 89 4e bd fe 95 1e 3e ae 50 2f 3e 8b 1f a2 bc
       -0.05042454 0.15486905 0.1712062 -0.019790431
000270 b2 93 9e 3d 03 fe c6 3d 18 1a b7 3d 76 e0 91 3d
       0.077430144 0.09716418 0.08940524 0.07122891
000280 77 7c 17 3d a0 90 a1 3d e4 5e 4c bd 04 25 93 bd
       0.036983933 0.07888913 -0.049895182 -0.071847945
000290 5e 69 22 be 53 29 44 3c fe 23 5c bd f5 1d 0e 3d
       -0.15860507 0.011972743 -0.053745262 0.034696538
0002a0 3e 2c 9b bd c2 cb 75 bd 7e 66 d0 bd dd 46 25 3d
       -0.07576798 -0.06000877 -0.10175799 0.040350784
0002b0 4c 71 0e bd a8 1e c4 bd bc dd bd bc d1 83 85 bc
       -0.034776017 -0.0957616 -0.02317702 -0.016298207
0002c0 76 ff 94 bd de 9b 01 3e bf f5 0f 3e 8b 62 f3 3d
       -0.07275288 0.12657115 0.14058588 0.1188403
0002d0 2c 33 5f be b2 cc 31 be 79 57 08 be 1e 8c 1a be
       -0.21796864 -0.17363241 -0.13314618 -0.15092513
0002e0 6b a6 3d bd fb 14 3e bd da d5 20 be 15 12 75 bc
       -0.046301287 -0.046406727 -0.15706578 -0.014957924
0002f0 fd e8 27 bd 5c 48 21 3e 18 38 68 3d 0c ac be bc
       -0.04099368 0.15750259 0.05669412 -0.023275398
000300 24 8d 28 3e 3a b8 44 3e b2 7c 97 bc d7 4e 1d bd
       0.16460091 0.19210902 -0.018492077 -0.038405266
000310 08 96 d6 bc 09 f6 39 3d f6 19 70 3d 84 2d fe 3d
       -0.026194587 0.045400653 0.05861851 0.12411025
000320 cc e2 91 3d 98 42 8c 3c b8 97 63 3d 07 32 a7 3b
       0.07123336 0.017121598 0.055564612 0.0051023993
000330 42 8c 10 bd 2a c8 e2 3c cb f3 1e 3e 6e 1a 81 3d
       -0.03529001 0.027683336 0.15522687 0.06303869
000340 12 af 89 3d d5 a4 63 bd 29 97 5c 3d 8b 92 96 3d
       0.06722845 -0.055577118 0.053855095 0.073521696
000350 60 12 1a 3e c4 5a 0f 3e 38 db 11 3e 0f b9 01 3e
       0.15046072 0.13999468 0.14243782 0.1266825
000360 eb cf f2 3c 6a 50 22 be 48 9e 6d bd ad 1a 40 3d
       0.029640159 -0.15850988 -0.058012277 0.04690044
000370 97 1a 83 bd 3e 03 cd bd 03 5b 0b 3e d1 94 95 3d
       -0.06401556 -0.10010384 0.13608937 0.07303775
000380 5b a5 f8 3c 30 c3 73 bb 18 80 e6 3d 2f 24 38 3e
       0.030352285 -0.0037195198 0.11254901 0.17982553
000390 b9 19 40 ba ba a2 18 3e ec 5d 11 3e f9 c5 2e be
       -0.0007328052 0.14905825 0.14195985 -0.17067708
0003a0 80 88 d3 bd 74 ac 88 bd 4e 33 52 bd 47 62 13 be
       -0.1032877 -0.06673518 -0.05131846 -0.14392959
0003b0 58 df ae bd 34 31 00 3d ff bb 38 be ef 87 aa bd
       -0.08538693 0.031296924 -0.18040465 -0.083267085
0003c0 8a 2d b1 bd ce 3b d7 3d 69 b0 13 3d 95 d7 40 bd
       -0.08651264 0.10509454 0.03605691 -0.047080595
0003d0 1f 0d a1 3d 2f fd 6d bd 7d db 03 3c ca 88 14 be
       0.07863831 -0.058102783 0.008047936 -0.14505306
0003e0 1d 5a e9 bd f6 98 34 3d 81 1d e3 3d f9 6b 7e 3d
       -0.11394141 0.044091187 0.11089612 0.06211469
0003f0 9b 29 2f 3e 1d e5 29 3d 3f 68 0e 3e 4b ba 51 3c
       0.17105715 0.041478265 0.13906954 0.012800763

features.3.bias f4 [16]
000000 ee ad 33 bd 8a ef 9d 3c 39 b9 d6 3d 5b 69 bd 3c
       -0.043867044 0.01927926 0.10484547 0.023121526
000010 35 65 df 3c b7 81 27 bd e8 06 93 bc 2d 6f 0e 3e
       0.027269939 -0.04089519 -0.01794763 0.13909598
000020 bb e9 31 3e 87 b6 c9 3d 6a b7 9e 3d e8 d8 8c bd
       0.17374317 0.098492675 0.07749827 -0.06877309
000030 f1 d3 e2 bd 48 fe cd 3d 70 6e b9 3d c9 53 5e bd
       -0.11075581 0.10058266 0.090542674 -0.054279123

features.6.weight f4 [32, 16, 3, 3]
000000 55 a4 1a 3e e5 62 d2 3d 0f 06 88 bb a0 e4 fe 3d
       0.1510175 0.10272769 -0.004151113 0.124459505
000010 d8 78 c6 bd d3 28 65 3d 08 70 21 3d d4 f9 d0 3c
       -0.09691018 0.055947136 0.039413482 0.025509752
000020 09 9f 86 3d cc 2d dc 3c dc 26 eb bc c3 38 33 bc
       0.06573302 0.026877306 -0.028705053 -0.010938826
000030 3c 9a ba 3d 70 04 93 3d 69 f0 d0 3d 5c 08 aa 3d
       0.09111449 0.07178581 0.102021046 0.08302376
000040 d4 f5 f1 3d 5a 4b 6e 3d 50 6f a7 bd 18 2e 15 bd
       0.11814466 0.05817733 -0.08175528 -0.03642091
000050 c8 38 07 bc b5 13 a4 bd 55 21 15 be 40 3b 31 ba
       -0.008253284 -0.08011571 -0.14563496 -0.0006760843
000060 9a 33 d0 bd fe dc 1e be aa 18 18 be 35 f5 36 3c
       -0.10166092 -0.1551399 -0.14853159 0.01116686
000070 96 4a 2f ba 21 09 81 3c 13 76 3a be 4d 88 5f bd
       -0.00066868344 0.015751423 -0.18209104 -0.054573346
000080 1b 2e cb bd 06 d2 70 bd a3 4c 31 be da 38 2f bd
       -0.09920903 -0.058794044 -0.17314391 -0.042778827
000090 a6 0f a2 3d a7 3f 67 3c 15 62 80 3d 5d af ba 3d
       0.07913141 0.014114297 0.06268708 0.09115479
0000a0 52 6c 96 3d 8f 81 87 3d 69 28 b0 3b 91 cb 61 bd
       0.07344879 0.06616508 0.005375911 -0.055125777
0000b0 eb 5f 6b 3d 50 c8 88 3c 60 5d f0 3c 8a 30 f9 bc
       0.05746452 0.016697079 0.0293414 -0.030418653
0000c0 8a ad d0 3d 7d 42 3e 3d b4 66 71 3c fe cc a5 3c
       0.1018935 0.046450127 0.014733959 0.02023935
0000d0 62 1c f7 3c 51 d3 9b 3d 44 d7 c0 bb 8c d9 02 3d
       0.030164901 0.07608665 -0.0058850367 0.03194575
0000e0 2e e2 ae 3d d4 16 31 3d 49 10 a9 b9 5a 00 fb 3d
       0.08539234 0.04323466 -0.00032246325 0.122559264
0000f0 85 b0 c7 3d 7f 5f 55 3e dd c5 39 3e 2b 3e 65 3d
       0.09750465 0.2083721 0.18141885 0.05596749
000100 8d 6e 14 3c b0 8e 07 3d 5d 74 87 bd 02 f6 1f 3d
       0.0090595605 0.03309506 -0.066139914 0.03905297
000110 a3 18 86 bd 4b 19 15 bc 5b 28 44 3d 22 84 a8 3b
       -0.06547668 -0.009100269 0.04789005 0.0051427046
000120 94 a5 ff bd 4f 09 d4 bc df 92 04 be 6e d8 c1 bd
       -0.124827534 -0.025883345 -0.12946652 -0.09465109
000130 4f 3a 85 bd c1 9d b9 bd 1b 3e 16 be 97 09 2c be
       -0.06505262 -0.09063292 -0.14672129 -0.16800533
000140 37 a0 11 be 28 64 89 3d b4 aa 31 bd e5 84 83 3c
       -0.14221273 0.067085564 -0.043375686 0.01605458
000150 51 16 92 bc bd e3 7a bd 98 4c b1 bc ea cc 13 3d
       -0.017832907 -0.061252344 -0.021642968 0.036084093
000160 56 7e be 3c 6d 6e 4b bd 21 39 28 be 95 22 c5 bd
       0.023253601 -0.049665857 -0.16428043 -0.096257366
000170 53 cf d7 bd c8 15 35 bd ff 09 b8 bd d8 70 e9 bc
       -0.10537591 -0.044210225 -0.089862816 -0.02849619
000180 9f dd bc bd 3d 11 76 bd 43 01 8d bd 97 a8 21 3d
       -0.09221958 -0.060075033 -0.06885006 0.03946742
000190 f8 da 80 3d f5 6b e8 3c 83 ee 19 3d a2 0b 9f 3d
       0.06291765 0.02837179 0.037580978 0.07765891
0001a0 90 d8 9b 3d 1e f1 0f 3d dc b8 e2 3d 6e ab f8 3d
       0.076096654 0.035142057 0.110704154 0.121420726
0001b0 59 53 28 bd 83 24 1e 3d 82 c5 03 bb 50 0e 1a 3d
       -0.04109511 0.03860904 -0.0020106738 0.037611306
0001c0 85 91 15 bd 68 56 75 bd ce d0 b1 3d cf de 42 bd
       -0.03651573 -0.059896857 0.086824045 -0.047575768
0001d0 68 d3 3a 3d 83 f6 c0 bd 26 b9 fd bd d3 70 13 bc
       0.04561177 -0.094220184 -0.1238883 -0.008999067
0001e0 be 6b db bd 86 f0 11 be 5e a5 ec bd cb 27 c8 bd
       -0.107139096 -0.14251909 -0.11554979 -0.09773215
0001f0 68 22 81 bd 3f a5 64 3b 4f ee 04 3e bf f3 0d 3b
       -0.063053906 0.0034888533 0.12981533 0.0021660177
000200 ce fd 36 3c 3c 51 0f 3e eb 1b e9 bd f3 ce 81 bd
       0.01116891 0.13995832 -0.11382278 -0.063383006
000210 23 4f b5 bc 2a d9 7d bc 78 59 0a 3d 14 14 47 be
       -0.022132462 -0.0154936705 0.03377673 -0.19441253
000220 67 ab 03 be 25 be 36 be e3 ce 43 be 28 c1 06 be
       -0.12858354 -0.17845972 -0.1912189 -0.13159621
000230 39 60 2e be a2 7e 3d be b6 25 ac bd 83 64 1c be
       -0.17028894 -0.18505338 -0.0840563 -0.15272717
000240 36 63 61 3d 7e b5 9c 3d 88 e5 34 3c 33 df e1 3d
       0.055026256 0.076518044 0.011041053 0.110289
000250 33 b0 4e 3d a6 2a b1 bd 0b 8c c2 3d 4a 48 de 3d
       0.050461005 -0.08650713 0.09499367 0.10853632
000260 f1 fd 98 bb d7 8e 98 3d 18 5f 8b 3d 16 03 b2 bd
       -0.004668944 0.074491195 0.06805247 -0.08691995
000270 58 d3 ee bb e7 fb 5e 3d 77 36 49 bd 72 1a 6d 3c
       -0.0072883777 0.05443945 -0.049124207 0.014471637
000280 30 48 5f bc df 49 34 3b 32 c6 0b 3d b2 9e 97 3d
       -0.013628051 0.002750985 0.03412456 0.074033156
000290 d9 c3 1d bd 5b 31 0e 3d 6d 50 8c bd dc 8d 13 bd
       -0.038516853 0.034715038 -0.068512775 -0.03602396
0002a0 77 c1 1b 3c 30 00 b5 bc 4d f0 8d ba 89 75 83 3c
       0.009506575 -0.022094816 -0.0010829062 0.016047256
0002b0 70 a6 80 3d bb a5 e7 bd dd 63 19 3e f6 fd d3 bd
       0.062817454 -0.113109075 0.14979501 -0.103511736
0002c0 63 18 04 be da 15 e1 bc 75 ba bf bd 41 c1 05 be
       -0.12899928 -0.02747624 -0.09361736 -0.13062002
0002d0 23 ff a8 3d 26 ef 1e 3d 2d 5c 05 bd b3 82 82 bd
       0.082517885 0.03880229 -0.03255861 -0.06372585
0002e0 73 96 98 3c 54 ff 8a bd 1a 33 a4 bd 83 d1 37 bd
       0.018626427 -0.06786981 -0.08017559 -0.04487754
0002f0 36 f3 69 bd ff df 07 3d b9 05 36 3d 56 33 bc bd
       -0.05711671 0.033172604 0.04443905 -0.09189479
000300 17 b2 2b 3d 18 61 61 3d 4d 64 0f be 6b d9 08 3b
       0.041917887 0.055024236 -0.14003105 0.0020881544
000310 72 b3 91 3c bc cb 87 bb 35 80 b1 3d af ff 85 3d
       0.017785762 -0.00414416 0.08667032 0.065429084
000320 ce 96 2b bd 5c 1f ec 3c e2 4d b3 3d f4 15 8a bd
       -0.041891865 0.028823547 0.08755089 -0.067424685
000330 8a f8 e9 3c 12 66 86 bc 29 97 d6 3c 04 3b 87 3d
       0.028560895 -0.016406093 0.026195126 0.06603053
000340 94 8a 20 bd 66 8d df bd 8c d9 ed bd ef f8 5f 3d
       -0.03919466 -0.109156415 -0.116137594 0.05468076
000350 c2 54 ac bd 0f 1d 76 bd db a7 93 3d ee a8 f4 bd
       -0.08414604 -0.060086306 0.0720975 -0.11946283
000360 a5 88 6f 3d e7 d2 05 bd 6f 95 20 bc 4f 64 1c bd
       0.058479924 -0.032671835 -0.009801253 -0.0381816
000370 f8 df 3f 3c 7e c7 ed 3a 4a 0f d7 3d ea 5f 2e 3d
       0.011711113 0.0018141118 0.10500963 0.04257194
000380 b9 6d b7 3b 99 64 de 3d c5 f4 c3 bd 64 f4 ab bd
       0.0055977968 0.10859031 -0.095681705 -0.08396223
000390 f4 3d 8a bd 57 6a a6 3c d0 1f 3b bd 7e 3f c2 3c
       -0.06750098 0.020314379 -0.045684636 0.023711916
0003a0 82 ed 6d bd 90 38 d8 bd fd 1a 4b 3d 08 47 d1 3c
       -0.058087833 -0.105576634 0.049586285 0.025546566
0003b0 c2 ad c3 bd 87 0e 69 3d af c2 49 bd c2 42 f1 bd
       -0.09554626 0.05689862 -0.04925793 -0.11780311
0003c0 b3 3b 48 3b a1 92 ac bc a1 c8 06 be dd f2 11 3d
       0.0030553162 -0.021066012 -0.13162471 0.035632003
0003d0 c4 0c 09 bd ac 31 23 be e9 35 b8 bd 24 0e e3 bd
       -0.03345944 -0.15936917 -0.089946575 -0.110866815
0003e0 78 00 d9 bd 93 5f 25 bd 38 7d 56 3d c3 69 82 bd
       -0.105957925 -0.04037435 0.05236551 -0.06367829
0003f0 10 fa 60 3d e0 a0 c9 bc b6 b3 cf 3c 54 d6 a1 3b
       0.05492598 -0.024612844 0.025354248 0.00493888

features.6.bias f4 [32]
000000 87 87 d6 bc d4 e5 b9 bd 65 b0 b2 3c 3b 4a 35 3b
       -0.026187671 -0.09077039 0.021812627 0.0027662653
000010 d6 a7 a2 3d 80 e0 7d 3b d8 7f 2b 3d 2a 70 27 3d
       0.079421684 0.0038738549 0.04186997 0.040878452
000020 30 b8 4c bd 1b 0f 2e 3d 84 c3 d7 bd f4 2d 1f bd
       -0.049980342 0.042494874 -0.105353385 -0.038862184
000030 7b 4c 2c 3c 0b 6a a1 bd ec 57 a8 bc 9f 40 17 bc
       0.010516281 -0.07881554 -0.020549737 -0.009231715
000040 90 b4 fd bc 6d 33 20 bd 11 c8 a1 3d fc d9 4e bd
       -0.030969888 -0.039111543 0.07899488 -0.050500855
000050 db 3e c9 3d b0 bd 48 3d fc 70 0e bd 81 0e 91 bd
       0.09826442 0.049009025 -0.03477572 -0.070828445
000060 15 69 79 3c 7a 96 99 3b ff d9 1f bd 7f 08 cc 3c
       0.015222807 0.0046871277 -0.039026257 0.024906395
000070 7c 17 e3 bc ab a7 77 bd d6 4c f6 bb 13 d8 c6 bd
       -0.02772116 -0.060462635 -0.007516484 -0.09709182

classifier.1.weight f4 [3, 128]
000000 81 c9 f2 3d f0 79 d0 3d ce 1c ea 3d a1 8e f2 3d
       0.1185484 0.10179508 0.11431275 0.118436106
000010 8f 81 64 bb 59 55 33 3d 93 4a d5 bd 6b c2 ea 3d
       -0.0034867262 0.043782566 -0.104146145 0.114628635
000020 3c 5f 0e bd 54 ac 62 3d 18 73 2f 3c 82 1b a5 3d
       -0.03475879 0.055340126 0.010708593 0.08061887
000030 b5 e8 fb bd 07 cc 1f bd 38 6a 66 bd f5 6a d0 3d
       -0.12300245 -0.039012935 -0.05625364 0.101766504
000040 e5 15 13 3d 27 8a d7 bd 16 4d 63 bd d9 32 59 bc
       0.035909552 -0.10524397 -0.055493437 -0.013256752
000050 2a 02 2f 3d da c9 94 bc e2 c1 06 3c 5e c9 83 bc
       0.042726673 -0.018162657 0.008224936 -0.01608723
000060 4c db d1 bd 78 d0 2d bb bd 51 90 3d c7 a7 c1 bb
       -0.10246906 -0.0026521962 0.0704684 -0.005909893
000070 41 f7 b6 3d 07 54 87 bc 66 84 05 3e a0 eb 0f 3e
       0.08933879 -0.01651956 0.13038787 0.14054728
000080 bb 5d a1 bd e5 b3 a1 bc 7e c9 10 be 79 a6 ba 3d
       -0.07879206 -0.0197391 -0.14139363 0.091137834
000090 bf bd 74 3c b7 25 45 3d b5 be c3 bd b9 a7 c3 3a
       0.014937817 0.04813167 -0.09557859 0.0014927305
0000a0 b6 7a 32 3d a6 ac 98 3d 76 7a e8 bd d7 ad 4e 3c
       0.043574058 0.07454805 -0.113514826 0.012614689
0000b0 ce 71 fe ba 4b fb bf 3d e5 9f 0a 3d 64 f9 9a 3d
       -0.0019412579 0.09374102 0.033843894 0.07567099
0000c0 b3 89 b0 3c fa 4e d6 bc dc 95 e0 3d 9a 51 98 bd
       0.021550035 -0.026160706 0.109660834 -0.07437439
0000d0 d4 cc be 3c b8 1b df bd 87 93 ab 3d 3e 7d 9d bd
       0.023291029 -0.10893959 0.08377748 -0.07689904
0000e0 cc 10 70 3d 19 f3 81 3d c6 d6 3e 3d 1d 3b 35 3d
       0.05860977 0.06345195 0.046591543 0.044245828
0000f0 8a 69 73 bd ec f1 cb bd 94 66 f7 3b aa 0e 47 bd
       -0.05942682 -0.09958252 0.00755007 -0.04859797
000100 dc ea db bd b6 01 da b9 0a f4 0e 3d 9d 13 c5 bd
       -0.10738155 -0.00041581475 0.034900703 -0.096228816
000110 38 b5 89 3d 76 01 aa 3d 6c 6d 44 bd 5d db 85 3b
       0.06724018 0.0830106 -0.047955915 0.004084988
000120 c3 2a a7 bd 8c e5 a7 bc 4e aa e7 bd 4e ba 69 bd
       -0.08162453 -0.020495199 -0.1131178 -0.05706244
000130 b2 68 24 3d 00 a0 68 bd 38 7d f9 bc 63 02 10 bd
       0.040138908 -0.056793213 -0.030455217 -0.035158526
000140 fc 57 9a 3b cb c1 9e bd 8c 6e d9 3c c5 c3 9d bd
       0.0047101956 -0.07751807 0.02654197 -0.07703356
000150 b4 0b 17 bd e7 b3 3d bd d9 1b 8e bb 78 af 06 bd
       -0.036876395 -0.046314146 -0.004336816 -0.032882184
000160 f2 80 91 bd 08 4d 9f 3d cd 42 d5 bd 56 98 00 be
       -0.071046725 0.077783644 -0.10413132 -0.12558112
000170 4f 75 18 bb ee 53 c9 3b 3b 57 8d 3d 3f 26 fb 3d
       -0.002326328 0.0061440384 0.069014035 0.12263154
000180 7c 70 da 3d 5d 09 8e 3d ab 95 cb 3c cf 0c 9c 3d
       0.10665986 0.0693538 0.02485164 0.076196305
000190 f1 a6 1d 3d f3 9f 88 3d e1 8a 0d 3e d9 43 27 bc
       0.038489286 0.06671133 0.1382251 -0.010209047
0001a0 fe d6 09 3d 0b 6b 3b bc 49 90 91 3d f7 f6 c0 3c
       0.0336523 -0.011439095 0.07107598 0.023555262
0001b0 aa 8d 3d bd d2 82 e1 bb 1b 5f 91 3d de 36 02 bd
       -0.04627768 -0.00688205 0.07098218 -0.031790607
0001c0 fe 7c 93 bd 5b 24 a8 bd bc ec 47 be 19 f5 db 3b
       -0.07201575 -0.08210059 -0.19523901 0.0067125675
0001d0 5f 63 fd bc 16 85 1f be 09 71 93 3d af b5 c1 bc
       -0.030931173 -0.15578112 0.07199294 -0.023646204
0001e0 cf d4 9d bd 4e 8d 23 3c 79 ce 10 be fd 9b 7f ba
       -0.07706606 0.00998242 -0.14141263 -0.0009750722
0001f0 c5 dc a5 3d 24 9e da 3c 59 4c 2d be 91 48 6e bd
       0.08098749 0.026686735 -0.16923656 -0.058174673
000200 25 e4 bd bd 5f 3d e2 bd 5a ce a1 3c 3a ae f9 bd
       -0.09272031 -0.11046862 0.019751716 -0.12191434
000210 64 ca 1f 3d 08 10 ba 3d 1f 42 a8 3d 94 58 e9 bd
       0.039011374 0.09085089 0.082157366 -0.11393848
000220 01 46 51 bd d5 e0 96 bd 7a 31 d1 bd 47 3d eb bd
       -0.05109215 -0.07367102 -0.10214515 -0.11486297
000230 57 32 40 3d dc 97 47 3d 22 dd ef 3c 0e ea ec bd
       0.046923008 0.04872881 0.029280249 -0.1156808
000240 b9 b1 aa 3d 76 9b af 3c 9f 2f 85 3c e2 3d d5 3c
       0.08334679 0.021436434 0.01625806 0.026030485
000250 19 fa 1f 3d d5 47 cf bc f8 da dd bc 20 63 89 bd
       0.03905687 -0.025302807 -0.027081951 -0.0670836
000260 e5 f5 1f 3e d5 7b 35 3e ce 66 a6 3d 9f 91 0c 3e
       0.15621145 0.1772302 0.08125077 0.13727425
000270 4c 4a ca bd 87 23 10 be e7 c0 f9 bc f7 92 6b bd
       -0.09877452 -0.14076053 -0.03048749 -0.057513203
000280 98 9c fa 3d 18 ab 47 3e c7 a7 83 3d 2d 75 01 bc
       0.12236899 0.19498861 0.06428485 -0.007901472
000290 4b dc 9d bd 37 ec 71 bd 78 f9 a8 bd 98 5b df bc
       -0.07708033 -0.059063163 -0.082507074 -0.027265355
0002a0 a6 53 01 be bf 94 16 bd da 96 06 be 40 4d 46 bd
       -0.12629566 -0.03676295 -0.13143483 -0.048413515
0002b0 8b a1 71 bd 68 bf 15 3b cf 4f 04 be 15 b1 20 be
       -0.05899195 0.0022849683 -0.1292107 -0.15692551
0002c0 f0 2b 9c 3b c0 cc 09 bd ed 1c 24 be f2 fa 67 bd
       0.00476598 -0.03364253 -0.1602666 -0.056635804
0002d0 b9 cc 3f 3d 19 0c 67 3d 34 3c f4 bd 6a f5 09 3e
       0.046826098 0.05640802 -0.11925545 0.13472524
0002e0 c5 4a 4d bc c7 d7 84 bd 3d 34 e6 bd d7 db 01 3d
       -0.0125300335 -0.06486469 -0.112404324 0.031703796
0002f0 af 6d f7 3d b1 3f 40 3e d6 de 1f 3e e1 1c 8a 3d
       0.12081467 0.18774296 0.15612349 0.067437895
000300 5f 86 7f bd b7 c6 da 3c 96 f9 c0 3c 13 1e 4f bd
       -0.062384006 0.026706083 0.023556512 -0.05056579
000310 fc 1f 56 3d 46 4e 73 3d f0 d3 ae bd 6f 9e fd bd
       0.052276596 0.05940082 -0.085365176 -0.123837344
000320 37 01 d0 3d d6 52 c3 bd a6 86 82 bc 26 dc 15 bd
       0.10156482 -0.09537284 -0.015933346 -0.036586903
000330 7a da 92 3d 1a 71 09 bd 81 79 ed 3b bc da 24 3d
       0.07170577 -0.033555128 0.0072471504 0.040247664
000340 f0 96 ca 3d 4a d5 c3 3d be 1f dd bc ec 2c b3 3d
       0.0989207 0.09562166 -0.026992675 0.087488025
000350 57 d1 23 3e 4f c6 04 3e 73 95 d9 3d da bd 15 3e
       0.15997826 0.12966274 0.10624208 0.14623204
000360 57 59 fe 3c f8 2d 48 3c e4 54 be 3d a5 00 cb bd
       0.03104846 0.012217991 0.09293535 -0.09912232
000370 ce 37 58 3c 16 dc 86 bd 04 47 a9 bc 1f 1e 08 be
       0.013196899 -0.06584947 -0.020663746 -0.1329274
000380 f8 50 dd bb 4a dc 44 3c 12 04 c9 bd 6a 0d 96 bd
       -0.006754037 0.012015412 -0.098152295 -0.07326777
000390 28 49 34 3d 1d d5 96 3c 71 bc f3 bd 63 ad 29 3d
       0.04401508 0.018412167 -0.11901177 0.04142512
0003a0 5f 4c 3e bd 2e 59 c4 bc 4d 65 b2 3d 22 93 bf 3d
       -0.046459552 -0.023968305 0.08710728 0.09354235
0003b0 82 24 9d 3d 3a c3 7d bd 8e 47 44 3c 2f 1b e3 bc
       0.07672979 -0.06195376 0.011979951 -0.027722923
0003c0 f2 21 8f 3c f4 7a 31 bd 8a c4 30 3d de 13 90 bd
       0.017472241 -0.043330148 0.043156184 -0.07035039
0003d0 15 74 93 3d 23 50 cb 3d 67 8c 1e bc 3f 3c 51 bc
       0.07199875 0.09927394 -0.009677029 -0.012770711
0003e0 aa 5d a1 3c eb c1 60 bc b7 10 ee 3c fa f7 0d 3d
       0.019697983 -0.013718109 0.029060705 0.034660317
0003f0 8f f7 d9 3c 77 e2 85 bd 98 25 6c bc 35 4a f1 bd
       0.026607303 -0.06537335 -0.01441326 -0.11781732

classifier.1.bias f4 [3]
000000 71 8c 00 bd a4 74 93 bc 81 ee df 3c
       -0.031383935 -0.017999955 0.027335407
