vision_system/model_weights_2.pth (torch, 34237 bytes, 8 tensors)

features.0.weight f4 [8, 3, 3, 3]
000000 29 4c 15 bd e9 82 1f 3e e8 5e 30 3e eb 11 c2 3d
       -0.036449585 0.15577282 0.17223704 0.09476074
000010 d4 f3 59 3d eb aa 86 bb 59 28 50 3e 10 3a 85 3c
       0.05321105 -0.0041097305 0.20327891 0.016263038
000020 80 8f 28 3e a0 12 c8 3d d4 07 2e 3e d6 ab 87 bd
       0.16460991 0.097691774 0.16995174 -0.06624572
000030 bb 8e 25 3e 44 21 8c 3e 21 99 96 bd 36 73 d1 bd
       0.16167729 0.2736913 -0.07353426 -0.10227053
000040 14 4e 03 3e 21 75 4d 3e d7 09 7e 3d d1 19 f8 3d
       0.12822753 0.20064212 0.062021103 0.12114299
000050 d6 a2 46 3e 1e e3 86 3d 8f ab 0e be fb 03 3d 3e
       0.19398054 0.06586288 -0.13932632 0.1845855
000060 04 83 ab bc 92 32 ed 3c 41 82 00 3e 7a 25 29 3e
       -0.020936497 0.028954778 0.12549688 0.16518202
000070 a7 fb ac 3d 25 7b 57 3d 4e be 36 3e c1 dc ca 3a
       0.084464364 0.052607674 0.17846033 0.0015477167
000080 64 15 63 3e d9 33 be 3d a6 04 1c 3e 0e 00 f6 bd
       0.22176129 0.09287233 0.15236148 -0.12011729
000090 ab 39 e3 3d e3 af 50 3e 54 c9 bd 3d 0c db 7a 3e
       0.11094984 0.20379595 0.09266916 0.24497622
0000a0 ae b1 60 3c 20 c8 46 3e 51 2a 45 3e 55 3d ff 3d
       0.013714237 0.19412279 0.19254424 0.1246287
0000b0 7d 6f a2 3d ff f7 af 3c 1e 52 84 3e f5 0b 86 3e
       0.07931421 0.021480558 0.258439 0.26180997
0000c0 d8 65 35 3e 6a f2 e0 3d 82 d3 1d 3e 16 65 1e 3d
       0.17714632 0.10983737 0.15412715 0.03867062
0000d0 3a 79 83 3e cf f4 6e bc ea f3 ff 3d 14 bd 38 3d
       0.25678426 -0.014584734 0.12497695 0.045102194
0000e0 97 08 4c 3e 72 1f 83 3d c0 b3 1d bd 96 9c 53 bd
       0.19925152 0.06402482 -0.0385015 -0.051663004
0000f0 03 8e 38 be 62 8a c7 bc b9 a0 54 bd 83 7d c7 bb
       -0.18022923 -0.024357978 -0.05191109 -0.00608796
000100 7f a6 07 3d 50 6f 8f 3c 8a e1 00 be eb f3 fa 3d
       0.033117767 0.017509133 -0.12586036 0.12253555
000110 5c 42 1c 3e 8c a4 c2 bd ce 2e 40 be b6 ed 5c 3e
       0.15259689 -0.09504041 -0.18767855 0.21575055
000120 50 d6 d0 bc 65 f9 bd bd 34 8c 04 3e ff d5 ea 3d
       -0.025492817 -0.09276084 0.12944108 0.11466598
000130 90 d6 6e be e1 2e f1 3d 7a 5f 3e be 8a 71 8c bd
       -0.23324037 0.117765196 -0.18591109 -0.06857593
000140 fd ce 08 3e 0e 5e 40 3d cc 0a 46 3e fc 04 d1 bd
       0.1336021 0.046964698 0.19340056 -0.10206029
000150 3c a9 dc 3d 0a a6 f3 3d bf 07 fa 3d 7a dd 31 3e
       0.107744664 0.11896904 0.12208509 0.17369643
000160 00 30 3b 3e 58 a2 52 3e 80 43 df 3d a0 71 11 be
       0.1828003 0.20569742 0.109015465 -0.14203501
000170 6c 83 06 3e 81 45 2d be ee 68 ad 3d 44 4d 0b 3e
       0.13136071 -0.16921045 0.084672794 0.13603693
000180 c6 7a bb bd 08 59 50 bd 97 b9 92 bc 9c 12 6b bd
       -0.091542765 -0.050866157 -0.017910762 -0.057390794
000190 82 25 e3 bd 88 11 70 3d 4e f6 6a be 3b 86 70 bd
       -0.110911384 0.05861047 -0.2294552 -0.058721762
0001a0 5d 06 c0 3d 21 73 51 be 25 8a 52 be 4e b5 8f bd
       0.09376214 -0.20454074 -0.2056051 -0.07017003
0001b0 b5 c0 c1 3d b4 0e 61 3e dd 9d 1d 3e a2 c0 da 3c
       0.09460584 0.21978265 0.15392251 0.026703183
0001c0 41 79 02 3e 42 d2 22 3d 37 c0 f7 bc 98 b8 1b 3e
       0.12741567 0.0397513 -0.030243022 0.15207136
0001d0 a7 7b b1 bb 74 75 1b bc 87 ef 61 3e 58 62 77 3d
       -0.005416352 -0.009488452 0.22064029 0.060396522
0001e0 4b 43 1b 3e 57 d6 22 bd b7 84 c7 3d d9 5d dd 3d
       0.15162389 -0.03975519 0.0974211 0.10808916
0001f0 84 1b 4c 3e 5c 94 c5 3c e5 41 74 3d 60 04 51 3e
       0.19932371 0.024118595 0.059633154 0.20411825
000200 e9 24 a7 bc 23 65 65 3e 28 93 09 3d f0 eb e1 bd
       -0.020403342 0.22401862 0.033587605 -0.1103133
000210 32 ca 05 3d e0 6e 7d 3e 7e e2 4e 3e bc 8b 5b 3d
       0.03266353 0.24749327 0.20203587 0.053600058
000220 a2 92 4e be 26 f2 0a be c1 9a 62 be 02 e6 97 be
       -0.20173123 -0.13568935 -0.22129346 -0.2966767
000230 75 34 88 be 66 64 1b be 6f c2 23 be 8e 6c 8e bd
       -0.26602522 -0.15175018 -0.1599214 -0.06954299
000240 a8 cf d2 3d 51 64 01 3e 33 cf 1d 3e 90 50 44 be
       0.102935135 0.12635924 0.15411071 -0.19171357
000250 d1 1a 7c 3d bf 96 a6 bd dd 1a 34 3d 9f 88 60 3d
       0.06154901 -0.08134221 0.04397093 0.054817792
000260 e8 a3 10 3d df b2 fe 3d cb 94 f8 3c f3 f2 ca 3d
       0.035312563 0.12436461 0.030344388 0.0990962
000270 4e 78 c8 3d 8e f9 57 3d af c2 07 be 64 18 6f 3c
       0.09788571 0.05272823 -0.1325786 0.0145932175
000280 cc f8 c7 3d e0 2a 8e 3d 87 1d c1 3d 4b 19 12 3e
       0.09764251 0.069417715 0.0942946 0.14267461
000290 04 7a 8a bd da 1b 9e bd a3 d7 09 be 3f 8a b2 3d
       -0.06761554 -0.07720156 -0.13461165 0.087177746
0002a0 40 c2 09 3e 7b 65 bb bd 09 1d 1d 3e 07 45 9a 3d
       0.13453007 -0.09150215 0.15343107 0.07532697
0002b0 ac d0 32 bd 9e 3c f6 bd 20 fa b5 3c 47 2c 16 3e
       -0.043656036 -0.120232806 0.022213995 0.14665328
0002c0 61 a5 52 3e 20 fa 12 be 68 8e ed 3d c7 ef 54 3e
       0.205709 -0.14353228 0.115994275 0.20794593
0002d0 cb a6 18 3e 4d cd cf bd 7e a6 3f be 35 60 bd bc
       0.14907376 -0.1014658 -0.18715855 -0.023117164
0002e0 f0 40 2e 3e 61 c1 e4 3d 41 84 2e be 06 db ce bc
       0.17016959 0.111696966 -0.17042638 -0.025250923
0002f0 fb 40 27 be b9 de e0 bd d5 b7 46 bd fb fc 8c be
       -0.16333382 -0.10979981 -0.04851516 -0.2753676
000300 aa 7e 4c 3d db 15 2a be 10 c8 ef 3c 1f fd 8e 3d
       0.049925484 -0.166099 0.029270202 0.06981873
000310 8f 4c 3d 3d b8 28 6f be 77 1e eb bc ee d6 40 bd
       0.04621559 -0.23355377 -0.02870105 -0.047079973
000320 fe 1a 59 be 05 74 7f be 14 4c 8b be 83 9a 43 be
       -0.21201703 -0.24946602 -0.2720648 -0.1910191
000330 22 96 81 bd 68 86 69 be bd 18 ad bd a0 1d 86 3d
       -0.06327464 -0.22805178 -0.08451984 0.06548619
000340 cd 17 3f be 48 1d 3c be 78 61 59 be c8 12 9a bd
       -0.18661423 -0.18370545 -0.21228588 -0.075231135
000350 24 be 2b bd d3 ba 18 be 52 aa 00 bd af 50 46 be
       -0.04192938 -0.14915018 -0.03141243 -0.19366716

features.0.bias f4 [8]
000000 5d 9e 43 3e b4 fd 34 bd a1 07 8f 3d 5d 61 ff 3d
       0.1910338 -0.044187263 0.06983877 0.124697424
000010 0f 50 00 be c9 ee 26 3e 38 b4 91 3c 28 18 7c 3d
       -0.1253054 0.16302027 0.01778613 0.061546475

features.3.weight f4 [16, 8, 3, 3]
000000 5c 06 f1 3d 8a 78 b8 3c 6d ae 62 bc 0f fb 8e bd
       0.11768791 0.022518415 -0.013835532 -0.069814794
000010 8a 70 25 3d cb 63 df bd df eb 2c 3c 89 dc f3 bd
       0.04039053 -0.10907706 0.010554283 -0.11907298
000020 c7 84 06 bd b9 0f 4b 3c 4e 6d b7 bd 2f 9b e0 bd
       -0.03284147 0.012393885 -0.08956395 -0.10967099
000030 5d fd de 3a 5a 4b a8 bc b8 59 ef bc 1b 41 3b bd
       0.0017012764 -0.020543743 -0.029217586 -0.045716386
000040 84 50 a7 bc 08 44 c3 bc 0d 75 cf 3c ed 08 ef bd
       -0.020424135 -0.02383615 0.025324369 -0.11671624
000050 0f 18 4b 3d 21 78 38 bd a0 35 94 3b f8 39 57 bd
       0.04958349 -0.04503644 0.004522994 -0.052545518
000060 d4 fa bb 3d bc 23 60 3d bb 11 02 3d 19 3e e8 bd
       0.09178701 0.05472158 0.03175519 -0.11339969
000070 86 f5 e3 3b de 17 35 3c 47 e1 31 3b 2c 6b 2a bd
       0.006956759 0.011053054 0.0027142332 -0.041606113
000080 b6 cb d4 bd bd 7b e3 bc bf 07 bf bc 10 ee c5 3d
       -0.10390417 -0.027768964 -0.023319123 0.096645474
000090 be 8b c7 bd 0a dc 9a bd 15 49 80 bd 32 09 b1 3d
       -0.097434506 -0.075615 -0.06263939 0.08644332
0000a0 46 96 ed bd ba 32 c3 bd 12 e3 cb bc 6f f4 ea 3d
       -0.11600928 -0.0953116 -0.024888549 0.11472403
0000b0 40 08 cd bd 3a 4f 89 3d e0 88 e8 bd 6e 88 66 bd
       -0.10011339 0.067045644 -0.11354232 -0.056282453
0000c0 55 20 a7 bd ee e1 a0 bc c5 0f c6 bc eb 7f 5c bc
       -0.08160464 -0.019638982 -0.024177441 -0.013458232
0000d0 9a cc 16 bd 85 a5 2c 3d 99 16 3b bd c6 e1 fa 3c
       -0.036816217 0.04215004 -0.045675848 0.030625235
0000e0 80 24 25 3d 95 10 56 bd 6c 02 a2 bd 7d 8d e3 bd
       0.040318012 -0.052261908 -0.07910618 -0.11110971
0000f0 4a 0b c1 bc 28 55 4e 3c b0 71 45 bd 74 0e a8 bd
       -0.023564953 0.012593545 -0.048204124 -0.08205882
000100 80 5f a6 bd eb e4 8b bd e2 91 92 bd fb 76 c5 bc
       -0.08123684 -0.06830772 -0.07156731 -0.024104586
000110 29 cb e5 bc 91 67 10 be 04 9b 21 3d b2 83 98 bd
       -0.028050976 -0.14102007 0.039454475 -0.07446994
000120 6e 93 91 3d 07 c6 e2 3d 51 46 48 3c 04 d0 d3 3d
       0.07108198 0.11072927 0.012223796 0.1034241
000130 15 db dc 3d b1 f3 ef 3d bf 43 11 3e 35 9c 52 3d
       0.10783974 0.11716402 0.14186 0.051418502
000140 d6 84 39 3c 24 d4 71 3c e4 5e bf 3d 29 64 c8 bc
       0.011323174 0.014760051 0.09344271 -0.024461823
000150 5b 56 e9 3d 15 4a 24 3e 4a 44 b8 3d 04 25 88 3d
       0.11393424 0.16043885 0.089974 0.06647685
000160 0f f1 c8 3c b0 d1 cd 3d a8 49 cb 3d ab 16 fe 3d
       0.024529008 0.1004976 0.09926158 0.12406667
000170 f2 25 05 3e e7 81 75 3d 45 28 a7 3c 27 bc 0d 3e
       0.13002756 0.059938338 0.020404944 0.13841306
000180 74 0f d1 3d 7c 94 ba bc 2e 58 8c 3c 7d 59 90 bc
       0.102080256 -0.022775881 0.017131891 -0.017620796
000190 1b 9a ff 3c 66 76 d1 3d 0d 6f 61 3c 65 ff be 3c
       0.031201413 0.10227661 0.013759387 0.023315141
0001a0 b6 fd b4 3d 78 b3 03 3e 23 e2 1f 3e c8 87 50 bd
       0.08837454 0.1286143 0.15613608 -0.05091074
0001b0 8c d9 3c 3e 49 5d b2 3c 71 4e 0d 3e 7d 03 0b 3e
       0.18442363 0.021772997 0.13799454 0.1357555
0001c0 3b 4c 42 3e b0 d9 2c 3e 20 1a 5d 3c 39 86 b5 bb
       0.18974392 0.16879916 0.013494998 -0.005539682
0001d0 a5 ee f3 3d 90 b9 e2 bc f0 8d cc bd 6d b5 f8 bd
       0.11910752 -0.027676374 -0.0998801 -0.12143979
0001e0 8e be 22 bd 5b 0d 86 bd 97 c9 bc bd 9d bb c9 bd
       -0.03973251 -0.06545516 -0.09218138 -0.098502375
0001f0 e9 67 cd 3c 30 e3 20 3b 40 c8 5e bc 82 2a 24 bd
       0.025073962 0.0024549477 -0.013597548 -0.0400796
000200 0c 85 a9 bd 97 48 29 bd 5e 07 ab 3d c4 de be 3d
       -0.0827733 -0.041328993 0.083510146 0.09319833
000210 33 7f b0 3c 5f 83 b6 3d b7 18 4c bd bb 17 19 be
       0.021545028 0.08911776 -0.049828257 -0.14950459
000220 ac be d5 bd b3 e8 d0 bc bc c7 04 bd 40 36 3c be
       -0.104367584 -0.025501585 -0.032417044 -0.1838007
000230 3e d0 03 be b6 d4 e6 bd e6 3b f3 3b 25 f5 38 be
       -0.12872407 -0.1127104 0.007422912 -0.18062265
000240 4a e9 03 3e 29 df 90 bd e4 c4 45 bd 54 8f 09 bd
       0.12881961 -0.070738144 -0.048283473 -0.033583954
000250 8e 42 22 3d 5d ff d2 3d 14 39 07 bd 53 16 b3 bc
       0.039614253 0.10302613 -0.03301342 -0.021861231
000260 11 71 0d 3e d7 91 c6 3d bc b8 a1 3c db 45 9d 3c
       0.13812663 0.096957855 0.019741409 0.019198349
000270 95 a9 ab 3d ef d9 fe bc 92 5b 39 bd 56 ea 25 3d
       0.083819546 -0.031109778 -0.045253344 0.040506683
000280 d2 92 49 3d 5d db c1 3d aa a1 49 bd c7 35 b6 3d
       0.049212284 0.09465668 -0.04922644 0.08896976
000290 25 90 d3 3c 4e 58 79 bd 0f 81 36 bd b8 cf a6 bd
       0.02582557 -0.06087523 -0.044556674 -0.08145088
0002a0 a8 da f7 bc ca dc 89 3d ce 13 d8 bd 31 23 87 bd
       -0.03025563 0.06731565 -0.105506524 -0.06598509
0002b0 57 3b 9b bd 67 f2 d3 3b e9 6f 35 be 06 b9 07 bd
       -0.075796776 0.0064681056 -0.17718472 -0.033135436
0002c0 55 25 43 be 33 7d 32 be 1c 70 23 be 46 f7 4c be
       -0.1905721 -0.17430572 -0.15960735 -0.20016202
0002d0 0a f7 e5 bc 21 34 13 3e d7 9b d0 3d c2 56 0f 3e
       -0.028071899 0.14375354 0.10185974 0.13997939
0002e0 5f 63 fa 3d 41 a9 22 3d 4b f5 04 3e 2c 58 e5 bc
       0.12225985 0.039712194 0.12984197 -0.027996145
0002f0 44 f8 f9 3d d6 34 52 3e bb 33 3a 3e 60 0e 4d 3e
       0.12205556 0.20527968 0.18183796 0.20025015
000300 3c f4 21 3e 82 6c 13 3d 7b 4f 01 3d 8b 93 16 3c
       0.15815824 0.035992153 0.03156994 0.00919045
000310 2a 5d f5 3d 5c 95 f4 3d 5d 40 15 3e 13 cd be 3d
       0.1198066 0.119425505 0.14575334 0.093164586
000320 75 44 a0 bd 38 55 0f 3d a1 bb df bd 96 aa f0 3d
       -0.07825557 0.03499338 -0.10924459 0.11751287
000330 7d a0 49 3d fc 2a e2 bd 84 3b 03 bd 5d 68 be 3d
       0.04922532 -0.11043355 -0.03203918 0.092972495
000340 d6 b0 b8 bd 51 46 10 3d 61 0c 10 bd 45 0b df 3d
       -0.09018104 0.03522331 -0.035168055 0.10890821
000350 1e 53 95 bd 23 2e 9e 3d a5 f8 8d bd 11 83 5d 3d
       -0.07291244 0.07723644 -0.06932191 0.054080073
000360 2a ab c5 bd a4 0c 2a bd 3a fd af 3d cc e7 8a bd
       -0.096517876 -0.04151596 0.08593221 -0.06782493
000370 fb 88 09 bd 01 8e 41 bd af 4d 39 bd 5b 6b 6f 3d
       -0.0335779 -0.047254566 -0.0452401 0.05845199
000380 90 32 09 3e 0a 71 93 bd 61 e5 64 3d 58 5a 19 be
       0.13398194 -0.07199295 0.055882815 -0.1497587
000390 98 cd b3 bd 87 17 d9 bc fd 3b 70 3d 38 bd 6e bc
       -0.08779448 -0.026500477 0.05865096 -0.01457148
0003a0 c9 92 03 be f5 a1 b9 bd 30 11 82 bc f5 af 27 3e
       -0.12848963 -0.09064094 -0.015877336 0.16375716
0003b0 4f 42 cc bc 0e 5e 1e 3d ee bd 55 3e e8 8b 47 3e
       -0.024933962 0.038663916 0.20873234 0.19486964
0003c0 24 f0 6d 3d 32 32 08 3e 8e 43 8d 3d a6 76 9a 3d
       0.058090344 0.13300398 0.06897651 0.07542162
0003d0 ef ea 81 bd 67 34 36 3d a1 2c f4 bd 75 1c de 3d
       -0.06343638 0.04448357 -0.11922575 0.108452715
0003e0 d4 d5 cf 3d e5 81 f5 bd 11 f3 d5 3d 9e 87 2d bd
       0.10148206 -0.11987666 0.10446752 -0.042365663
0003f0 62 6e 7d bd 8f d5 8a bd c9 11 1f 3d 99 1c 8b bd
       -0.061872847 -0.06779014 0.03883532 -0.06792564

features.3.bias f4 [16]
000000 80 a1 6d bd 68 98 9c bc 2c 8d ba bd d4 14 a0 bd
       -0.058015347 -0.019115642 -0.09108958 -0.07816473
000010 e4 b6 a1 ba 48 4f e0 bd 6c 48 af 3d a0 4a 3d 3c
       -0.0012337831 -0.10952622 0.08558735 0.0115534365
000020 88 f6 96 bd 67 dd 54 bd c3 d0 e9 3d f9 68 f7 3d
       -0.07371241 -0.05196896 0.11416771 0.12080569
000030 3c 52 a6 3d 76 b6 63 bd b8 7d 05 3e a7 91 8f 3d
       0.08121154 -0.05559393 0.13036239 0.07010203

features.6.weight f4 [32, 16, 3, 3]
000000 9c d1 8e 3d 56 94 ef ba d6 56 e1 3b b0 78 09 bd
       0.069735736 -0.001827846 0.0068768067 -0.033562362
000010 78 c8 8d 3b 26 34 a0 3c 56 11 95 3a 26 d0 a6 3c
       0.0043268763 0.019556116 0.0011372964 0.020362925
000020 c3 c1 6b 3d 9c af f5 3c fc b3 c7 3c 00 d3 4f bd
       0.057557832 0.029990964 0.024377815 -0.050738335
000030 8c d0 62 3d 0b 90 c3 bb 3a cd 95 b9 91 97 77 3d
       0.055374667 -0.005968099 -0.000285724 0.06044728
000040 2f 5e de 3d 6e 16 3b 3d e0 6c b3 3d a5 82 37 3d
       0.10857808 0.045675687 0.08761001 0.044802327
000050 39 c2 02 3e 88 f7 53 3d 06 94 35 3e b4 9d 30 3c
       0.12769403 0.051749736 0.17732248 0.010779787
000060 76 5e 0f 3e cf 4f 8b 3d 84 25 1f bd 06 6e de 3c
       0.14000878 0.06802332 -0.038854137 0.027152073
000070 95 fa a3 3c 1b 72 11 bc 82 14 2b 3d 76 35 54 3d
       0.020016948 -0.0088773025 0.041767605 0.051808797
000080 77 d5 19 bc 66 99 40 3c 3c cc d7 bc 16 49 87 bd
       -0.009389273 0.011755323 -0.026342504 -0.06605737
000090 2d 42 d6 bd 79 2f 44 bd f8 9c c2 b8 a0 61 05 3e
       -0.10461841 -0.047896836 -9.2798786e-05 0.13025522
0000a0 e2 7e 89 bd e3 2f 87 bd eb d6 0c 3c b0 44 44 3d
       -0.06713654 -0.066009305 0.008596162 0.047917068
0000b0 e8 6a 5d 3d 78 b2 77 bd 42 48 83 3d 1f 09 87 3d
       0.054057032 -0.060472935 0.064102665 0.065935366
0000c0 7a 80 fa 3c 36 a9 0c bd 6a 8c 8e 3d b7 e4 27 bd
       0.03057884 -0.03434106 0.069603756 -0.040989604
0000d0 b0 1e 8c 3c 80 2d d6 3b 5a d5 65 3d b7 a5 34 bd
       0.017104477 0.0065361857 0.05611167 -0.04410335
0000e0 75 15 08 bd 9b b4 f7 bc 9f a0 d9 3d db c5 26 3d
       -0.033223588 -0.030237487 0.10626339 0.040716033
0000f0 ac d1 8b bd c9 58 e4 3d 7f be 27 3d cc 13 9e bd
       -0.06827101 0.11149747 0.040953156 -0.0771862
000100 5e c9 2c be ed b6 d5 bc c6 af 5b bc 8b 95 19 3d
       -0.1687369 -0.026088202 -0.013408607 0.03749613
000110 23 0c 8c bd a3 48 b9 3d 96 27 fa 3b e6 d8 a7 3d
       -0.068382524 0.090470575 0.0076341135 0.08195667
000120 ba 55 1e be bf d9 9f bd a5 60 91 bd 43 59 1b bd
       -0.1546239 -0.07805204 -0.070985116 -0.037926923
000130 15 68 23 bd 75 b3 87 3d 7d f7 9f 3d 96 e9 59 3d
       -0.039894182 0.066260256 0.078108765 0.05320128
000140 bd bc 5d 3d d9 be 3c be 89 29 3f be 40 0f b0 bd
       0.054135073 -0.18432178 -0.18668188 -0.08596659
000150 32 b7 11 be 77 f5 d9 bd 96 0e 8a bd cc 23 c9 bc
       -0.1423004 -0.10642522 -0.06741063 -0.024553202
000160 62 cd 95 3d f4 d6 65 3c 3b bc bd 3b 0d e9 77 bc
       0.07314564 0.0140283 0.005790261 -0.015131247
000170 07 f2 4a 3d 4f aa 91 3d 03 69 98 3d 34 aa b8 3c
       0.04954722 0.07112562 0.074419044 0.022542097
000180 b5 87 ca 3d 16 ad c9 bc 46 2c 67 bd 40 03 a7 bd
       0.09889165 -0.024618667 -0.056438707 -0.08154917
000190 46 01 33 be c5 37 cc bd 8c 5a 6a bd 1e 9b 28 3d
       -0.17480955 -0.09971575 -0.05721526 0.041163556
0001a0 c3 85 5c bd 58 83 97 bd 23 80 73 3c cf 4f 37 bd
       -0.053838503 -0.07398099 0.014862093 -0.044753846
0001b0 4e d8 18 bd b7 97 3d 3c b4 29 00 3c a8 f6 4d 3c
       -0.03731566 0.011571816 0.007822443 0.012571014
0001c0 ff db af bb 41 f6 95 bc 32 c7 be 3d 51 18 98 3d
       -0.0053668017 -0.0183059 0.09315337 0.07426513
0001d0 8c 65 94 3d a4 e8 51 bd a8 7a d2 bd 22 ba 15 bd
       0.07245931 -0.051247254 -0.10277301 -0.036554463
0001e0 3c 6c 03 bd 7e 24 d8 bc 20 8c 68 3d 65 c5 78 3d
       -0.032085642 -0.026384588 0.05677426 0.060735125
0001f0 85 2d c3 3b 06 8c 86 3d 31 b5 ed bb b8 3e 9f bd
       0.005956354 0.06569676 -0.0072542657 -0.077756345
000200 4f a4 96 3d 3d 95 9e 3d 8d 80 86 3d 9b 92 89 bc
       0.07355558 0.07743309 0.06567488 -0.01679354
000210 e5 75 86 bd 7f 01 74 bd ab 73 67 bc 0a af ba 3d
       -0.06565455 -0.05957174 -0.0141266985 0.09115417
000220 1d f8 a5 3d 4d ab 87 3d 5f 8d 37 bc 94 d6 6c 3b
       0.081039645 0.0662447 -0.011203139 0.003613864
000230 a9 1c a7 3d 3d 21 ab 3d 96 83 16 3d 86 e5 41 ba
       0.08159763 0.08355949 0.036746584 -0.00073965674
000240 7e 22 11 3d 13 73 7f 3d bf 59 01 3d 96 bd e0 bc
       0.035433285 0.062365603 0.03157973 -0.027434152
000250 9e 48 4a 3d a0 35 89 bd 3c 57 90 bd 3e d9 a6 3d
       0.04938566 -0.06699681 -0.07047889 0.081469044
000260 04 f9 98 bd d3 8d 7a bd d0 d3 2a bd 5e 63 55 3d
       -0.07469371 -0.06117041 -0.041705906 0.052096717
000270 52 3f 8d bd 35 98 d3 bc 81 3f 85 3d 4f 54 41 3c
       -0.06896843 -0.025829414 0.06506253 0.011799886
000280 5c 85 34 bc 19 b6 86 3d cc 44 73 3d 8a 3c b9 3d
       -0.0110181235 0.06577701 0.05939178 0.0904475
000290 3f 89 f7 3c 4e cd ec 3d e7 a8 d2 3d ba 82 23 3e
       0.030216811 0.11562596 0.10286122 0.15967837
0002a0 af 20 e4 3b d8 4c 66 3c 6e bf 03 3c 40 97 b3 b7
       0.006961904 0.014056407 0.008041246 -2.1408894e-05
0002b0 ee 1c 85 3d 1d fb 43 3c fb 91 ea 3d 68 22 eb bc
       0.064996585 0.011961726 0.11453625 -0.02870293
0002c0 c7 e6 5c bd dd 48 72 3c 88 a9 6e bb f5 ba 54 3d
       -0.053931024 0.01478788 -0.0036416966 0.05193611
0002d0 a8 f2 64 bd bf 2e 2f 3d bb 17 1b 3e ae 4d 92 bd
       -0.055895478 0.04276919 0.15145771 -0.071437225
0002e0 e5 33 6e bd a7 b5 68 bc da 90 7d bd 5c 23 3d bd
       -0.05815496 -0.014203466 -0.06190572 -0.0461763
0002f0 a3 ca a7 3c 55 3e 88 3b 88 d6 bf bc 26 f6 4b bd
       0.020482367 0.004157821 -0.023417726 -0.049795292
000300 00 8c fc bc 95 32 a0 3c 33 8f 18 bd b5 c7 86 3d
       -0.030828476 0.01955537 -0.03724594 0.0658106
000310 16 17 3a 3d 9e 88 20 3d e7 89 b1 bc a3 1e 04 be
       0.045432173 0.03919279 -0.021672202 -0.12902312
000320 0f 64 a7 bd cb 1b 9a bd 80 0e 1b bd 86 67 ca bd
       -0.081733815 -0.07524832 -0.037855625 -0.09883027
000330 2a 58 f1 bd ad e0 98 bc 75 ab 27 3c 10 bb 1f bc
       -0.11784394 -0.018661821 0.01023375 -0.009749189
000340 31 ff 10 3d 69 98 97 bd 1b 69 95 bc b7 0b b6 bc
       0.03539962 -0.07402117 -0.018238595 -0.022222383
000350 e9 1c 53 3d 6e ab d2 3b 6b 91 a8 bc d8 09 16 3d
       0.051541243 0.0064291274 -0.020577153 0.03663048
000360 0c 0e 99 bd f5 34 e5 bd ef 4a fb bd ed 65 9d bd
       -0.07473382 -0.111917414 -0.12270152 -0.076854564
000370 aa 09 5b bd eb 3a 8f bd e3 aa 98 bd 80 17 f8 bb
       -0.053476013 -0.069936596 -0.07454469 -0.007571161
000380 d6 90 c0 bd d8 74 3b bd c3 68 30 be b3 05 f4 bd
       -0.09402625 -0.045765728 -0.17227463 -0.119151495
000390 4c c2 b9 bd 86 a6 ad bd 28 ac 77 bd 5a 71 60 bd
       -0.09070262 -0.084790275 -0.060466915 -0.0547956
0003a0 de 17 e1 bd fc 41 af bd 22 48 91 3d d1 1c e6 3c
       -0.109908804 -0.085575074 0.07093836 0.028089913
0003b0 8f d2 cd 3d e0 0d 16 3d 87 0c 51 bb 8c 4c a8 3d
       0.100499265 0.036634326 -0.0031898336 0.08217725
0003c0 d6 e4 c2 3d 0d 28 71 bc da 92 04 3d 00 2a e4 bd
       0.09516303 -0.0147190215 0.03236661 -0.11140823
0003d0 52 0d bd 3c 4f 78 af bd 2d 17 fb bd 88 be c3 3c
       0.02307764 -0.08567869 -0.1226028 0.023894563
0003e0 ed 48 d5 bd e9 92 18 3c 6d 60 a0 bd c8 2f 4a 3c
       -0.104143 0.00931237 -0.07830892 0.0123404935
0003f0 3b 4d fa 3d cd 31 31 bc 38 88 bc 3d 4e 3d 0a 3d
       0.12221762 -0.010815096 0.09205669 0.03374987

features.6.bias f4 [32]
000000 af 16 d4 bd d6 b9 5d 3d ed d7 32 bd 38 91 3e 3c
       -0.10355889 0.054132305 -0.043662954 0.011631303
000010 13 89 0b bd 30 1d 66 bd 2e 41 3f 3d f6 f7 1f bd
       -0.03406627 -0.05618018 0.04669302 -0.039054833
000020 e3 6b 82 bd bb 36 fd 3c 26 2b 85 bc 30 c8 cd 3d
       -0.06368234 0.030909887 -0.016255926 0.10047948
000030 c1 89 f5 3b 17 d9 93 39 27 a5 9e bd 62 40 50 3d
       0.007493228 0.0002819977 -0.07746344 0.05084265
000040 c0 75 3a bd 2d d5 34 3d 4a dd 9b bd 92 51 e4 3b
       -0.04552245 0.044148613 -0.07610567 0.0069677318
000050 cb 65 a6 3d f1 3c 85 3c e2 9f 08 bd ac 5b 61 3d
       0.08124884 0.01626441 -0.0333556 0.055019066
000060 4d 26 57 bd ff cc 11 bd df 86 8b 3d 96 b7 05 bd
       -0.05252676 -0.03559589 0.06812834 -0.032645784
000070 49 f0 c0 3c 54 34 29 3d a4 4f 1d 3d 0d 4f 51 3d
       0.023552077 0.04130967 0.03840603 0.05110078

classifier.1.weight f4 [3, 512]
000000 2f ee 77 bc 8c c9 06 bd 1b 41 d9 b8 20 6f 41 bd
       -0.015132471 -0.032907054 -0.00010359493 -0.047225118
000010 0a e3 96 bc a6 35 99 3c ac 7b 87 3d 95 bb 59 3c
       -0.018418808 0.01870234 0.066153854 0.013289352
000020 3d 9b 48 bd fd 66 a9 3d 13 78 ae 3d 28 ac 69 3d
       -0.04897617 0.082715966 0.08518996 0.057048947
000030 8a c9 fd bc 25 9a 8f 3d 4f 83 ac 3d 51 f0 b9 bc
       -0.03097989 0.070118226 0.084234826 -0.0226976
000040 f6 dc a5 bc fe 1c ec 3b 5a 71 21 bd 26 16 80 bc
       -0.020246964 0.0072056046 -0.03941474 -0.015635561
000050 3c 6b 88 3b 48 64 94 3d a8 3d d7 3d cf f3 47 3d
       0.004163174 0.0724569 0.10509807 0.0488165
000060 e2 29 9f 3b 80 c2 8c 3d f7 c5 15 3d 41 8c 8d bc
       0.0048572877 0.068730354 0.036565747 -0.017278792
000070 e5 ed 29 3a 7b 26 50 3d 8f 71 8b 3c 50 9c 03 bd
       0.00064822874 0.050817948 0.017021922 -0.032131493
000080 4d 0e 1a 3d 76 15 bc 3c d2 0b 9d 3c c6 f3 2a 3c
       0.037611295 0.022959452 0.019170675 0.010434097
000090 55 ea 8e 3d 6a a0 20 3d 92 d7 68 3d a0 11 d6 bc
       0.06978289 0.039215483 0.05684621 -0.026131451
0000a0 99 bc 07 3d ff 59 15 bd 61 6e 36 3d 3b 5f 83 3c
       0.033138845 -0.03646278 0.04453886 0.01603662
0000b0 3f 5f 85 bc 34 1d 6e bd 1d ff ef bc d0 ee 87 bc
       -0.016280768 -0.05813332 -0.029296452 -0.016593367
0000c0 60 14 42 3c cd 67 85 bc c2 df 04 bd 5f fb a7 bc
       0.011845678 -0.016284848 -0.032439955 -0.020505605
0000d0 93 a3 bc bc 94 a8 82 3d b7 38 8c 3d 27 31 fb 3c
       -0.023027217 0.0637981 0.06846755 0.030663086
0000e0 92 45 ba 3c 46 60 84 3d 22 bc ea 3c ad 8b fd 3c
       0.022738252 0.06463675 0.028654162 0.030950392
0000f0 a4 4f e8 ba 6f ca 28 3d 10 fc 9a 3c ba e2 30 3c
       -0.001772393 0.04120868 0.01891902 0.010796243
000100 36 96 4f 3c e4 e3 c3 bc c9 40 4f 3b a1 ee da bb
       0.01267009 -0.023912378 0.0031624308 -0.006681279
000110 7e 1c fb 38 9d 78 07 3d be ac 01 3d c7 c2 69 bc
       0.0001197392 0.03307401 0.03165888 -0.01426763
000120 d5 fe 27 bd 7e 48 2d 3d 33 e0 00 bd 76 d2 1b 3d
       -0.04101451 0.042305462 -0.031463813 0.038042508
000130 1b e4 01 3d b6 d0 9f bc f2 61 f6 3c 3b ad 65 bc
       0.03171168 -0.0195087 0.030076 -0.014018352
000140 da c9 17 3d 0c 88 bf 3d fa 8b ee 3d 01 64 c0 3c
       0.037057735 0.09352121 0.11647792 0.023485186
000150 26 09 87 bd bd a8 78 3d b1 70 67 3d 12 0f 3c 3d
       -0.06593542 0.060707796 0.056503955 0.04591281
000160 76 ff 17 bd 0d 8e c6 3c 1f d4 e5 3c fe 06 1d 3d
       -0.03710886 0.024237657 0.028055249 0.038336746
000170 45 5e 2f bd 97 58 6a 3d ac 64 fb 3c af 7a 18 3d
       -0.04281451 0.057213392 0.030687653 0.037226375
000180 0d ba cd 3b 4b 28 a0 39 e5 74 50 bd 69 06 3e bd
       0.0062782825 0.000305476 -0.05089273 -0.046392832
000190 8b 18 ff bc 3c 84 cd bd d0 84 11 3c e9 a9 b5 bc
       -0.031139633 -0.10034987 0.008881763 -0.022175746
0001a0 e9 97 59 3a 0c f0 db bd 7e 27 0f 3d 2c 6c ab 3c
       0.00083005294 -0.10739145 0.034949772 0.020925604
0001b0 2b 5c 0f 3d 93 b0 a4 3c aa 74 85 3d 78 5b 90 3b
       0.035000008 0.020103728 0.065163925 0.004405435
0001c0 c4 8f 0b 3c 7f 8c 54 3d 9e 43 01 3d bc 8e fe 3c
       0.008518163 0.0518918 0.031558625 0.03107392
0001d0 40 70 11 bd 62 42 66 bd 72 9b cc bb a2 67 98 3c
       -0.03550744 -0.05621565 -0.0062441165 0.018604103
0001e0 9c fa ba bc 09 51 c4 bd 1f 51 63 bc 5f e7 d3 3c
       -0.022824578 -0.09585769 -0.013874321 0.025867162
0001f0 94 23 1c 3d 25 44 ea 3c 02 ef 75 3c 32 1e b1 bc
       0.038119867 0.028596947 0.015010597 -0.021620844
000200 0d be 29 3d 04 72 b3 3c b3 db 4f bc 80 a9 ff 3b
       0.041441012 0.021904953 -0.012686658 0.0078021884
000210 7e 15 82 3d 98 43 32 bd 45 ca 71 3d f3 39 1a bc
       0.063517556 -0.043521494 0.05903079 -0.00941323
000220 0c e4 8d 3d 83 27 e2 bd 76 94 4f bd 42 1e 29 bd
       0.06928262 -0.110426925 -0.050678693 -0.04128862
000230 26 5b 96 3d e1 64 b9 3c a5 be cb 3b e3 75 1c 3c
       0.07341604 0.02263111 0.006217795 0.009549591
000240 b6 81 41 bd 39 f3 67 3c e4 ef 3f bd e6 84 89 bd
       -0.047242843 0.01415711 -0.046859637 -0.067148015
000250 54 28 0e 3d b6 7d 73 3d 99 7a 88 3d 00 4c 1e 3b
       0.03470643 0.05944606 0.06664009 0.0024154186
000260 02 bb 24 bc 39 64 af 3d e5 5f c9 3a dd 93 4e 3d
       -0.010054352 0.08564038 0.0015363662 0.050433982
000270 a5 08 96 3b f9 48 01 3d dc f3 58 3d 1c 34 95 bc
       0.004578667 0.031563733 0.052966937 -0.018213324
000280 6f b3 17 3c 82 d8 6d bd 32 2c 84 3c 62 58 b2 bb
       0.009259089 -0.058067806 0.016134355 -0.005442665
000290 dc a8 92 bc ee 4b f5 bd f8 0f c9 bc 63 49 e3 bc
       -0.017902784 -0.11977373 -0.024543747 -0.027744954
0002a0 29 fc 2d bb 65 f6 86 bd 13 fa 9f bd fb 1b 80 bc
       -0.0026548004 -0.06589965 -0.0781137 -0.015638342
0002b0 52 9e 12 3c a3 a6 6d bd 63 05 87 bd c8 79 94 bc
       0.008948879 -0.058020245 -0.06592824 -0.018124476
0002c0 cc 74 d6 3c 4d ce 08 3d a5 39 e3 bc 7f a0 1a bc
       0.02617874 0.03339987 -0.027737448 -0.009437679
0002d0 66 8e b0 bc 12 7b a3 3b b5 c6 38 3c 20 f7 e3 bc
       -0.021552276 0.0049890364 0.011277844 -0.0278278
0002e0 1c 37 14 bd 4c 9f 71 3c db 0f af 3c 67 46 08 bc
       -0.03618537 0.014747452 0.021369865 -0.0083175665
0002f0 af 55 cf bc 07 55 69 bd 7a 58 f6 39 5c 5d 53 3b
       -0.025309412 -0.056965854 0.00046986697 0.0032251691
000300 91 aa cb bb ae 28 d6 bc 4d f9 89 bc dc 35 f9 3c
       -0.0062154015 -0.026142444 -0.016842509 0.03042119
000310 f1 6d 0e 3c 43 f4 fa bd 99 3a 46 bd 5c a1 5c bd
       0.008693204 -0.122536205 -0.048395727 -0.05386482
000320 15 93 66 bd 0b e9 99 bd ed 10 98 bd d3 0f aa bc
       -0.056292612 -0.075151525 -0.07425103 -0.020759499
000330 18 ca 18 3c f9 9f b9 bd c9 f9 96 bd d3 1d 16 bd
       0.009325527 -0.090637155 -0.073718615 -0.036649536
000340 c5 98 57 3c b6 cc 4e bc a2 e8 d6 3c 86 23 95 3c
       0.013158982 -0.012622049 0.026233975 0.018205415
000350 c7 35 9a 3d 60 d0 26 bd 9e ce 9a bb ba 04 5c 3d
       0.075297885 -0.040726066 -0.0047243377 0.053715445
000360 f9 cc a0 3c ab 08 bc bd df 2c 7a bd f5 5d 8c 3b
       0.019628989 -0.09181341 -0.06107795 0.0042836615
000370 37 98 02 3d bf 0e 20 bd 1b 5d 4d bd 1b a0 4b 3d
       0.031883445 -0.039076563 -0.05013762 0.049713235
000380 44 f7 2c bc 7d ee df 3c 14 4d 7d bc 4f 0b dd bc
       -0.010557 0.0273354 -0.015460271 -0.026982931
000390 21 6d 7f 3d e2 cc 09 3e 73 02 e1 3d 6c cd 28 3c
       0.062359933 0.13457063 0.10986795 0.010302883
0003a0 e5 3e 81 3c 8a 6b 0f 3e 16 b7 a1 3d b2 c6 2d 3d
       0.01577706 0.14005867 0.07896249 0.04242582
0003b0 f2 dc c9 bc 3f c9 c2 3d 30 15 be 3c 93 f2 7b 3d
       -0.024641488 0.09511041 0.023203462 0.061510634
0003c0 1c 6c 8a 3c f2 7e e8 bc 5a d5 0c bd e0 45 ef 3c
       0.016897254 -0.028380845 -0.034383155 0.029208124
0003d0 32 56 b4 3c be f5 bc bd 64 57 65 ba 33 02 31 bb
       0.022013757 -0.09226559 -0.0008748679 -0.0027009367
0003e0 0e 01 f8 bc fb 39 da bd 27 eb 0c 3d 7d 94 2f 3d
       -0.03027394 -0.1065559 0.034403946 0.04286622
0003f0 9b d1 4c bc 30 0e 87 3d 8b e5 ba 3d 81 31 bb bc
       -0.012501146 0.06594503 0.09125813 -0.022850754

classifier.1.bias f4 [3]
000000 64 43 07 bd ab 70 61 3d a2 6f 52 bd
       -0.033023253 0.05503909 -0.051375993
