vision_system/model_weights_3.pth (torch, 52733 bytes, 8 tensors)

features.0.weight f4 [8, 3, 3, 3]
00000000: 1696 243e 54d8 e9bd a1c0 5bbd e427 ffbd
00000010: 5fe7 04bc b9c6 79be a555 1a3e 7ca4 f33d
00000020: 4126 9ebd 6a33 423e 9025 27bc 76a1 1f3d
00000030: 4b4a 173e 7598 c3bd 9507 09be 7684 8a3d
00000040: a7df e13d d905 4fbe 98cf 47be c09b d43d
00000050: 8eff f03d 0eba 083d 436e aa3d e109 a1bd
00000060: 43ea 843d bdf7 17be 171c 5fbd 3a47 473e
00000070: 0d6f bd3d cffd e33c 6d70 4dbe f1a0 ea3d
00000080: db71 373d 529d f03d 38ef 4bbe acd3 b0bd
00000090: 1fa7 f23d 7e59 233e a530 303e 38e6 afbc
000000a0: e664 0ebd ee82 583c fa04 b5bd 6ab1 00bc
000000b0: 4c86 873c 621d cb3c 3f0b 07be acac 3a3e
000000c0: 6eeb 38be f057 a939 8faf 75bc 501f 63ba
000000d0: 315a 47be a44f d7bd 1135 19be 0cfb 2cbe
000000e0: 6901 87bd c039 703d 105e 6dbe ab97 1ebd
000000f0: c375 d4bd 154a babd bc93 d6bc 0969 8c3d
00000100: b8e1 86bb a4cb 313e 583f 3ebe 0715 0ebe
00000110: fb3e a5bc 3214 303e 908a c5bd bcca 5e3d
00000120: e529 16bc e560 0abd f746 e33d f06f 523d
00000130: db3a cfbd caa3 02be 3059 19be 7faa 4cbe
00000140: 80fa 3cbe b030 3cbe d6bc 383e 65b2 acbd
00000150: 5624 13be dc7c fb3d 498e 413e ea76 2f3e
00000160: ed0a a73d d2e8 323e 9308 26bd 8f51 1a3e
00000170: 44b0 89bd 2bf4 20bc b5c2 b33d 7c01 093e
00000180: acfe 963b 12c6 42be 52ef 3f3e e375 af3d
00000190: 5108 2dbe 1308 7bbd fd14 e9bd 7484 5a3b
000001a0: 122c e5bd 8639 41be 375d 59be 4e31 84bc
000001b0: 2ee0 24be ed85 973d 270e b3bd 4625 00be
000001c0: 8ff6 9dbd f065 a33d 2c0a dd3d a692 5ebe
000001d0: c246 2dbe c319 17be af14 20be 63e1 e9bc
000001e0: 6acb c9bd 5ab3 69bd eb15 99bd c5bb 4a3d
000001f0: 7bd4 473b 2f46 01be e1f0 9a3d f226 1d3e
00000200: 4bf0 083d e832 17be a172 52bd 74ca 1a3e
00000210: 43a5 243d 4a19 47ba b752 003d 4ea0 4e3e
00000220: 3499 0d3e 1b69 223e d638 e33d 5782 abbd
00000230: 920b f33c 9541 273e 20e1 8dbd faeb 07be
00000240: 4262 d4bd 8f97 b9bd a4a9 d3bd f2c7 85bd
00000250: 1da6 e6bd 4b11 c4bb 5485 50be 7a74 06be
00000260: 0a21 17bd 41ff 013e c1c9 1dbd 2461 e43d
00000270: 294a 4cbe d422 1bbe d06a 5abe 3d9a 023d
00000280: c65b e8bb ba50 15be 64b3 2bbe 64d2 8fbd
00000290: 8060 fbbc b9cc 13bc 12ec 15be 50ef 2bbe
000002a0: bbed b1bd 1f47 85bd 423c 38be b1ad 3ebe
000002b0: 5b9e 5cbe 010f 903d ebb4 733d f005 4b3d
000002c0: 773b 38be 0219 44be 31f8 8fbd 85ab 82bd
000002d0: ac42 543c b4af c8ba 9595 07be d20f 3bbd
000002e0: 76e7 de3d 06ae 8bbd 12d3 41be 1681 823d
000002f0: 0661 39be 1057 29be e8a2 003e 9261 c43d
00000300: 1ee4 273d 3e29 fbbd 2228 d73d 899d 36be
00000310: b471 52be 1efd 66be 48bc 82bb dba4 cd3d
00000320: 881f bebc 4c8b 46be 5caf 11be cddf a4bd
00000330: 2aae 3b3e 85c2 bfbc 6ace 1d3e 63da 9abd
00000340: b488 393e ac1e 3b3e fac9 f13d 2a4e 2d3e
00000350: 642a b5bd 243e b53d d13f f93b ba75 6cbd
0.16072878 -0.114182144 -0.053650502 -0.124587804 -0.008111804 -0.24392213 0.15071733 0.11896607
-0.0772214 0.18964925 -0.010201827 0.03897234 0.14774434 -0.09550563 -0.13381799 0.06763546
0.110289864 -0.20217074 -0.19512784 0.103812695 0.11767493 0.03338056 0.08321812 -0.078632124
0.064899944 -0.14840598 -0.054470148 0.19460765 0.09249697 0.027830986 -0.20062418 0.114564784
0.044786315 0.117487565 -0.19915473 -0.08634123 0.11848282 0.15952107 0.17206056 -0.021472082
-0.034764193 0.01321481 -0.0883884 -0.007854799 0.01654353 0.024794284 -0.13187884 0.18229932
-0.1805856 0.0003229971 -0.01499547 -0.0008664029 -0.19467999 -0.10513237 -0.1496165 -0.16892642
-0.06592066 0.058648825 -0.23180413 -0.03871886 -0.10374024 -0.09096161 -0.026193492 0.06855971
-0.0041162632 0.17362839 -0.18578851 -0.13875209 -0.020171633 0.17195204 -0.09645569 0.05439256
-0.009165262 -0.033783812 0.1109752 0.051376283 -0.10118648 -0.12757793 -0.14975429 -0.19986914
-0.18454933 -0.18377948 0.18040785 -0.084324636 -0.1436933 0.122796744 0.18901934 0.17135206
0.08156381 0.17471626 -0.04053552 0.15070175 -0.06723073 -0.009823839 0.08777372 0.13379472
0.004607996 -0.1902087 0.18743637 0.08567407 -0.16897704 -0.061286997 -0.11380956 0.0033343108
-0.11190046 -0.188696 -0.21226965 -0.016136792 -0.16101143 0.07398591 -0.08742934 -0.12514219
-0.07713043 0.079784274 0.10792956 -0.2173563 -0.16921523 -0.14755921 -0.1563289 -0.028549856
-0.09853251 -0.05705581 -0.07474884 0.049495477 0.0030491638 -0.12624429 0.07565475 0.15346888
0.033432286 -0.14765513 -0.05137885 0.15116292 0.04019667 -0.0007595016 0.031328883 0.20178339
0.13827974 0.15860407 0.11094825 -0.0837447 0.029668603 0.16333611 -0.06927705 -0.13273612
-0.10370304 -0.09062111 -0.10335091 -0.06532277 -0.11262152 -0.005983507 -0.2036336 -0.1313037
-0.036896743 0.12695028 -0.038522486 0.111513406 -0.19950165 -0.15150005 -0.21329808 0.031885374
-0.0070910184 -0.14581576 -0.16767651 -0.07022551 -0.030685663 -0.009020978 -0.14640835 -0.16790509
-0.086879216 -0.06507706 -0.17991737 -0.18620946 -0.21544783 0.07034112 0.05949871 0.04956621
-0.17991434 -0.19150165 -0.07029761 -0.06380371 0.012955349 -0.0015311153 -0.13240655 -0.045669384
0.108839914 -0.06820302 -0.18928173 0.063722774 -0.18103418 -0.16537118 0.12562144 0.095889226
0.040989034 -0.12263726 0.105057016 -0.17833532 -0.20551187 -0.22557494 -0.00398973 0.10041209
-0.023208395 -0.19389075 -0.1422705 -0.08050499 0.18328157 -0.023408184 0.15410772 -0.07561185
0.18118554 0.18273419 0.11806102 0.16924348 -0.08845976 0.08849743 0.0076064845 -0.05772946

features.0.bias f4 [8]
00000000: 496a c23d a950 093e cca9 023e cb32 ebbc
00000010: 9f4f 1cbe 4290 da3d e2a2 32be bcd6 493e
0.094929285 0.13409676 0.12760085 -0.028710743 -0.15264748 0.10672046 -0.17444947 0.19710821

features.3.weight f4 [16, 8, 3, 3]
00000000: 4c6a 713c 985e a03d ca19 87bc 2585 cbbd
00000010: 82ff 31bd bb89 413b 82dd c23d 7a99 bc3c
00000020: 0330 92bd 3756 21be 9803 d2bd fd66 01be
00000030: 10f0 043d 933a a5bd 959c 17be 84c0 e8bd
00000040: 7e11 96bd cf38 48bc 45f8 413c 5bd2 f13d
00000050: 6cec cebd 9df5 4b3d 9188 89bd 36c3 f63d
00000060: fff7 cfbd f40e 5bbd ba79 c03d 8b9b efbd
00000070: a009 1cbe 3034 10be e3fa d2bc e480 24be
00000080: 9f14 03bd 88d6 b33c b9d2 8dbd 5de3 4dbd
00000090: 1322 3fbd a9c1 1d3e 9db0 1e3e 365d 023d
000000a0: 6e6b cd38 6e59 f93d 33f9 8e3d b995 1a3e
000000b0: f1b1 e93a 42a9 9a3d 902e ebbd 43f3 aa3d
000000c0: 461d 01be 6f39 d8bd b7d5 18bc 92ac 6b3d
000000d0: 16bf e6bb 3ab7 de3b 1e5e df3d c7c6 973d
000000e0: e57a acbd 3de1 933d b8ac d0bd 8bb7 84bc
000000f0: 5d0d 88bd eacc dd3d 903f 653d 6ba2 073d
00000100: 9c54 e03d f835 3f3e 5a84 013b f316 743c
00000110: 34f4 fdbc b482 d73d 791d a93d 3ab4 2c3e
00000120: 0be1 a3bc 6ced d33c 8a33 233d 8d8a 7b3d
00000130: d11a 4d3e 5a97 e33d 41c3 c33d 2eb0 473d
00000140: 10fa 0c3e 7342 49bd 4a13 7cbd 0a01 773d
00000150: fa88 e13d 91c7 d73d 79f8 883d 8c5d 14bd
00000160: 1736 133e c45a 263e 3c0e 9cbd f903 55bc
00000170: 4fb5 ce3c 02a5 873c ab63 64bd 58d5 0e3e
00000180: 1338 fe3d 0d39 2a3d 82b4 f0bb 9cc4 293e
00000190: 2dc5 233c 80ad c83d 8c27 ca3d eb45 cbbb
000001a0: 3216 603d fd8e 9a3d 199a 5f3d 4d1d d13d
000001b0: 355f d5bd cfd9 98bd 326c 2abd 361d febd
000001c0: 0d41 30be 5ab9 71bd 6708 cfbd e1eb a1bd
000001d0: 9b9b 153d 6276 63bd 6aa6 a53d 6611 e63d
000001e0: 9cdd d3bc d0d6 dc3d a28a 69bd 6156 0fbc
000001f0: 6545 03bd 2421 4e3b 889b afbd d815 c33b
00000200: f375 7e3d f85a fcbb 05b0 e6bd 896c 59bd
00000210: 4608 073d 143e 9b3b 6482 933d 7378 093d
00000220: 2214 d3bd 58ce 3ebd c2d7 db3c cfa9 f7bd
00000230: 7fc1 ad3c 3f07 73bd f20c 02be 4821 1d3d
00000240: ae46 ccbd 3541 f63d 55fd 193c 7744 32bb
00000250: a8e5 843d ee98 cb3d e7d1 f83c c68b c03d
00000260: 1c5f 013e d41e 883c 614c d33d d363 c2bd
00000270: 05e3 5dbd ed61 a2bd 86b9 043e c5fe 013c
00000280: 442a cbba 4a9f 7ebd d7e2 153c b205 bd3d
00000290: be06 f83c dcab d8bd 4500 b0bd be32 103d
000002a0: acd2 0a3e a8d9 273d c4fe d43c d66f 5b3d
000002b0: 10dc cfbd afee 5f3c d141 10bd 3f4c 3cbd
000002c0: dc89 b03d f3d2 823d d71b d3bd aaa2 e0bd
000002d0: 929f ea3c fefa 9bbc f075 29bd 731d 15be
000002e0: ecef e8bd 2f34 a2bd 1b39 a93d 5f90 c1bd
000002f0: 0bdf b73d a382 4dbd 9ee3 dabb 7932 bfbd
00000300: bc51 3e3d 81fd a1bd eec6 0dbd 6675 ed3d
00000310: 81c0 823d e49d 823c 16fb c3bd 8d92 dc3c
00000320: da8d f7bd 385d 743c c376 013d 23c8 193c
00000330: f674 6dbd 7d53 c6bd c01b db3d aa74 033e
00000340: ea22 80bd 9675 96bd a83b 793d e57d 083e
00000350: 5101 ceba 8178 273e 67e9 183e 71fd 523e
00000360: 3789 ce3d 3a2e 21bd d262 8dbd c3bd 4a3c
00000370: 0729 31bd c1ac 5e3d 0a05 3fbd 080c dbbd
00000380: 1200 1e3d 959a 1dbd 40bc 14bd b7a8 61bd
00000390: 4bd3 c4bc 6c98 0dbe 56f3 ab3c e45d 693c
000003a0: 7433 32bc ecd3 c0bc 78d9 043e fa94 e23d
000003b0: 732f 58bd 8af3 923d becc c13c 4a08 7dbd
000003c0: 23ba 8bbd 53fc 37bd eff1 34bd 6247 a9bd
000003d0: eeb7 94bd 2eae 9fbd 68d5 1dbe 5f05 893d
000003e0: 4b76 8d3d 272c 0e3d 0731 363d dd72 5fbc
000003f0: ea4b 34bc 39e7 91bd dcfe eabc 5efc bfbb
0.014734816 0.07830542 -0.01649179 -0.09937505 -0.043456562 0.0029531557 0.095149055 0.023022402
-0.07138064 -0.15755545 -0.10254592 -0.12636943 0.032455504 -0.08067813 -0.14805825 -0.113648444
-0.07327555 -0.0122205755 0.011838977 0.118077 -0.10103688 0.049794782 -0.06715501 0.12048952
-0.101547234 -0.053481057 0.093982175 -0.11699589 -0.15238047 -0.14082408 -0.025754398 -0.16064793
-0.032002088 0.021952882 -0.06924958 -0.05026566 -0.046663355 0.15405907 0.1549706 0.031827174
9.795172e-05 0.121752605 0.06981125 0.15096177 0.001782952 0.075518146 -0.114834905 0.0834718
-0.12608823 -0.105578296 -0.009328297 0.057537623 -0.007041822 0.0067967447 0.10906623 0.07410961
-0.08421878 0.07220695 -0.101891935 -0.016200801 -0.06643174 0.108301 0.05596882 0.03311388
0.10953638 0.18672931 0.0019762726 0.01489805 -0.031000234 0.105229765 0.082575746 0.16865626
-0.02000477 0.025870048 0.039844073 0.06141143 0.20029761 0.111128524 0.09558726 0.048752002
0.13767266 -0.049135637 -0.061541833 0.060303725 0.11012454 0.10536111 0.066880174 -0.036222026
0.14376102 0.16245562 -0.076199025 -0.013001435 0.025232939 0.016558174 -0.055759113 0.13948572
0.12413039 0.041558314 -0.007345737 0.16578907 0.009995741 0.097987175 0.09870824 -0.006203403
0.054708667 0.07546804 0.05459032 0.10210667 -0.1041855 -0.07463419 -0.04160709 -0.12407915
-0.17212315 -0.059014656 -0.101090245 -0.079063185 0.03652535 -0.05553282 0.080883816 0.11233787
-0.025862508 0.1078316 -0.057016976 -0.008748622 -0.0320486 0.0031452859 -0.08574587 0.0059535317
0.062124204 -0.007701274 -0.11264042 -0.053082023 0.032966875 0.004737625 0.072026044 0.033562135
-0.103065744 -0.046583503 0.02683628 -0.12092935 0.02121043 -0.059333082 -0.1270025 0.038361818
-0.099744186 0.12024156 0.009398778 -0.0027201453 0.06489116 0.099412784 0.030373527 0.0940166
0.12633938 0.016616262 0.103173025 -0.09491696 -0.05417158 -0.07928834 0.12961397 0.007934277
-0.0015500267 -0.06216363 0.009148321 0.09229602 0.030276652 -0.105796546 -0.085938014 0.03520464
0.13556927 0.040979058 0.026000388 0.053573452 -0.101493955 0.013667746 -0.035219017 -0.04597115
0.086200446 0.063878916 -0.103080444 -0.10968526 0.028640542 -0.01904058 -0.04137224 -0.14562015
-0.113738865 -0.079201095 0.08262845 -0.09451365 0.08978089 -0.050173413 -0.006679966 -0.09335799
0.046464667 -0.0790968 -0.034613542 0.115946576 0.063843735 0.015944429 -0.09569375 0.02692535
-0.12087603 0.014914803 0.0316074 0.009386095 -0.05797287 -0.09683893 0.10698652 0.12837473
-0.06256659 -0.073466465 0.06084791 0.13329275 -0.0015716945 0.16354562 0.14932786 0.20604493
0.100847654 -0.039350726 -0.06903614 0.012374344 -0.043252017 0.05436397 -0.046635665 -0.10695654
0.038574286 -0.0384775 -0.03631234 -0.05509254 -0.024026534 -0.13827676 0.020990055 0.014243577
-0.010876525 -0.023538552 0.12973583 0.11063571 -0.052779626 0.07175358 0.023657199 -0.061775483
-0.06822612 -0.04491837 -0.04417604 -0.08265568 -0.07261644 -0.07796894 -0.1541344 0.066904776
0.06907328 0.034710076 0.04448035 -0.013638225 -0.011004427 -0.0712418 -0.02868598 -0.005858942

features.3.bias f4 [16]
00000000: 9423 923d 61a3 fa3b 5f3a 8b3d 2785 98bd
00000010: 46db 4c3d 8f77 fabd 2f1c ce3d 24a3 8ebc
00000020: 6e24 2b3c cd0c f03c 81db a23d 717f 22bd
00000030: 323f a6b6 cf20 f2bc bb98 e9bc fd3f 113e
0.07135692 0.007648871 0.06798243 -0.07447272 0.050013803 -0.12229835 0.10063969 -0.017411776
0.010445697 0.029302979 0.07952023 -0.03967232 -4.9545424e-06 -0.02955666 -0.02851521 0.14184566

features.6.weight f4 [32, 16, 3, 3]
00000000: b41e 60bd 498e afbd 8bf4 5a3b 4f3f d5bb
00000010: c10f 0dbd f9a6 89bc c47d a9bd 6b6a 073c
00000020: 4434 0bbc c49d ad3c 2006 a43c f3fe 753a
00000030: 1a2a f13d 1ea2 c43d 0d0f 7dbc f47e c33d
00000040: 0764 913d 8360 5a3d bcdd 293d ab7f 383c
00000050: 449d 93bd ac25 b8bd 106b dbbd e02a d9bd
00000060: 8930 973d 7ee1 1f3d cf3e 81bc 4668 8bbc
00000070: 8440 f9bd 422f 77bd 500b 323d f6ab d4bc
00000080: 5851 97bc af2d 93bd cba6 80bd a0a9 b3bd
00000090: fefc f83d 7358 a7bc 579e c93d c475 e03d
000000a0: e200 4e3d 2d3b cb3d 548e 843d 9ca5 9e3d
000000b0: 1708 be3c 92a0 e83d aafb 8e3c f41a b23c
000000c0: 68e4 aa3d e9cd 863d 14e1 42bd c6b6 3bbd
000000d0: e82e 1e3d 206b 0d3d f9dd a2bd fbb9 33bc
000000e0: 8b47 2c3d 1871 6a3d d2da d03b 8f7f 483d
000000f0: 3f1f 2fbd b7e5 b7bd 6410 b0bd 2182 afbd
00000100: dffa d9bd a37a e2bc 246a 8fbd a313 703d
00000110: ed74 8abd 3ed2 eebc bcc3 91bd a470 ed3c
00000120: e84c 173d ecc5 1ebd cd4c 9d3d fccd 873c
00000130: 4fd4 823c 5769 1aba 9381 2a3d b200 103c
00000140: a4d1 1e3a efa4 013c c3c7 1c3d 907e 3cbd
00000150: 7b7f 8f3d 2c76 a93c 46e7 453d 5bea 06bc
00000160: 6b19 c73d 977f 853d a3df 4bbd d157 573d
00000170: 3436 163c 6b40 80bd a5a5 b7bd 3455 9fbc
00000180: 6169 d5bd 9d84 e5bd c749 c7bd 4a65 fa3c
00000190: 5c12 61bd 42f9 8c3d 5a62 96bd 70fc a5bd
000001a0: f29a e9bc eead c93c c5c3 69bd 7dc9 40bd
000001b0: 7eef eaba a576 573d f106 563d 4394 94bc
000001c0: e0b6 94bc 85c8 b83d 2f93 7d3d 2c77 6fbc
000001d0: 4b73 e1bc 5eae b8bd 2e75 70bb 53b3 043d
000001e0: c605 c2bd a4c9 3e3d cef9 443d 311b 6dbd
000001f0: a214 af3c 252e 803d b425 1abd 7f88 803d
00000200: fbc5 533b 6bc7 08be 59fd 34bd cbc2 d3bd
00000210: d07e 84bd d6c1 37b9 6848 303d 3a85 0dbc
00000220: 8a4f f13c 73be d73d a49b d13d f55e 173e
00000230: 4c9e 0e3e 64d0 f93d f936 183e 9155 833d
00000240: 7d13 4d3c 1fe2 6d3d c6aa 1dbd ff51 4abd
00000250: 5686 88bd 1919 aabc 572a 59be 2808 4cbd
00000260: 2eb4 efbd ec62 933d 04b7 493d 3df8 bcbd
00000270: 7081 c03d 0ff2 e43d 386f d0bd 255c fd3d
00000280: eb08 ec3d a80c 72bd aebf 5dbc 358d b83b
00000290: 3b4e e83c 7485 cc3d a1f8 973d b859 843d
000002a0: 3499 253e fbad e4ba ddec 7d3d 451a e0bd
000002b0: 7e60 61bd 3949 033c 73f9 983c ac6c 663d
000002c0: 8bd7 c2bc f411 e5bd 29f3 0dbe 2d87 fcbc
000002d0: 7249 cabc 19fa b23d 777c e83b 7878 b53d
000002e0: 5dd2 b03d 2665 47bd a25b 19bd 2a46 5cbd
000002f0: 3ba1 2a3d 96f4 143e 3de2 2e3e fb2d ff3d
00000300: 72cc 8fbc ac29 4d3d 4d70 9a3a 85f2 043d
00000310: 25b7 1d3d 8bff 113d 9142 4ebd 7fd3 d83c
00000320: 4a84 57bc f47d 223d db3a 963c 413e 35bd
00000330: 4a3b 58bc 3cd1 dcbd 20ee 1e3d 096a e93c
00000340: b3e1 b13d df11 363d 91fe 823d ba9c 4bbc
00000350: 746b 013d c327 9b3d e9b5 a6bc b933 0a3d
00000360: 1d88 b33d cf41 033e 9be3 36bc 95d9 a5b9
00000370: 5fa6 8e3c b1aa a6bd 0989 113e c1a9 053e
00000380: 89b3 b63c 0aca 1f3d 6ca3 8cbd d3d3 72bd
00000390: 7a37 c1bd 1260 01be 83e0 e5bd 2c37 113e
000003a0: 3410 083e 97f0 95bd 6bc3 933d c2f4 a13d
000003b0: 1b91 cb3d 9c7e 6bbd f463 2cbc 3fa3 8f3d
000003c0: a29a bebd 6182 2cbb 5c1a b8bc f972 723d
000003d0: 70e1 d03d 7a8e 073d fda4 38bd e738 f93d
000003e0: 23f9 5b3c e5e6 4b3d bc2e 1e3d 6046 c0bc
000003f0: e315 07bd c239 823d 9aea ac3d 9133 09bc
-0.05471678 -0.085720606 0.003340992 -0.006507791 -0.034438852 -0.016803252 -0.08275941 0.008265118
-0.008496348 0.021193393 0.020022452 0.00093839987 0.11775608 0.09601234 -0.015445483 0.09545699
0.07099157 0.053314697 0.041471228 0.011260907 -0.072077304 -0.0899156 -0.1071378 -0.10603881
0.07382304 0.039033405 -0.01577702 -0.017017495 -0.121705085 -0.060347803 0.04346782 -0.025960904
-0.018471405 -0.07186448 -0.06281813 -0.08772588 0.121576294 -0.020427918 0.09844654 0.10959962
0.05029381 0.09923396 0.064724594 0.07746431 0.023197217 0.11358751 0.017453987 0.021741368
0.08344346 0.06582243 -0.047577932 -0.045828603 0.038618952 0.03452599 -0.07952494 -0.010969634
0.042060416 0.05723676 0.0063737417 0.048949774 -0.042754408 -0.089793615 -0.08596876 -0.08569742
-0.10643553 -0.027646368 -0.070026666 0.058612477 -0.06760583 -0.029152986 -0.071174115 0.028984375
0.036938578 -0.03876297 0.07680664 0.016577713 0.015970377 -0.00058903306 0.041627478 0.008789228
0.00060584606 0.007912858 0.038276445 -0.046019137 0.07006737 0.020686232 0.048316263 -0.008234586
0.09721645 0.065184765 -0.049773823 0.052573983 0.0091681965 -0.06262287 -0.08967141 -0.019449808
-0.1042049 -0.112069346 -0.09730869 0.030565877 -0.05494915 0.0688348 -0.07342978 -0.08104789
-0.028516266 0.024619069 -0.057071466 -0.047067154 -0.0017924157 0.052603383 0.052252714 -0.018137103
-0.018153608 0.09022621 0.061907943 -0.014615815 -0.027520796 -0.09017633 -0.0036690938 0.03239758
-0.094737574 0.04657902 0.048089795 -0.05788726 0.021372143 0.06258801 -0.037633613 0.062760346
0.003231405 -0.13357322 -0.044186924 -0.10339888 -0.064695 -0.0001752445 0.043037802 -0.008637721
0.029456872 0.10534372 0.10234764 0.14782317 0.13927573 0.121979505 0.1486472 0.06412805
0.012516853 0.058076974 -0.03849294 -0.049394604 -0.066662475 -0.02076392 -0.21207558 -0.049812466
-0.117042884 0.07196602 0.049246803 -0.09227035 0.09399688 0.111789815 -0.10177463 0.12371091
0.115251385 -0.0590941 -0.0135344695 0.0056320676 0.028357616 0.09986392 0.07420469 0.06462425
0.16171724 -0.001744687 0.06199347 -0.109425105 -0.055023663 0.008013063 0.018673634 0.05625598
-0.02378442 -0.11185065 -0.1386229 -0.030826176 -0.024693225 0.087391086 0.0070949155 0.08860868
0.086338736 -0.048680447 -0.037440903 -0.05377785 0.041657668 0.14546427 0.1707849 0.12459942
-0.017553542 0.05008857 0.0011782736 0.032457847 0.03850474 0.035644095 -0.05035645 0.026468037
-0.013154099 0.0396709 0.018338611 -0.044248823 -0.013197729 -0.10782096 0.038801312 0.028492944
0.08685627 0.044450637 0.06396211 -0.012427503 0.031596616 0.07575943 -0.020350413 0.033740733
0.08766196 0.12818073 -0.011162664 -0.00031633364 0.017413316 -0.081380256 0.14212431 0.13053037
0.022302406 0.03901104 -0.06867108 -0.059284043 -0.094344094 -0.12634304 -0.11224463 0.14181203
0.13287431 -0.073212795 0.072150074 0.07908012 0.09939786 -0.05749379 -0.010521878 0.070135586
-0.093068376 -0.002632283 -0.022473507 0.059191678 0.10199249 0.03309486 -0.04507922 0.121690564
0.013426098 0.049780745 0.038618788 -0.023471057 -0.032979857 0.06358673 0.08443184 -0.008374111

features.6.bias f4 [32]
00000000: 5c76 76bc 804b 973c 2e6c 35bc 5f5a c2ba
00000010: 3894 85bd af3e cdbc 1d41 bdbd 4ac9 edbd
00000020: ae07 9ebd 939f 43bd e34b a0bd 8cfc 933d
00000030: 8d30 4f3b a9e6 8bbd aa50 1e3d 6d06 fa3c
00000040: 161f af3d 4a9a 66bd 2ca3 8bbd 000c bbbd
00000050: e99d 4b3a cb50 aebd e5c5 a83d c6c9 7f3d
00000060: ad64 a33d d403 e13d 3dfd bd3d 1674 3d3d
00000070: 6e04 1fbd c5fc 23bd 0ffe 9dbd 41ec eb3d
-0.0150428675 0.018468618 -0.011073155 -0.0014827958 -0.06522411 -0.025054304 -0.09240935 -0.116106585
-0.077163085 -0.047759604 -0.07826974 0.07225904 0.0031614632 -0.06831104 0.038651146 0.030520642
0.08550851 -0.056299485 -0.06818232 -0.09133148 0.0007767366 -0.08511504 0.082408704 0.062448286
0.07978187 0.10987058 0.09276817 0.046253286 -0.038822584 -0.04003598 -0.077144735 0.11519671

classifier.1.weight f4 [3, 2048]
00000000: a5ca eeba ad88 993c b819 9c3c b382 a2bc
00000010: 5667 683c 5bb9 d13b 8174 96bc c9e2 433c
00000020: 69d6 2a3d 1a67 b73c 0f3a 083d 3420 8c3a
00000030: b0f0 0a3d 0df1 ecbb 37a9 163c 7ff8 953c
00000040: 6380 223d 375a ef3b 6cb7 4a3c 6f03 713c
00000050: 887e 11bd 35e8 0b3c e91d a53c 9866 b2bb
00000060: 43f9 153d e35a 19bc 0ced 863a 19bc 4ebd
00000070: 0f38 54bd cd1c 6fbd 59c3 58bd 7eb1 303a
00000080: 3989 4b3c 5ed8 a4bc 0d5d 98bd 8e1d 93bd
00000090: 3a3e a4bd 31bc 6bbd e8d7 2abd c710 b53c
000000a0: e70d 063d bed5 393c 1281 29bd 2aac 79bd
000000b0: 79bc 52bd 6215 60bc 681e a23b b377 25bb
000000c0: b1e9 333d 60f2 223d 9fd0 fbba 94e1 683c
000000d0: e3c3 513c 1132 ab3c 3790 423d 56bf d83c
000000e0: cc37 083d 1051 fd3a f7b4 dd3a 49aa 34bc
000000f0: 6020 3b3c 0139 adbb d66e 1a3c 039f ae3c
00000100: bc84 95bc 7512 bcbc e6c9 eabc ea8c 163c
00000110: 6a0c 2bbd f1be 49bd ef83 20bd b813 5bbb
00000120: d0bb 063d 7fe5 113d 0b62 833c 53d5 553c
00000130: eed9 043d c9f4 ba3c 2fab a83b 3f0e f03c
00000140: fc22 913c 33d9 bc3c 0893 cfbc 0179 693c
00000150: 22ed 83bb f079 d13c 4163 19bc 4fd4 e5bb
00000160: 3d96 1e3c e08a 9f3c 9164 abbc dcb7 cabb
00000170: e8aa bebc cd8e f5bc 840f 853a b309 0ebc
00000180: ffe9 2abc c12c e93c f4ba e8bb d075 ec3b
00000190: 2716 41bd 002e 73bd 804d d03b c1af 4dbc
000001a0: 7ca2 bd3c 954c 763d 15f6 803c 4b3f 5ebd
000001b0: 3196 9739 577c 66bc cc36 dabb b61b c23b
000001c0: 6f9d 243b 80ad 093d 6352 063d 23d9 da3c
000001d0: afe6 b73c 2864 2c3c 7ba3 e13b 3436 263d
000001e0: 1e91 853c a747 083c 45f5 c93b 31de eebc
000001f0: 8b35 c4bc c673 71b9 ac81 b8bb fe51 c3bc
00000200: e0a2 9ebc f044 61bd cccc e13b b763 603c
00000210: 5a54 92ba 948d b7bc a5ba a4bc a9e7 27bd
00000220: aa6c a43c dbc8 043c b392 003c e3d2 523d
00000230: 65b0 8a3d 95e3 423d 6450 bf3d f340 e73b
00000240: 25b4 883c 7422 5abc 204d 093b e117 48bd
00000250: abe9 66bd fbb3 363d 6c8c 883d 03c2 9e3b
00000260: 51e5 1f3d bfa7 0bbd fe1a 9fbd 4fc5 0bbe
00000270: abd2 f1bd 934c 6d3d a33e 993c e610 0a3d
00000280: 4c44 20bc 725d c5bd 596d d7bd 659c 24be
00000290: b04a a8bd 200c 71bd 7f84 803d 346f 9bbb
000002a0: c508 60ba 63f5 4dbd 3bd1 a5bd fa9f 7abd
000002b0: e340 cfbd 1425 52bd 6b12 3e3d c07d 1abd
000002c0: 74e4 d53c 32dd 983b b09b 223c 5a52 31bd
000002d0: 3a4b 2cbd 56dc 63bc eb2f f43c 74b7 9abc
000002e0: 5174 093d 7617 22bc 7d05 a33b 9581 5dbb
000002f0: 366d 363b 3075 ce3c 6e22 a23c 68aa ccbc
00000300: 7959 0dbd b926 16bc 142a 32bd dd3c 84bc
00000310: e0c1 b0bb 1a6a 14bd 1480 0a3c a374 b0bb
00000320: b10c 05bd 56d7 283c 4dcf 02bd f8ad 29bd
00000330: c258 4cbd 75d0 0dbd eb44 b8bc 7fd8 18bd
00000340: d374 c7bc 39d3 4abd 73ac a13b 5447 9cbc
00000350: 0137 403c 4ff8 ae3b 4ea5 7e3b 585b cbbc
00000360: dead ffbc 653d 943c 5813 2d3d 1ff5 263c
00000370: 6b37 ed3c c559 f03c 075b 343b 7a8e 903b
00000380: 46d8 70bc 768d b53c a8ab 8a3d 2ed2 dd3c
00000390: 555b 793d 1c00 293d 79fa 3f3c cb1d aebc
000003a0: 43a8 0bbd 7b0e 973c 65b1 1b3d 52b9 0e3d
000003b0: 8f26 7d3d 1ad9 1f3d 9e46 113d 044c a63c
000003c0: 4e77 113a 8af7 51bc 3115 533d a4b2 f93c
000003d0: 9b07 0a3d f307 4b3c bfcd f03c 4b8f 933c
000003e0: 8f8d 0dbd 9816 1abd 08e4 bdba 9b2e ae3c
000003f0: 5256 bf3a ae46 123d 409c dfbc 6ce2 34bc
-0.0018218352 0.01874193 0.019055232 -0.019837713 0.014184793 0.00640027 -0.0183661 0.011955925
0.041708384 0.02238803 0.033258494 0.001069075 0.033920944 -0.007230884 0.009195617 0.018306969
0.03967322 0.0073044556 0.012372833 0.014710291 -0.03552106 0.008539249 0.020155864 -0.005444359
0.036614668 -0.009360048 0.0010294034 -0.050472353 -0.051811274 -0.058377076 -0.052920673 0.00067403156
0.012422853 -0.020122703 -0.07439623 -0.071833715 -0.08019681 -0.05755252 -0.04170981 0.022102727
0.032728102 0.011342464 -0.041382857 -0.060955204 -0.051449273 -0.013676973 0.0049474724 -0.0025248348
0.043924037 0.039781928 -0.0019211954 0.014213938 0.012803051 0.020897897 0.047500815 0.026458424
0.033256337 0.0019326527 0.0016914894 -0.011026927 0.011421293 -0.0052863364 0.009425839 0.021316057
-0.01825177 -0.02295802 -0.028660726 0.00918887 -0.041759886 -0.04925436 -0.03918832 -0.0033428501
0.032893956 0.035619255 0.016037961 0.013051349 0.032434396 0.0228218 0.00514736 0.029303668
0.017716877 0.023052787 -0.025338665 0.014250041 -0.004026071 0.02557084 -0.009362043 -0.0070138345
0.009679374 0.0194754 -0.020921977 -0.0061864685 -0.023274854 -0.02997532 0.0010151719 -0.008669305
-0.010431766 0.028463723 -0.0071023647 0.007216193 -0.047140267 -0.05937004 0.006356895 -0.01255411
0.023148768 0.060131628 0.015742341 -0.05425958 0.00028912866 -0.014067731 -0.0066593643 0.0059237136
0.0025118252 0.033612728 0.032793414 0.026714867 0.022448866 0.010521926 0.0068859435 0.040579036
0.016304549 0.0083178645 0.0061632716 -0.029158683 -0.023951313 -0.0002302668 -0.0056306925 -0.023842808
-0.019364774 -0.054997385 0.006890869 0.013695649 -0.0011164055 -0.022406377 -0.02010853 -0.040992413
0.020071346 0.008104528 0.007847476 0.05147065 0.06771926 0.04758032 0.09341505 0.007057303
0.016687462 -0.013313878 0.002095051 -0.048850898 -0.056375187 0.044605237 0.06667408 0.0048449053
0.039037053 -0.034095522 -0.0776882 -0.13649486 -0.1180776 0.057934355 0.018706625 0.03370752
-0.009781908 -0.09636964 -0.10518903 -0.16075285 -0.082173705 -0.058849454 0.062752716 -0.004743481
-0.00085462286 -0.050282847 -0.08096548 -0.06118772 -0.10119798 -0.05130489 0.046404283 -0.03771758
0.026109912 0.0046650404 0.009924814 -0.043291427 -0.04206393 -0.013907513 0.029808005 -0.018886305
0.033558194 -0.009893289 0.0049750195 -0.003379916 0.002783609 0.025202364 0.019791808 -0.0249836
-0.034509156 -0.009164506 -0.04349716 -0.016142303 -0.0053942055 -0.036234 0.008453388 -0.005384998
-0.032482807 0.010305246 -0.03193598 -0.041425675 -0.049889334 -0.03462263 -0.0224938 -0.03731584
-0.024347698 -0.049517844 0.0049338876 -0.01907698 0.011731864 0.0053396593 0.0038855853 -0.02482383
-0.031210836 0.018095681 0.042254776 0.010190277 0.02895709 0.02933968 0.0027520077 0.004411516
-0.014700001 0.02216218 0.06771022 0.02707776 0.060878117 0.04125987 0.011717432 -0.02125444
-0.034096014 0.018439522 0.038010973 0.034844704 0.06180435 0.039025404 0.035467736 0.020299919
0.0005549089 -0.012815366 0.05153388 0.03048069 0.03369866 0.012392032 0.029394982 0.018012663
-0.03455883 -0.037619203 -0.0014487514 0.021262458 0.0014597869 0.035711937 -0.027296185 -0.011040311

classifier.1.bias f4 [3]
00000000: e3ab f3bc cbed fd3c 928c c1bb
-0.029745048 0.030997178 -0.00590665
